dqn.pth (torch, 178674 bytes, 38 tensors)

actor.preprocess.model.0.weight f4 [128, 3]
0.503961 -0.39560226 0.001163502 0.122003324 0.13709468 -0.16925849 -0.4079015 0.1581371
0.55193615 -0.0585353 0.53977937 -0.2796143 -0.08669945 0.17197911 0.4696072 0.18863295
0.099021204 -0.10950407 -0.111381195 0.22315544 -0.49967217 -0.21042682 -0.465832 -0.5301065
-0.12969032 -0.005655762 -0.41752338 0.5360687 -0.4337703 0.1008701 0.2625474 -0.24991599
-0.02976122 -0.09956897 0.21195269 -0.20534281 0.38338676 -0.34256417 0.36020365 0.18876307
0.53444076 -0.42802966 -0.47656748 0.47756752 -0.36671996 0.29922166 0.36571622 0.20033783
0.30270818 -0.16429502 0.26153782 0.074234135 0.32307237 -0.3113944 -0.15157138 0.21668915
0.48534498 0.040226806 0.24799795 -0.3764877 -0.2445711 0.5366195 -0.5425692 -0.21841809
0.45680854 0.31515092 0.25399044 0.24379353 0.29226968 -0.004409037 -0.34486276 0.22314344
-0.08272881 -0.57248396 -0.11645996 0.39679024 0.30322582 0.35158584 0.4789702 0.29178062
0.46585485 -0.07788987 -0.3402234 0.044941366 0.09455357 0.49910527 0.40794995 -0.4360302
-0.013418555 -0.12889683 -0.38173705 -0.34681088 -0.45051014 -0.48064837 0.6058431 -0.04700449
-0.4808846 0.36671105 0.3283986 0.15288296 0.013246267 -0.24961531 0.34446296 0.26562282
0.07990807 0.56376183 0.115443386 0.40437543 0.060175754 0.3315103 -0.46921036 -0.2122105
-0.11176431 0.22407945 0.43622044 0.17982864 0.45856977 0.47203556 -0.21061577 0.07616819
0.012904816 0.2714948 -0.21809764 0.29094365 -0.10409177 -0.525556 -0.17064302 -0.3095066
0.081986494 -0.29960504 0.031156495 0.16483802 -0.33306637 -0.019233836 0.33958417 0.5071051
-0.21402572 -0.27375507 -0.25722897 0.031879608 0.46242282 0.50255734 0.5460027 0.041339897
-0.079207875 0.27410495 -0.24060048 -0.39961728 0.02943365 0.08569605 -0.3073849 0.36969006
0.0076037566 0.55253637 -0.46694782 0.049795255 0.36464736 0.37867156 0.46036828 0.4437831
-0.310306 0.54862297 -0.13412787 -0.014740622 0.3949275 0.53090703 0.003227023 -0.31388742
0.3203704 0.033043794 0.37342235 0.12010924 -0.17158921 0.48983693 -0.08317193 0.52102834
0.3066917 0.2834495 0.3395621 -0.46410152 0.11501468 0.024263779 0.20949201 0.2759017
0.015295877 0.22074273 0.5896 -0.009075058 -0.1152579 0.32024866 -0.101219684 -0.5117127
0.32019195 -0.029263673 -0.04077529 -0.049772356 -0.47008067 0.03875472 0.113200314 -0.50483316
-0.0347315 -0.32573375 0.17950967 0.22502275 -0.27797595 0.20369732 -0.39061928 0.5753916
-0.1101691 0.038127284 -0.2739247 -0.23153429 0.5715257 -0.047008462 -0.12959726 0.15095384
-0.4638205 -0.12605324 0.17438947 0.119937606 0.4028611 0.20991257 -0.35398343 0.3630768
-0.41471013 0.26252723 0.59305024 -0.025509922 0.37025195 0.2729098 0.17515038 0.2596375
0.09065396 -0.3417354 -0.5575483 -0.11655245 0.10145722 -0.25322664 -0.1895336 0.30474752
0.16363251 0.5835468 -0.032871027 0.46212143 0.20475605 -0.16030452 -0.04869926 -0.4513533
-0.07276672 -0.35426104 0.007587045 0.55994964 -0.07119112 -0.4667576 0.21389186 -0.41314104
00000000: 9703 013f 618c cabe a680 983a e1dc f93d
00000010: 8c62 0c3e 1952 2dbe 77d8 d0be b1ee 213e
00000020: b04b 0d3f b6c2 6fbd fb2e 0a3f 9b29 8fbe
00000030: 7b8f b1bd 4b1b 303e 5b70 f03e ff28 413e
00000040: a1cb ca3d ab43 e0bd d31b e4bd dc82 643e
00000050: 08d5 ffbe 217a 57be 8881 eebe 0fb5 07bf
00000060: 8acd 04be f853 b9bb a0c5 d5be cc3b 093f
00000070: 2417 debe fc94 ce3d 9d6c 863e fae9 7fbe
00000080: cdcd f3bc d1ea cbbd 200a 593e 6345 52be
00000090: 454b c43e 9264 afbe 9d6c b83e 1b4b 413e
000000a0: 1cd1 083f b426 dbbe a700 f4be bb83 f43e
000000b0: b8c2 bbbe 9533 993e 283f bb3e 5c25 4d3e
000000c0: 91fc 9a3e f43c 28be 49e8 853e 1108 983d
000000d0: be69 a53e 166f 9fbe 8735 1bbe c3e3 5d3e
000000e0: 237f f83e ddc4 243d 2df3 7d3e ffc2 c0be
000000f0: d970 7abe e55f 093f d1e5 0abf fea8 5fbe
00000100: cfe2 e93e 765b a13e 090b 823e 03a5 793e
00000110: 5fa4 953e af79 90bb da91 b0be b77f 643e
00000120: b96d a9bd 4f8e 12bf 8f82 eebd 1728 cb3e
00000130: 6a40 9b3e 0f03 b43e 953b f53e 4564 953e
00000140: 8784 ee3e b984 9fbd c331 aebe 7014 383d
00000150: 4da5 c13d ba8a ff3e d1de d03e 5a3f dfbe
00000160: 80d9 5bbc 88fd 03be 0a73 c3be 3291 b1be
00000170: 44a9 e6be 8b17 f6be 8918 1b3f c887 40bd
00000180: 8236 f6be 8dc1 bb3e dc23 a83e 5a8d 1c3e
00000190: df06 593c 289b 7fbe 735d b03e b7ff 873e
000001a0: d8a6 a33d b252 103f 956d ec3d 4c0a cf3e
000001b0: da7a 763d b8bb a93e 573c f0be b64d 59be
000001c0: b0e4 e4bd 1575 653e 4958 df3e 0025 383e
000001d0: a8c9 ea3e a5ae f13e a9ab 57be 11fe 9b3d
000001e0: b96e 533c 5e01 8b3e fd54 5fbe 91f6 943e
000001f0: 112e d5bd d78a 06bf 0bbd 2ebe a677 9ebe
00000200: 89e8 a73d d565 99be e83b ff3c 4ccb 283e
00000210: ad87 aabe 4790 9dbc fadd ad3e a4d1 013f
00000220: 8f29 5bbe a029 8cbe 84b3 83be 3194 023d
00000230: afc2 ec3e 99a7 003f d5c6 0b3f 0654 293d
00000240: bd37 a2bd 7c57 8c3e f95f 76be a39a ccbe
00000250: d71e f13c 6981 af3d 8e61 9dbe 0448 bd3e
00000260: ef28 f93b 0673 0d3f c913 efbe 1cf6 4b3d
00000270: 0fb3 ba3e 3de1 c13e 64b5 eb3e 8a37 e33e
00000280: 6ee0 9ebe 8e72 0c3f d158 09be a682 71bc
00000290: f033 ca3e 86e9 073f 767c 533b dab5 a0be
000002a0: 9707 a43e ee58 073d 3731 bf3e d5fb f53d
000002b0: 15b5 2fbe e8cb fa3e 0b56 aabd 1d62 053f
000002c0: b206 9d3e 4b20 913e 15db ad3e b79e edbe
000002d0: d18c eb3d d5c4 c63c 1385 563e fd42 8d3e
000002e0: 8f9b 7a3c 620a 623e 07f0 163f 8daf 14bc
000002f0: 550c ecbd a2f7 a33e 444c cfbd 9aff 02bf
00000300: 33f0 a33e 5fba efbc fe03 27bd 19de 4bbd
00000310: 6aae f0be 45bd 1e3d 91d5 e73d bf3c 01bf
00000320: 9e42 0ebd 93c6 a6be 62d1 373e 5d6c 663e
00000330: dd52 8ebe 0896 503e 40ff c7be dd4c 133f
00000340: 56a0 e1bd 5b2b 1c3d dc3f 8cbe 5317 6dbe
00000350: 824f 123f f28b 40bd 25b5 04be a593 1a3e
00000360: e179 edbe 1a14 01be 2793 323e d9a1 f53d
00000370: cf43 ce3e 52f3 563e 513d b5be 34e5 b93e
00000380: e354 d4be f869 863e 24d2 173f 2ffa d0bc
00000390: aa91 bd3e d5ba 8b3e 9f5a 333e 35ef 843e
000003a0: c9a8 b93d f1f7 aebe 7cbb 0ebf 0db3 eebd
000003b0: cec8 cf3d eca6 81be 1915 42be de07 9c3e
000003c0: 488f 273e 5363 153f c5a3 06bd 2e9b ec3e
000003d0: 92ab 513e de26 24be e078 47bd c817 e7be
000003e0: b806 95bd b461 b5be bf9c f83b dc58 0f3f
000003f0: a6cc 91bd dafa eebe 7806 5b3e 3987 d3be

actor.preprocess.model.0.bias f4 [128]
-0.36743987 -0.30457708 0.5935843 0.7119993 0.17543621 0.6421002 0.11211154 0.33172598
0.27296087 -0.5245763 0.28966418 -0.24528775 0.517316 0.06661241 -0.39224905 0.4656351
-0.016030252 -0.3405722 0.17878526 -0.42082182 0.5713972 -0.39392155 0.2793632 -0.21114075
0.36604366 -0.19509433 -0.3981624 0.42736503 0.5407483 -0.574955 -0.29455104 0.6117753
0.3225707 0.5591059 0.39710414 -0.47207084 0.48102784 -0.4703013 0.39431825 0.4641665
0.010633243 0.23880515 -0.32915676 0.37849617 0.2414768 0.13363306 0.18236066 -0.051128987
0.51906306 -0.42560357 0.47323957 -0.25156212 -0.0066481503 0.6636683 0.3577304 -0.10627357
0.24759135 0.45843795 0.56311846 -0.2502037 0.37937173 0.289173 -0.045125432 0.49614838
0.5786053 0.68765765 0.137832 -0.2279641 -0.36588162 0.31395352 0.3904313 0.4492804
0.63864523 -0.035470817 0.70675814 -0.3051494 -0.38961953 0.048422344 -0.32647315 0.6721754
0.11665656 0.06415552 -0.16057941 0.34446734 0.66171974 -0.50793016 0.06690396 -0.0731412
-0.45492065 -0.25198328 -0.28764504 -0.2944078 -0.32806802 0.28025526 0.07990585 0.38174707
0.33675566 0.5323021 -0.1974167 0.6949126 0.13303322 -0.24744703 0.4664712 -0.18343933
0.2836741 -0.38258275 0.07123663 -0.1923041 0.4769321 -0.13211852 0.46080428 -0.11298198
-0.3129727 0.19487545 -0.19403626 0.30597815 -0.2531288 0.579517 0.019748583 0.082683526
-0.15822697 -0.16507806 0.42077374 0.24178399 -0.17482644 0.52512896 0.56301564 -0.49642545
00000000: 1421 bcbe 87f1 9bbe 24f5 173f 9645 363f
00000010: 8da5 333e ae60 243f bc9a e53d fdd7 a93e
00000020: 87c1 8b3e a24a 06bf dd4e 943e b62c 7bbe
00000030: d26e 043f 166c 883d ded4 c8be b967 ee3e
00000040: e051 83bc 7b5f aebe 7c13 373e f575 d7be
00000050: 1647 123f 16b0 c9be b108 8f3e 4835 58be
00000060: 136a bb3e cfc6 47be f1db cbbe 97cf da3e
00000070: 7b6e 0a3f 4030 13bf 65cf 96be 4e9d 1c3f
00000080: fd27 a53e 9021 0f3f 3c51 cb3e 45b3 f1be
00000090: 4849 f63e 55cb f0be 15e4 c93e 3ba7 ed3e
000000a0: 0e37 2e3c 5689 743e 3c87 a8be 40ca c13e
000000b0: b245 773e 1bd7 083e c1bc 3a3e a16c 51bd
000000c0: 51e1 043f b6e8 d9be 754c f23e c0cc 80be
000000d0: bad8 d9bb 2ae6 293f 7028 b73e f5a5 d9bd
000000e0: 9688 7d3e 61b8 ea3e 8828 103f b31a 80be
000000f0: 033d c23e 7c0e 943e 72d5 38bd 2907 fe3e
00000100: 7a1f 143f 550a 303f d523 0d3e 6c6f 69be
00000110: d654 bbbe 84be a03e 9de6 c73e 1508 e63e
00000120: 417e 233f d949 11bd 1aee 343f 8b3c 9cbe
00000130: 367c c7be 8256 463d 7d27 a7be b013 2c3f
00000140: a2e9 ee3d f863 833d ee6e 24be 065e b03e
00000150: 7766 293f b607 02bf f204 893d 0ecb 95bd
00000160: 5ceb e8be f403 81be 3646 93be 9fbc 96be
00000170: 88f8 a7be 9e7d 8f3e aea5 a33d 5a74 c33e
00000180: 3d6b ac3e f344 083f 9a27 4abe cbe5 313f
00000190: dc39 083e c162 7dbe 50d5 ee3e 85d7 3bbe
000001a0: bb3d 913e e3e1 c3be 83e4 913d 5eeb 44be
000001b0: 7230 f43e 144a 07be 8aee eb3e 1963 e7bd
000001c0: f53d a0be 6e8d 473e 71b1 46be 2ba9 9c3e
000001d0: 199a 81be 3a5b 143f c8c7 a13c fb55 a93d
000001e0: 4006 22be 390a 29be a86f d73e 3996 773e
000001f0: b405 33be da6e 063f cb21 103f 7a2b febe

actor.preprocess.model.2.weight f4 [128, 128]
-0.056827437 -0.024972573 -0.009575859 -0.040033594 -0.0035164282 0.043590657 0.033568867 -0.015685275
-0.051641796 -0.08245547 0.049484007 -0.03526722 0.063634165 0.058148526 -0.05348794 -0.0120565295
-0.028889261 0.010982342 -0.056838818 -0.013774179 -0.0127495825 -0.0066880286 0.0030272603 0.053258486
-0.024576724 0.019530721 -0.043387577 -0.04346482 -0.0020390972 -0.020831995 -0.038941022 -0.086812645
-0.03464219 -0.07235722 0.058447324 0.015736766 -0.006629713 -0.081687525 0.048892446 -0.007491015
-0.013883159 0.020138241 -0.0071016103 0.03440839 -0.031020649 -0.023675278 0.082024895 -0.08762409
-0.03445056 -0.002280958 -0.046307996 0.06285883 -0.06457451 -0.017584518 -0.050807342 -0.0147706345
0.03868539 -0.07471948 -0.07037182 0.06435033 0.012038074 0.037538834 -0.07825288 0.024155855
-0.024048917 -0.03252878 -0.06275582 0.07314614 -0.04356867 0.013417609 0.03198354 -0.08034085
0.035908654 0.056613214 -0.083648585 -0.01708728 -0.046872225 0.026574217 -0.00093731284 -0.05071625
0.05266542 -0.01958754 0.065606736 0.06169329 -0.013530783 0.06687481 0.060769387 0.006462902
-0.05413087 0.06284698 0.008250453 0.0060661733 -0.06725663 0.00796397 -0.071836226 -0.061009195
0.007748343 -0.084689125 0.014582083 -0.08541021 -0.031181019 0.042028762 0.0631837 -0.0831037
-0.060938798 -0.052636735 0.0694341 -0.017082669 -0.026356153 0.05087132 -0.028925233 -0.024975307
-0.05935728 -0.02091457 0.00045400858 0.00041995943 0.06494283 -0.07040077 -0.06836821 -0.052883882
-0.012344994 -0.052235603 0.00023828447 -0.007889919 -0.023015305 -0.04568383 -0.08779303 0.028052785
-0.07065483 -0.028015036 -0.02661739 0.05256327 -0.060373 0.095860474 0.013401657 0.14254844
0.019583696 -0.054019842 0.11759806 0.03801942 0.061432593 0.106113814 0.0002204986 -0.025151104
0.035970956 0.059238534 -0.058091227 -0.038543157 0.108934194 0.016005252 -0.024788989 -0.03972629
0.05330021 -0.00074361113 0.012834927 -0.013945125 0.08890149 -0.023312867 0.051414557 0.060013432
0.08257805 0.18814488 0.056772638 -0.018156448 0.14887457 -0.055684548 -0.0115309525 0.06305517
0.06171289 0.0068058628 -0.024111161 -0.033606444 -0.008475117 0.029175304 0.0767043 -0.01524616
0.1379228 0.058626376 0.12447475 0.04285558 -0.033076853 0.054608606 0.08542147 0.016362803
-0.050624862 0.082861125 -0.012398295 0.045180637 0.05287495 0.11156231 -0.04985144 0.08424228
-0.008971237 0.111639954 0.08116254 0.038469076 -0.06433034 0.086875126 -0.033946265 -0.009856333
0.038845517 -0.05891403 0.16970697 0.030202758 0.04197514 0.09555724 -0.062440343 0.020045938
-0.03763376 -0.0038909267 -0.026007343 0.07133357 0.00032708628 0.007103486 -0.012909806 0.021927422
-0.03211736 0.088373095 0.046214223 -0.03665156 0.012895926 0.054990765 0.09546543 0.06209204
0.0361282 0.032711994 -0.046093125 0.082003385 -0.048272304 0.094475694 0.037365694 -0.015887702
0.044951685 0.053770974 -0.022548735 -0.061061874 0.07147653 0.039295454 -0.003266784 0.07576538
-0.026466532 -0.023290766 0.04844935 0.12400393 0.040912226 0.047166836 -0.059114445 0.06944187
0.009219324 -0.008836267 0.06318253 0.1148933 0.040633082 0.09418309 0.02008165 0.08502207
00000000: e3c3 68bd 4893 ccbc 10e4 1cbc 44fa 23bd
00000010: e073 66bb 1e8c 323d 827f 093d 687e 80bc
00000020: 5986 53bd 6ade a8bd beaf 4a3d 5c74 10bd
00000030: a152 823d 262d 6e3d 2c16 5bbd c088 45bc
00000040: 2ca9 ecbc 48ef 333c d2cf 68bd 18ad 61bc
00000050: a0e3 50bc 4027 dbbb 0065 463b 9225 5a3d
00000060: 2055 c9bc e4fe 9f3c 2cb7 31bd 2b08 32bd
00000070: 60a2 05bb dca7 aabc 9f80 1fbd d4ca b1bd
00000080: f8e4 0dbd 0630 94bd 7666 6f3d 64ea 803c
00000090: 103e d9bb ca4b a7bd 7243 483d 3077 f5bb
000000a0: 3076 63bc f4f8 a43c a0b4 e8bb d0ef 0c3d
000000b0: 041f febc a8f2 c1bc abfc a73d 4274 b3bd
000000c0: 081c 0dbd 207c 15bb 74ad 3dbd 21bc 803d
000000d0: a43f 84bd 680d 90bc 5c1b 50bd 8800 72bc
000000e0: 9274 1e3d 8706 99bd 1a1f 90bd 1bca 833d
000000f0: 583b 453c 52c2 193d 0c43 a0bd 80e2 c53c
00000100: 3c02 c5bc e63c 05bd 2086 80bd a5cd 953d
00000110: 1075 32bd 88d5 5b3c 2c01 033d be89 a4bd
00000120: f414 133d 42e3 673d f34f abbd a0fa 8bbc
00000130: 17fd 3fbd 2cb2 d93c 00b6 75ba d8bb 4fbd
00000140: b2b7 573d 0c76 a0bc d35c 863d 1ab2 7c3d
00000150: 38b0 5dbc a9f5 883d 52e9 783d c0c6 d33b
00000160: 55b8 5dbd ebb5 803d e82c 073c c0c6 c63b
00000170: d8bd 89bd 507b 023c df1e 93bd c7e4 79bd
00000180: d0e5 fd3b 7e71 adbd b0e9 6e3c 8ceb aebd
00000190: 566f ffbc 5a26 2c3d 7566 813d 4632 aabd
000001a0: f69a 79bd 9e99 57bd 7733 8e3d f4f0 8bbc
000001b0: dce8 d7bc 725e 503d 9cf4 ecbc 0499 ccbc
000001c0: 9f20 73bd 0855 abbc 0008 ee39 002e dc39
000001d0: bf00 853d 472e 90bd a204 8cbd c59c 58bd
000001e0: a842 4abc 00f5 55bd 00dc 7939 b844 01bc
000001f0: 988a bcbc f81e 3bbd d5cc b3bd f4ce e53c
00000200: 7bb3 90bd ca7f e5bc b60c dabc 954c 573d
00000210: ae49 77bd 7f52 c43d a092 5b3c 38f8 113e
00000220: fd6d a03c e943 5dbd 40d7 f03d 40ba 1b3d
00000230: bea0 7b3d 3352 d93d a435 6739 b009 cebc
00000240: 4856 133d 1ba4 723d 11f1 6dbd 6edf 1dbd
00000250: e418 df3d 721d 833c 4712 cbbc 09b8 22bd
00000260: 5251 5a3d e6ee 42ba 9649 523c 187a 64bc
00000270: fc11 b63d a0fa bebc 1298 523d a5d0 753d
00000280: ae1e a93d 0da9 403e 6d8a 683d d5bc 94bc
00000290: 9372 183e 7b15 64bd 52ec 3cbc 1223 813d
000002a0: a8c6 7c3d b703 df3b c584 c5bc e9a6 09bd
000002b0: 38db 0abc 0c01 ef3c 2517 9d3d 08cb 79bc
000002c0: a23b 0d3e 3622 703d 9eec fe3d 5589 2f3d
000002d0: 987b 07bd 46ad 5f3d 74f1 ae3d 490b 863c
000002e0: 045c 4fbd 18b3 a93d 3822 4bbc 550f 393d
000002f0: 6793 583d c87a e43d 0631 4cbd 3787 ac3d
00000300: 18fc 12bc 7da3 e43d 8c38 a63d c091 1d3d
00000310: a0bf 83bd 96eb b13d 3d0b 0bbd 757c 21bc
00000320: 7a1c 1f3d d74f 71bd aac7 2d3e c66b f73c
00000330: 20ee 2b3d 84b3 c33d 72c1 7fbd 6137 a43c
00000340: dc25 1abd ebfe 7ebb 5a0d d5bc 5617 923d
00000350: c77c ab39 5cc4 e83b a783 53bc 23a1 b33c
00000360: 7e8d 03bd f4fc b43d 204b 3d3d f21f 16bd
00000370: 6f49 533c ff3d 613d 6183 c33d 3954 7e3d
00000380: 2afb 133d 03fd 053d 25cc 3cbd 64f1 a73d
00000390: 2eb9 45bd 797c c13d c50c 193d ed26 82bc
000003a0: 421f 383d f43e 5c3d 20b8 b8bc 041c 7abd
000003b0: 4962 923d 45f4 203d 8a17 56bb e12a 9b3d
000003c0: 57d0 d8bc 47cc bebc d372 463d c6f5 fd3d
000003d0: 9493 273d 0332 413d fd21 72bd 8a37 8e3d
000003e0: a60c 173c fdc5 10bc d865 813d 2e4d eb3d
000003f0: e06e 263d 10e3 c03d 4682 a43c 0d20 ae3d

actor.preprocess.model.2.bias f4 [128]
-0.01117257 0.012829774 0.10864876 0.17705953 0.08463058 0.009656931 -0.15082309 0.14978793
0.17197487 0.1574077 0.057163313 0.17346765 -0.051546343 -0.0052377805 0.043835223 0.028820196
0.0015449168 0.12583268 0.015034459 0.025503889 0.059218712 0.16359803 0.06437629 0.010581957
0.039616533 0.061451938 0.1419747 0.10270837 0.048121084 0.14576511 0.08044635 0.072752774
0.068485215 0.0741955 0.027724762 0.15533833 0.051401664 0.14558358 0.05937826 -0.08020173
0.15882733 0.16211548 0.01854228 -0.05384731 0.15513784 0.1260442 0.13852687 0.00093101425
-0.0020975843 0.04338102 0.105245195 0.073591515 0.13540055 0.0069857016 0.08782262 0.055844095
0.009345009 -0.066635266 0.03929673 0.03190186 0.05257783 0.06911108 0.16136822 0.012177526
0.10799217 0.07642902 0.023994569 0.080889985 0.12688243 -0.0255915 0.16602173 -0.03118612
0.1494349 -0.08434608 0.04618197 -0.06459898 0.15216869 0.15752864 0.043561105 0.13998908
0.063288644 0.028029924 -0.043399714 0.10788825 0.015785761 -0.04071847 0.1299657 -0.095512934
0.112615235 -0.093418926 0.16187812 -0.02264592 -0.04643943 0.085529916 0.16716142 0.14580272
0.12243129 -0.07198863 0.1389316 -0.017844535 0.026757233 0.042538855 0.12456491 0.07809353
0.12640063 0.020843202 -0.05109347 0.057655886 0.1684054 0.15490413 0.1459392 0.08527095
0.10117367 -0.06918286 0.10545824 0.049266685 0.04105979 -0.023360506 -0.026456356 0.05512638
0.09630596 0.07584518 0.07377308 0.14399506 0.1496742 0.07823065 0.15202469 0.017684383
00000000: 280d 37bc f933 523c 3e83 de3d 184f 353e
00000010: cc52 ad3d 1b38 1e3c 5e71 1abe 0262 193e
00000020: 2e1a 303e 7c2f 213e 1424 6a3d 81a1 313e
00000030: 4222 53bd b0a1 abbb 908c 333d 5518 ec3c
00000040: ce7e ca3a 48da 003e 1753 763c 88ed d03c
00000050: 528f 723d 3e86 273e b7d7 833d f25f 2d3c
00000060: f244 223d 07b5 7b3d d161 113e c458 d23d
00000070: 9d1a 453d 7343 153e 0ec1 a43d 68ff 943d
00000080: fa41 8c3d cff3 973d 0a1f e33c 0311 1f3e
00000090: 8d8a 523d dd13 153e 9e36 733d ce40 a4bd
000000a0: a2a3 223e 9a01 263e fbe5 973c ff8e 5cbd
000000b0: 74dc 1e3e bb11 013e fdd9 0d3e 4f0f 743a
000000c0: a077 09bb 4cb0 313d cb8a d73d 26b7 963d
000000d0: 71a6 0a3e 50e8 e43b 59dc b33d c7bc 643d
000000e0: cf1b 193c 1278 88bd 9cf5 203d 86ab 023d
000000f0: da5b 573d 1c8a 8d3d b63d 253e 3f84 473c
00000100: 002b dd3d d186 9c3d 4290 c43c a6a9 a53d
00000110: 78ed 013e 44a5 d1bc 9a01 2a3e 097a ffbc
00000120: 7605 193e a3bd acbd 4e29 3d3d 784c 84bd
00000130: 1cd2 1b3e 304f 213e 216d 323d 4c59 0f3e
00000140: 7a9d 813d 039f e53c e6c3 31bd 84f4 dc3d
00000150: 2451 813c 69c8 26bd ba15 053e 499c c3bd
00000160: d1a2 e63d 6c52 bfbd 61c3 253e f083 b9bc
00000170: 4637 3ebd 4f2a af3d 5d2c 2b3e 4f4d 153e
00000180: 42bd fa3d c66e 93bd 1644 0e3e b42e 92bc
00000190: fc31 db3c 393d 2e3d e31b ff3d 80ef 9f3d
000001a0: 2b6f 013e 5dbf aa3c 6347 51bd 9428 6c3d
000001b0: 7772 2c3e 309f 1e3e 1671 153e 89a2 ae3d
000001c0: 2434 cf3d beaf 8dbd 7dfa d73d ddcb 493d
000001d0: 4f2e 283d 885e bfbc 00bb d8bc 33cc 613d
000001e0: 0f3c c53d b854 9b3d 5716 973d 7173 133e
000001f0: 3244 193e 6437 a03d 5cac 1b3e d7de 903c

actor.preprocess.model.4.weight f4 [128, 128]
0.075428076 0.0791313 -0.08713277 0.01582234 0.01402238 -0.023177356 0.037768193 -0.085853
0.071991846 -0.079679914 0.032722067 -0.059221983 -0.07733959 0.0019852743 -0.04580478 -0.033221293
-0.08224781 -0.033347767 -0.047132745 -0.0057038665 0.005158918 0.06544055 0.06727856 -0.015051865
-0.030184684 -0.054800544 0.017947068 0.060238317 0.06650327 -0.049795162 -0.061253347 -0.037781667
-0.08672751 -0.06947383 -0.07913114 -0.088061 -0.02005661 -0.07073896 0.011034863 0.059094794
0.076123185 0.058198996 0.05663042 0.0075294077 0.02481921 0.055639777 0.072461344 -0.004031015
-0.030802919 -0.083472036 0.05818841 -0.053158723 0.08627395 -0.005036399 -0.083025984 -0.025180496
0.050930973 -0.04410579 0.020652317 0.033743724 -0.074830905 0.084723696 -0.039307732 -0.01807759
0.03955942 0.082099 -0.06391439 0.032503057 0.056430403 -0.04604129 -0.009984123 0.0270137
0.0051464536 0.0061664283 0.0019690916 0.052275322 -0.04489976 -0.07495213 -0.049456533 0.041774347
0.00443314 -0.033944555 0.07866765 -0.013510063 -0.045278348 0.04957346 -0.0012716965 0.023572158
0.07112848 0.01148513 0.004679039 0.020855017 0.04177084 0.05042286 -0.023162873 0.06079722
-0.049697492 0.061178915 0.06526698 0.05181288 0.08573469 0.053517435 -0.017117182 0.018017657
0.0045677833 0.022244632 0.05925367 0.0009499049 -0.06296608 -0.021044428 -0.046690296 -0.0069889147
-0.017623402 -0.032068755 0.056484047 0.061576426 -0.04698277 0.031253733 0.01930239 0.051409453
0.042902973 0.048318893 -0.086745724 0.017375633 -0.0067603425 -0.027000273 0.062371224 -0.08553134
-0.061331116 -0.022076659 -0.043016918 0.0008129701 -0.037819408 0.017540433 -0.047758512 -0.044608984
-0.01983612 -0.044632427 -0.07156953 0.045390405 -0.017638654 0.08391578 -0.08652331 0.0859581
0.085659154 0.07234024 0.022218712 0.07679949 0.061524384 0.033980735 0.014613703 -0.07906795
-0.022845827 -0.076720595 0.013524942 0.059516676 0.02173239 -0.039603867 0.030291468 0.01807373
-0.07035045 -0.044995267 0.06340667 0.049324818 0.047741406 -0.0659381 0.015122481 -0.08242238
-0.07376745 0.011535287 0.020259865 0.043971412 0.009488143 -0.025785118 0.04878985 -0.010558493
-0.031689044 0.0003599748 -0.029343627 -0.029247437 -0.031787165 0.023974925 -0.056905355 -0.011749886
-0.0137350485 -0.050596572 -0.035623875 0.015994623 0.0317161 -0.0023747087 0.026407994 0.052161522
-0.020769775 0.026725866 -0.063102864 0.023451611 -0.017995268 0.0598829 -0.04185026 -0.016847126
0.04606805 -0.074704506 -0.056390587 -0.05143164 -0.075200535 -0.04483901 -0.039165948 -0.04795211
-0.024171658 -0.02471739 0.07653866 -0.08741461 -0.025103882 -0.076865464 0.056620248 -0.036017243
-0.032574445 0.07669876 0.034069434 0.079697885 0.0833992 0.047842093 0.06528718 0.036818437
-0.008436121 0.02053561 -0.086173564 0.055570595 0.022172816 0.04664994 -0.019950628 -0.042320546
-0.077858664 -0.046505652 0.02912853 0.033836417 -0.032961745 0.036014467 -0.049026553 -0.059737604
0.057913654 0.06362366 0.040472947 -0.06953092 0.086034335 -0.03861332 0.020347051 -0.07540257
0.018025145 -0.05955439 -0.08744819 0.060042374 -0.02349107 0.087538145 -0.006805107 -0.015108615
00000000: 097a 9a3d 970f a23d aa72 b2bd da9d 813c
00000010: 20be 653c 70de bdbc d2b2 1a3d b3d3 afbd
00000020: 7670 933d 392f a3bd 9307 063d c092 72bd
00000030: 3864 9ebd 601b 023b cb9d 3bbd 0d13 08bd
00000040: 8a71 a8bd ab97 08bd 440e 41bd 80e7 babb
00000050: 240c a93b b205 863d 57c9 893d 199c 76bc
00000060: df45 f7bc 8976 60bd bb05 933c 74bc 763d
00000070: de32 883d 03f6 4bbd cae4 7abd f3c0 1abd
00000080: 319e b1bd 4c48 8ebd 820f a2bd 5359 b4bd
00000090: c34d a4bc 96df 90bd 92cb 343c 620d 723d
000000a0: 79e6 9b3d 1262 6e3d 4df5 673d 40b9 f63b
000000b0: a851 cb3c 89e6 633d 9d66 943d 9b16 84bb
000000c0: 6756 fcbc 63f3 aabd f856 6e3d f6bc 59bd
000000d0: 66b0 b03d 6008 a5bb 8709 aabd 5447 cebc
000000e0: ff9c 503d 46a8 34bd 0c2f a93c dc36 0a3d
000000f0: f240 99bd 9e83 ad3d 2501 21bd 7417 94bc
00000100: 0f09 223d 8523 a83d 8ce5 82bd ed21 053d
00000110: 9123 673d cb95 3cbd 7294 23bc d64b dd3c
00000120: 95a3 a83b c00f ca3b e00b 013b a61e 563d
00000130: d0e8 37bd 8180 99bd ef92 4abd 941b 2b3d
00000140: e043 913b 7209 0bbd 811c a13d 5059 5dbc
00000150: ca75 39bd 8a0d 4b3d 0eaf a6ba 661a c13c
00000160: cfab 913d 202c 3c3c a052 993b 24d8 aa3c
00000170: e617 2b3d 3388 4e3d 11c0 bdbc 8106 793d
00000180: 998f 4bbd be96 7a3d b2aa 853d be39 543d
00000190: ab95 af3d 1935 5b3d 5539 8cbc c499 933c
000001a0: 58ad 953b 603a b63c fab3 723d 0a03 793a
000001b0: 5cf4 80bd 5d65 acbc 533e 3fbd 4403 e5bb
000001c0: f45e 90bc 875a 03bd d15b 673d 9037 7c3d
000001d0: 0171 40bd ea03 003d 0c20 9e3c b892 523d
000001e0: 07bb 2f3d 08ea 453d bea7 b1bd 5857 8e3c
000001f0: dd85 ddbb ad2f ddbc f878 7f3d 0e2b afbd
00000200: 5636 7bbd 1cda b4bc 8232 30bd 801d 553a
00000210: 86e8 1abd f4b0 8f3c 6e9e 43bd e9b7 36bd
00000220: 5c7f a2bc 7ed0 36bd 0c93 92bd 4aeb 393d
00000230: f07e 90bc 09dc ab3d 2233 b1bd cd0a b03d
00000240: 116e af3d 1f27 943d 0404 b63c 0d49 9d3d
00000250: fe00 7c3d 622f 0b3d 506e 6f3c 61ee a1bd
00000260: 2c27 bbbc b01f 9dbd b897 5d3c c2c7 733d
00000270: 2008 b23c aa37 22bd d025 f83c 5c0f 943c
00000280: e613 90bd f54c 38bd 5bdb 813d d208 4a3d
00000290: 7e8c 433d 8e0a 87bd 48c4 773c 11cd a8bd
000002a0: 6413 97bd 80fe 3c3c 04f8 a53c 5e1b 343d
000002b0: 2874 1b3c 503b d3bc ded7 473d 88fd 2cbc
000002c0: 5fcc 01bd 00bb bc39 0c62 f0bc 5298 efbc
000002d0: 4233 02bd 1067 c43c 9715 69bd 9882 40bc
000002e0: f808 61bc 5a3e 4fbd 57ea 11bd 2807 833c
000002f0: bee8 013d 00a1 1bbb 9455 d83c 52a7 553d
00000300: 6025 aabc 34f0 da3c 133c 81bd 981d c03c
00000310: d06a 93bc c647 753d 2e6b 2bbd fc02 8abc
00000320: dab1 3c3d adfe 98bd d1f9 66bd fca9 52bd
00000330: bd02 9abd 1ca9 37bd 796c 20bd 6f69 44bd
00000340: a403 c6bc 207c cabc 4dc0 9c3d 6e06 b3bd
00000350: a8a6 cdbc a46b 9dbd a2ea 673d d186 13bd
00000360: c86c 05bd 3d14 9d3d 648c 0b3d a538 a33d
00000370: 33cd aa3d 12f6 433d 49b5 853d eece 163d
00000380: a837 0abc 4c3a a83c c47b b0bd fe9d 633d
00000390: c4a3 b53c 0214 3f3d 806f a3bc 4f58 2dbd
000003a0: 5d74 9fbd b67c 3ebd f49e ee3c 0e98 0a3d
000003b0: e502 07bd e883 133d 11d0 48bd 6baf 74bd
000003c0: de36 6d3d 1f4d 823d f6c6 253d 3a66 8ebd
000003d0: c532 b03d 0029 1ebd dcae a63c aa6c 9abd
000003e0: 78a9 933c 4eef 73bd 0918 b3bd feee 753d
000003f0: 5870 c0bc 3347 b33d 60fd debb 208a 77bc

actor.preprocess.model.4.bias f4 [128]
-0.028838027 -0.07345662 0.0031582639 -0.04404939 0.02353906 -0.05031677 0.066635564 0.043940373
0.08921852 0.061289094 0.091551006 0.09254063 0.08491228 0.044323314 -0.082776606 0.04388703
0.10426908 0.090356305 0.00968824 0.102933444 0.02010608 0.08413058 0.13901028 -0.052390933
0.072707534 0.121744126 -0.021930506 0.088621296 -0.06720745 -0.00727129 -0.040196672 -0.002158358
0.078516945 0.1387273 0.16770284 -0.05911322 0.004357004 0.120255545 0.13247757 0.08410465
-0.0070260926 0.12384219 0.10713156 0.030598277 0.13588619 0.040279496 0.07516314 -0.033083316
0.089080244 0.069106705 -0.08604162 0.09383952 0.0075612557 0.01609957 0.02127817 -0.036063645
-0.05290952 0.028400794 -0.06446827 -0.002184392 -0.038156025 0.15406777 -0.0018127604 0.08249163
0.051979646 -0.08114389 -0.014660402 0.08794732 0.10652438 -0.016900938 0.031476915 0.030492574
0.083649665 0.13843478 0.025615795 0.14731002 -0.010807964 0.12971139 0.07189378 -0.063948706
0.033422157 0.072857544 -0.048458498 -0.06155207 0.14687768 0.032215487 0.051495764 0.08448156
-0.01714266 0.06983008 0.12254568 0.03428681 0.10616218 0.041890945 0.15201174 0.08710804
0.022778515 0.0992283 0.11128941 -0.04451375 0.046180222 0.15764731 -0.019608984 -0.020464921
-0.0005534566 -0.05087801 0.10989535 0.027193695 0.13908899 0.14736848 0.035437323 0.0656058
0.07519162 -0.00023496697 0.022484558 0.12419488 0.058700606 -0.08738349 0.13380845 0.071779825
0.07958786 0.07243551 0.113432534 0.06347186 -0.011008969 0.09994929 0.046329185 -0.04765189
00000000: ba3d ecbc 6d70 96bd e0fa 4e3b 226d 34bd
00000010: fdd4 c03c f518 4ebd 3a78 883d d2fa 333d
00000020: 33b8 b63d 460a 7b3d 187f bb3d f185 bd3d
00000030: 7de6 ad3d 5d8c 353d c886 a9bd e3c2 333d
00000040: 078b d53d ba0c b93d 6cbb 1e3c c5ce d23d
00000050: 82b5 a43c a74c ac3d b658 0e3e e097 56bd
00000060: b0e7 943d fc54 f93d 9ba7 b3bc 157f b53d
00000070: 0fa4 89bd 0044 eebb 44a5 24bd 3d73 0dbb
00000080: 7ecd a03d 880e 0e3e 4bba 2b3e b420 72bd
00000090: 33c5 8e3b 8a48 f63d 33a8 073e 0f3f ac3d
000000a0: 233b e6bb f9a0 fd3d cb67 db3d 3da9 fa3c
000000b0: c025 0b3e 1dfc 243d 22ef 993d 5f82 07bd
000000c0: b46f b63d d187 8d3d 9736 b0bd ef2e c03d
000000d0: 69c4 f73b 3fe3 833c 8f4f ae3c 79b7 13bd
000000e0: a7b7 58bd c8a8 e83c f107 84bd 0428 0fbb
000000f0: 7e49 1cbd f1c3 1d3e 259a edba 5ff1 a83d
00000100: 9ce8 543d c52e a6bd 2f32 70bc b91d b43d
00000110: 7429 da3d d673 8abc f0ed 003d 90cb f93c
00000120: 8450 ab3d d9c1 0d3e 37d8 d13c 70d8 163e
00000130: e313 31bc 10d3 043e 0c3d 933d 8af7 82bd
00000140: ace5 083d 5636 953d 6b7c 46bd 061e 7cbd
00000150: 1a67 163e 63f4 033d 39ed 523d ab04 ad3d
00000160: c46e 8cbc 1303 8f3d 3bf9 fa3d 5370 0c3d
00000170: 8f6b d93d d795 2b3d f7a8 1b3e b365 b23d
00000180: 029a ba3c 3538 cb3d b4eb e33d 0d54 36bd
00000190: 7927 3d3d 4c6e 213e 05a3 a0bc 0da6 a7bc
000001a0: d815 11ba 7665 50bd d010 e13d 50c5 de3c
000001b0: 586d 0e3e c3e7 163e ba26 113d 555c 863d
000001c0: 10fe 993d 7761 76b9 8931 b83c e359 fe3d
000001d0: 0c70 703d 1df6 b2bd 1505 093e 4d01 933d
000001e0: f6fe a23d 1259 943d 514f e83d 89fd 813d
000001f0: f65e 34bc 37b2 cc3d acc3 3d3d a12e 43bd

actor.preprocess.model.6.weight f4 [64, 128]
-0.06408545 0.0039566755 0.038954027 -0.054963082 0.046435326 -0.009668985 0.059276216 -0.034372013
-0.0047555873 0.027285943 -0.029222598 0.08058812 -0.018711843 0.024967607 -0.04208112 0.011825541
0.04541839 -0.013776661 -0.003890215 -0.039710164 -0.0033500397 0.015080207 0.12221826 -0.07886282
0.08495346 -0.024737723 -0.049769208 0.07895944 0.01815565 0.03137344 -0.0019300207 -0.08211768
0.06023577 -0.022005962 0.100415185 -0.034932774 0.08383429 0.009759005 0.008062735 -0.00919857
0.015614626 0.066281304 -0.038704414 0.08341082 0.07737316 -0.07822769 0.010620076 -0.07688652
0.015550451 0.07381622 -0.019464426 0.11927625 0.07155585 0.0023768772 -0.06284499 -0.016161576
-0.0069799297 0.012077808 -0.04962552 -0.014550722 0.08572634 -0.022242721 -0.016802305 -0.07667387
0.025605885 -0.033633973 -0.017339015 0.04428497 -0.05090967 -0.026496753 -0.029242659 0.019479005
-0.031080225 0.045472346 0.07490472 0.08913731 -0.019629532 0.111719996 0.09233125 -0.057457466
-0.03297213 0.1164769 0.085570864 0.054822125 -0.032740436 -0.013073716 0.07850455 0.03413281
0.08034655 0.06895539 0.055635404 -0.023504492 -0.01353943 0.009540952 0.09073807 0.010697234
-0.039487436 0.10601771 0.07882904 0.029947035 0.028643237 -0.016884696 0.061850008 0.076254375
-0.04636028 -0.054538116 0.038512588 0.05374577 0.072843395 -0.0273401 0.09276099 -0.037232485
0.07575252 0.041409023 0.01240106 -0.018387944 0.08598249 0.0129232835 0.058110237 -0.035475563
0.023038503 0.10222773 0.0720098 -0.023665838 -0.015381338 0.110198274 0.05795433 -0.029487293
-0.080514915 0.039173327 0.023085244 -0.024526231 -0.063077174 0.056782883 -0.03181296 0.041087396
-0.085737355 -0.06957412 -0.08241865 -0.10188468 -0.09278985 0.023807706 -0.06949712 -0.116008595
-0.023084188 0.008004481 -0.09385263 -0.092027575 -0.009359473 -0.105889246 0.0465982 -0.08555807
0.037183832 -0.10130863 -0.0059661195 -0.02137994 0.033439487 0.04074783 -0.03194297 -0.013801212
-0.08424584 0.0064154095 -0.089944504 -0.007948801 -0.03230591 -0.012366871 0.020008184 -0.045318473
-0.022248713 0.041537106 -0.0068630357 -0.11331093 -0.0749764 0.042060476 -0.010329939 -0.023749148
0.03574757 0.031089453 0.044921316 -0.04972698 0.06727506 0.0043030037 0.025947347 0.016574262
0.06630209 0.061484315 0.052181847 -0.025466267 0.08210186 -0.097817786 0.038896423 0.08037188
0.037045434 -0.002194833 -0.08842323 -0.10044528 0.008537736 -0.08338567 0.08136049 0.052715387
-0.0573037 0.001490786 -0.086763956 0.044276107 0.021749562 -0.03693422 -0.08973575 0.012586449
0.07915425 -0.044792216 0.064283095 0.023921937 0.039636124 -0.007462466 -0.02555777 0.03676376
-0.011937045 0.021024326 -0.075271875 0.004238643 0.009443149 -0.045217246 0.009274431 -0.06120241
-0.017484676 -0.03737002 -0.10233833 -0.058864616 0.07445354 -0.09704036 0.08557742 0.0053953324
0.009564397 0.0060490444 -0.054477554 -0.041411016 -0.094021164 -0.0059756767 -0.033403944 -0.059296794
-0.019183831 -0.07253995 -0.01705377 0.025379926 0.008720555 -0.04504931 0.020498501 0.055240653
0.07140713 -0.067956544 -0.058574833 -0.020838141 -0.093382016 0.03142565 -0.0094589535 0.010596149
00000000: 3b3f 83bd 00a7 813b 428e 1f3d f820 61bd
00000010: f832 3e3d aa6a 1ebc 9ecb 723d abc9 0cbd
00000020: c2d4 9bbb c586 df3c 3b64 efbc 620b a53d
00000030: 9449 99bc de88 cc3c 415d 2cbd eabf 413c
00000040: a208 3a3d 81b7 61bc faf2 7ebb 20a7 22bd
00000050: 578c 5bbb f912 773c 914d fa3d d582 a1bd
00000060: 14fc ad3d c4a6 cabc ccda 4bbd 7db5 a13d
00000070: 28bb 943c 7081 003d c0f8 fcba 502d a8bd
00000080: c8b9 763d d945 b4bc 7aa6 cd3d ab15 0fbd
00000090: 50b1 ab3d 3ce4 1f3c 9019 043c 99b5 16bc
000000a0: 7dd4 7f3c 7ebe 873d 8588 1ebd 4bd3 aa3d
000000b0: d275 9e3d d735 a0bd d4ff 2d3c ae76 9dbd
000000c0: 52c7 7e3c f52c 973d dc73 9fbc 1b47 f43d
000000d0: e08b 923d 62c5 1b3b e0b4 80bd 4865 84bc
000000e0: e5b7 e4bb 00e2 453c 2144 4bbd 2766 6ebc
000000f0: 4b91 af3d 5e36 b6bc fda4 89bc 3107 9dbd
00000100: 6fc3 d13c c7c3 09bd 8d0a 8ebc 2864 353d
00000110: a886 50bd b80f d9bc 4d8e efbc 6f92 9f3c
00000120: f59b febc 3641 3a3d a567 993d 9f8d b63d
00000130: 1dce a0bc 74cd e43d 2b18 bd3d 8558 6bbd
00000140: c90d 07bd 718b ee3d c73f af3d 2a8d 603d
00000150: d61a 06bd 2433 56bc fec6 a03d d8ce 0b3d
00000160: bb8c a43d 7c38 8d3d f3e1 633d 7e8c c0bc
00000170: 7cd4 5dbc a751 1c3c e2d4 b93d 7443 2f3c
00000180: 94bd 21bd d01f d93d 1f71 a13d 7c53 f53c
00000190: 39a5 ea3c c651 8abc 6f56 7d3d 412b 9c3d
000001a0: 47e4 3dbd 5c63 5fbd 60bf 1d3d 8624 5c3d
000001b0: eb2e 953d 58f8 dfbc 79f9 bd3d 1781 18bd
000001c0: 2324 9b3d 829c 293d d12d 4b3c 50a2 96bc
000001d0: 9617 b03d 2ebc 533c 0005 6e3d d34e 11bd
000001e0: 3ebb bc3c c65c d13d e079 933d dcde c1bc
000001f0: 0202 7cbc a2af e13d 8561 6d3d 568f f1bc
00000200: 01e5 a4bd 3674 203d 441d bd3c 3ceb c8bc
00000210: 9b2e 81bd 2b95 683d 4e4e 02bd 424b 283d
00000220: 1197 afbd e07c 8ebd 1ccb a8bd eaa8 d0bd
00000230: 9b08 bebd 6108 c33c 8254 8ebd ea95 edbd
00000240: 0d1b bdbc 3a25 033c cf35 c0bd f478 bcbd
00000250: 7a58 19bc 76dc d8bd c1dd 3e3d 1239 afbd
00000260: 134e 183d e67a cfbd 707f c3bb fc24 afbc
00000270: d8f7 083d 32e7 263d a2d6 02bd 7b1e 62bc
00000280: 1589 acbd 5b38 d23b d334 b8bd b03b 02bc
00000290: 3453 04bd 6b9e 4abc 34e8 a33c dd9f 39bd
000002a0: ef42 b6bc d022 2a3d 51e3 e0bb 900f e8bd
000002b0: 3a8d 99bd 9b47 2c3d e83e 29bc 938d c2bc
000002c0: 0b6c 123d 4faf fe3c 6aff 373d 85ae 4bbd
000002d0: 82c7 893d 3600 8d3b 888f d43c bfc6 873c
000002e0: 64c9 873d fad6 7b3d a2bc 553d a29e d0bc
000002f0: 0525 a83d b154 c8bd db51 1f3d 039a a43d
00000300: f4bc 173d 30d7 0fbb 3d17 b5bd 41b6 cdbd
00000310: dce1 0b3c 1bc6 aabd 54a0 a63d 17ec 573d
00000320: 49b7 6abd 7a66 c33a 4db1 b1bd dd5a 353d
00000330: 232c b23c 5648 17bd 60c7 b7bd 6537 4e3c
00000340: a01b a23d 0b78 37bd dba6 833d f0f7 c33c
00000350: 7d59 223d b487 f4bb 875e d1bc 9995 163d
00000360: 9893 43bc 353b ac3c 2428 9abd 51e4 8a3b
00000370: 70b7 1a3c b835 39bd c8f3 173c 61af 7abd
00000380: 063c 8fbc 4e11 19bd c296 d1bd 061c 71bd
00000390: 197b 983d 19bd c6bd 3743 af3d 54cb b03b
000003a0: fdb3 1c3c 1037 c63b db23 5fbd 999e 29bd
000003b0: 2b8e c0bd 9ccf c3bb 93d2 08bd 32e1 72bd
000003c0: 6927 9dbc d38f 94bd 59b4 8bbc 90e9 cf3c
000003d0: a9e0 0e3c a085 38bd 79ec a73c 0644 623d
000003e0: e73d 923d cd2c 8bbd 2aec 6fbd c0b4 aabc
000003f0: 123f bfbd 2fb8 003d baf9 1abc 789b 2d3c

actor.preprocess.model.6.bias f4 [64]
0.0016176612 -0.09115271 -0.08438932 0.10565742 -0.031685907 -0.008809505 0.12637927 -0.05689375
-0.083653204 0.021406451 0.007950889 -0.104878284 -0.03918054 0.082390666 -0.022183074 -0.07028889
-0.103553206 -0.02652444 0.014360556 -0.0216256 0.016600093 0.05455189 -0.09205857 -0.08237095
-0.0110125635 -0.10613672 0.027817609 0.028341701 -0.070182174 -0.015652118 -0.021077571 -0.03313285
0.06374534 -0.10175645 -0.025057599 0.09084681 0.15113819 -0.008378941 0.00042982126 -0.09245731
0.033553295 -0.041970767 -0.14143237 0.06742168 0.077347174 0.08392698 0.058403168 -0.088586226
-0.054614842 0.1261227 -0.13922063 -0.021792524 -0.0040287804 -0.015294641 -0.10486767 0.044808406
0.07631975 -0.0071917116 -0.118060224 -0.094110794 0.09403447 -0.13520719 -0.011100183 -0.018320648
00000000: b407 d43a 46ae babd 4fd4 acbd eb62 d83d
00000010: 15c9 01bd be55 10bc 9169 013e 6c09 69bd
00000020: 5f52 abbd 955c af3c 7244 023c 6dca d6bd
00000030: c67b 20bd 70bc a83d 47b9 b5bc 9ff3 8fbd
00000040: b413 d4bd c849 d9bc 8a48 6b3c 2c28 b1bc
00000050: ebfc 873c cd71 5f3d 3489 bcbd 1ab2 a8bd
00000060: 0a6e 34bc 355e d9bd c1e1 e33c db2c e83c
00000070: acbb 8fbd df38 80bc dfaa acbc 50b6 07bd
00000080: eb8c 823d b065 d0bd 9845 cdbc e40d ba3d
00000090: f8c3 1a3e d347 09bc a259 e139 425a bdbd
000000a0: 2e6f 093d 8ae9 2bbd a6d3 10be 6114 8a3d
000000b0: 3268 9e3d e9e1 ab3d 2938 6f3d b26c b5bd
000000c0: d0b3 5fbd 4f26 013e da8f 0ebe 3c86 b2bc
000000d0: dc03 84bb 6096 7abc dcc4 d6bd 0589 373d
000000e0: 874d 9c3d 73a8 ebbb 8fc9 f1bd 29bd c0bd
000000f0: 2595 c03d c173 0abe 8bdd 35bc 2f15 96bc

actor.last.model.0.weight f4 [9, 64]
0.11304146 -0.102535486 0.083018035 0.063553676 -0.031627245 0.06591998 -0.020563954 -0.08279821
0.007970448 0.0012482262 -0.09140607 -0.002651612 -0.093223594 -0.112739876 0.071337044 0.064540185
-0.12306056 0.0044132 -0.124908164 0.06717073 -0.111402415 0.050886154 -0.050134093 0.0454125
0.07717502 -0.09057862 0.10782652 -0.08464688 0.06367761 0.113127984 0.11676018 -0.02815549
0.015730608 -0.120754614 -0.07669067 -0.049791254 0.09983979 -0.036861677 0.026957065 -0.018291151
0.013441318 0.10925718 0.0055502504 -0.089543894 0.0073487936 0.11212929 -0.09991454 -0.048709422
0.074336834 -0.044539817 -0.10767401 0.10328886 -0.084608525 -0.08811757 0.008358662 -0.10432831
0.0011999484 0.041482214 -0.08084983 0.103806786 0.0398047 -0.09475626 -0.06637857 0.07778187
0.072430745 -0.042509265 -0.112419344 0.051475175 0.056986954 0.07857131 0.0540593 -0.018997697
-0.092673115 -0.091290966 -0.05416271 -0.05966172 0.08318982 -0.09163973 0.09343715 0.10955234
0.044833146 0.055827636 0.03618084 0.07390289 -0.06964232 0.0039966474 -0.037716992 -0.045357615
-0.12167607 -0.10481224 -0.041884765 -0.10493859 0.089466944 0.042651612 0.012008464 0.045440465
0.046044648 -0.075367786 -0.00902201 -0.078356445 0.10100863 0.08309523 0.014149061 -0.0011415035
0.110303804 -0.0895442 0.10455988 0.0077684955 -0.006510139 -0.103057474 -0.09979722 0.005610349
-0.026337227 0.080793954 -0.051881112 0.029538715 0.040650427 -0.02750565 -0.052066747 0.037819583
0.11109949 0.08707838 -0.07215838 -0.129653 -0.10080566 0.018128155 0.12390014 -0.015837757
0.0639279 0.12752058 0.075039774 -0.008444349 -0.018379398 -0.06772077 -0.10667848 0.06521384
-0.0944138 -0.09410566 -0.025215043 0.07115687 -0.065749034 0.03543836 0.0043876856 0.037279982
0.0069834036 -0.123527 0.05665942 0.054321125 0.076576635 0.09196344 0.06831279 -0.0587545
0.01875889 -0.0366483 0.054177776 -0.05877633 -0.023001945 -0.03344298 -0.10518471 0.0970642
0.08031386 0.060161117 -0.026981663 0.11491052 0.050710257 -0.10016197 -0.1140079 0.12559314
-0.033325445 -0.10438661 -0.10506485 0.024254797 -0.05349399 -0.07928562 -0.019559592 -0.042093728
0.009297112 -0.114196725 -0.025664886 -0.074037746 -0.077373356 0.032365404 0.081525445 0.054845013
-0.003422098 0.05636777 -0.08540262 -0.119200855 0.007875372 0.022722347 -0.11449853 -0.102078706
0.0028090246 -0.037491053 0.033238895 -0.06002852 0.023435008 -0.075701535 0.093411796 0.11326609
-0.014938336 0.12412466 0.09322883 -0.08647984 0.103182 0.12333116 0.06331192 0.11835967
0.08834314 0.09527874 -0.051389292 0.060774796 -0.08022162 -0.03956126 0.10912101 0.09834984
0.04397646 -0.058728676 -0.1228663 0.03386994 -0.060550798 -0.08886823 0.01155735 0.08842007
0.05641877 0.06481998 0.10096354 0.0022020028 -0.05369174 -0.10789298 -0.11379711 -0.12378756
-0.11472832 -0.008182242 0.007956603 -0.09917031 0.02955553 0.013156066 0.019646863 0.009716293
-0.063451216 -0.061936866 -0.06567008 -0.12088707 -0.0540279 0.08705726 -0.07162909 -0.099475354
-0.062617004 0.014858384 0.08487723 -0.12054696 0.007899893 -0.028375719 0.107645884 0.038977556
00000000: 4882 e73d 20fe d1bd 5c05 aa3d 6e28 823d
00000010: 928b 01bd 0e01 873d bd75 a8bc 1c92 a9bd
00000020: 7b96 023c 859b a33a 1b33 bbbd abc6 2dbb
00000030: 03ec bebd 2ae4 e6bd 2819 923d a52d 843d
00000040: 2d07 fcbd 9b9c 903b dacf ffbd cf90 893d
00000050: f326 e4bd 006e 503d 6859 4dbd 7502 3a3d
00000060: f00d 9e3d 4981 b9bd 27d4 dc3d 585b adbd
00000070: 6869 823d a5af e73d f61f ef3d 58a6 e6bc
00000080: 7add 803c 324e f7bd ff0f 9dbd eaf1 4bbd
00000090: ce78 cc3d 45fc 16bd 10d5 dc3c 53d7 95bc
000000a0: f938 5c3c 3ac2 df3d e0de b53b ca62 b7bd
000000b0: 26ce f03b 0ba4 e53d ff9f ccbd 8883 47bd
000000c0: e93d 983d 626f 36bd 3184 dcbd 1c89 d33d
000000d0: 3c47 adbd fc76 b4bd c5f2 083c 15aa d5bd
000000e0: 9647 9d3a 41e9 293d 9894 a5bd a798 d43d
000000f0: 410a 233d 920f c2bd 7df1 87bd 1a4c 9f3d
00000100: 9256 943d 321e 2ebd 1d3c e6bd a2d7 523d
00000110: 276b 693d ffe9 a03d 496d 5d3d 0fa1 9bbc
00000120: 67cb bdbd c2f6 babd b8d9 5dbd d95f 74bd
00000130: 6d5f aa3d 9cad bbbd fa5b bf3d fa5c e03d
00000140: f6a2 373d 85ab 643d 5c32 143d 665a 973d
00000150: a2a0 8ebd 4ff6 823b 227d 1abd e8c8 39bd
00000160: 4e31 f9bd cda7 d6bd 5c8f 2bbd 0bea d6bd
00000170: 723a b73d 75b3 2e3d 26bf 443c c81f 3a3d
00000180: 5099 3c3d 6d5a 9abd 0dd1 13bc 5879 a0bd
00000190: 9ddd ce3d d52d aa3d 77d1 673c 809e 95ba
000001a0: f6e6 e13d f362 b7bd 7e23 d63d dd8e fe3b
000001b0: 0153 d5bb cc0f d3bd 7c62 ccbd 05d7 b73b
000001c0: 2bc1 d7bc 4d77 a53d 4a81 54bd 2dfb f13c
000001d0: 1081 263d 8753 e1bc f143 55bd b5e8 1a3d
000001e0: 2188 e33d 2656 b23d c6c7 93bd c2c3 04be
000001f0: 3373 cebd 7f81 943c 5bbf fd3d 2fbe 81bc
00000200: a1ec 823d c194 023e 74ae 993d 2b5a 0abc
00000210: 6490 96bc 30b1 8abd 3f7a dabd d58e 853d
00000220: 065c c1bd 78ba c0bd c78f cebc b1ba 913d
00000230: 6ea7 86bd d027 113d 93c6 8f3b e5b2 183d
00000240: 09d5 e43b b9fb fcbd b513 683d d47f 5e3d
00000250: 36d4 9c3d 5457 bc3d 93e7 8b3d 8fa8 70bd
00000260: 3eac 993c 871c 16bd 84e9 5d3d 73bf 70bd
00000270: 936e bcbc 82fb 08bd 156b d7bd 98c9 c63d
00000280: 987b a43d 816b 763d a608 ddbc 3556 eb3d
00000290: 8fb5 4f3d b821 cdbd f97c e9bd 7d9b 003e
000002a0: 4380 08bd a6c8 d5bd 3d2c d7bd ffb1 c63c
000002b0: 841c 5bbd 8060 a2bd 703b a0bc 796a 2cbd
000002c0: ea52 183c f9df e9bd 2b3f d2bc 1aa1 97bd
000002d0: ec75 9ebd 9691 043d d0f6 a63d 2aa5 603d
000002e0: 4745 60bb e4e1 663d 92e7 aebd 941f f4bd
000002f0: b407 013c 3724 ba3c 357e eabd a40e d1bd
00000300: 9d17 383b 3890 19bd 8225 083d 77e0 75bd
00000310: c6fa bf3c 6809 9bbd af4e bf3d 0df8 e73d
00000320: ecbf 74bc 1235 fe3d c2ee be3d 581c b1bd
00000330: 1651 d33d 0c95 fc3d aea9 813d 8e66 f23d
00000340: 40ed b43d 8021 c33d 947d 52bd feee 783d
00000350: 3c4b a4bd fd0a 22bd d67a df3d a46b c93d
00000360: a920 343d 7b8d 70bd 54a1 fbbd 35bb 0a3d
00000370: 1d04 78bd 8c00 b6bd 0a5b 3d3c 9515 b53d
00000380: 5e17 673d 56c0 843d f9c5 ce3d 7a4f 103b
00000390: dfeb 5bbd fff6 dcbd 760e e9bd 5584 fdbd
000003a0: aef6 eabd cf0e 06bc 695c 023c ce19 cbbd
000003b0: 701e f23c 8a8c 573c 75f2 a03c 1631 1f3c
000003c0: b6f2 81bd 83b1 7dbd 097e 86bd a493 f7bd
000003d0: 5c4c 5dbd 144b b23d 46b2 92bd bcb9 cbbd
000003e0: 583d 80bd 9470 733c 1dd4 ad3d 53e1 f6bd
000003f0: 8e6e 013c 3274 e8bc 7275 dc3d eea6 1f3d

actor.last.model.0.bias f4 [9]
-0.04295847 -0.09888578 0.11465746 -0.047665123 0.03983664 -0.10294199 0.11463018 0.06709279
-0.064049006
00000000: 38f5 2fbd a184 cabd 88d1 ea3d 813c 43bd
00000010: bf2b 233d 40d3 d2bd 3ac3 ea3d f267 893d
00000020: 202c 83bd

critic.preprocess.model.0.weight f4 [128, 3]
0.503961 -0.39560226 0.001163502 0.122003324 0.13709468 -0.16925849 -0.4079015 0.1581371
0.55193615 -0.0585353 0.53977937 -0.2796143 -0.08669945 0.17197911 0.4696072 0.18863295
0.099021204 -0.10950407 -0.111381195 0.22315544 -0.49967217 -0.21042682 -0.465832 -0.5301065
-0.12969032 -0.005655762 -0.41752338 0.5360687 -0.4337703 0.1008701 0.2625474 -0.24991599
-0.02976122 -0.09956897 0.21195269 -0.20534281 0.38338676 -0.34256417 0.36020365 0.18876307
0.53444076 -0.42802966 -0.47656748 0.47756752 -0.36671996 0.29922166 0.36571622 0.20033783
0.30270818 -0.16429502 0.26153782 0.074234135 0.32307237 -0.3113944 -0.15157138 0.21668915
0.48534498 0.040226806 0.24799795 -0.3764877 -0.2445711 0.5366195 -0.5425692 -0.21841809
0.45680854 0.31515092 0.25399044 0.24379353 0.29226968 -0.004409037 -0.34486276 0.22314344
-0.08272881 -0.57248396 -0.11645996 0.39679024 0.30322582 0.35158584 0.4789702 0.29178062
0.46585485 -0.07788987 -0.3402234 0.044941366 0.09455357 0.49910527 0.40794995 -0.4360302
-0.013418555 -0.12889683 -0.38173705 -0.34681088 -0.45051014 -0.48064837 0.6058431 -0.04700449
-0.4808846 0.36671105 0.3283986 0.15288296 0.013246267 -0.24961531 0.34446296 0.26562282
0.07990807 0.56376183 0.115443386 0.40437543 0.060175754 0.3315103 -0.46921036 -0.2122105
-0.11176431 0.22407945 0.43622044 0.17982864 0.45856977 0.47203556 -0.21061577 0.07616819
0.012904816 0.2714948 -0.21809764 0.29094365 -0.10409177 -0.525556 -0.17064302 -0.3095066
0.081986494 -0.29960504 0.031156495 0.16483802 -0.33306637 -0.019233836 0.33958417 0.5071051
-0.21402572 -0.27375507 -0.25722897 0.031879608 0.46242282 0.50255734 0.5460027 0.041339897
-0.079207875 0.27410495 -0.24060048 -0.39961728 0.02943365 0.08569605 -0.3073849 0.36969006
0.0076037566 0.55253637 -0.46694782 0.049795255 0.36464736 0.37867156 0.46036828 0.4437831
-0.310306 0.54862297 -0.13412787 -0.014740622 0.3949275 0.53090703 0.003227023 -0.31388742
0.3203704 0.033043794 0.37342235 0.12010924 -0.17158921 0.48983693 -0.08317193 0.52102834
0.3066917 0.2834495 0.3395621 -0.46410152 0.11501468 0.024263779 0.20949201 0.2759017
0.015295877 0.22074273 0.5896 -0.009075058 -0.1152579 0.32024866 -0.101219684 -0.5117127
0.32019195 -0.029263673 -0.04077529 -0.049772356 -0.47008067 0.03875472 0.113200314 -0.50483316
-0.0347315 -0.32573375 0.17950967 0.22502275 -0.27797595 0.20369732 -0.39061928 0.5753916
-0.1101691 0.038127284 -0.2739247 -0.23153429 0.5715257 -0.047008462 -0.12959726 0.15095384
-0.4638205 -0.12605324 0.17438947 0.119937606 0.4028611 0.20991257 -0.35398343 0.3630768
-0.41471013 0.26252723 0.59305024 -0.025509922 0.37025195 0.2729098 0.17515038 0.2596375
0.09065396 -0.3417354 -0.5575483 -0.11655245 0.10145722 -0.25322664 -0.1895336 0.30474752
0.16363251 0.5835468 -0.032871027 0.46212143 0.20475605 -0.16030452 -0.04869926 -0.4513533
-0.07276672 -0.35426104 0.007587045 0.55994964 -0.07119112 -0.4667576 0.21389186 -0.41314104
00000000: 9703 013f 618c cabe a680 983a e1dc f93d
00000010: 8c62 0c3e 1952 2dbe 77d8 d0be b1ee 213e
00000020: b04b 0d3f b6c2 6fbd fb2e 0a3f 9b29 8fbe
00000030: 7b8f b1bd 4b1b 303e 5b70 f03e ff28 413e
00000040: a1cb ca3d ab43 e0bd d31b e4bd dc82 643e
00000050: 08d5 ffbe 217a 57be 8881 eebe 0fb5 07bf
00000060: 8acd 04be f853 b9bb a0c5 d5be cc3b 093f
00000070: 2417 debe fc94 ce3d 9d6c 863e fae9 7fbe
00000080: cdcd f3bc d1ea cbbd 200a 593e 6345 52be
00000090: 454b c43e 9264 afbe 9d6c b83e 1b4b 413e
000000a0: 1cd1 083f b426 dbbe a700 f4be bb83 f43e
000000b0: b8c2 bbbe 9533 993e 283f bb3e 5c25 4d3e
000000c0: 91fc 9a3e f43c 28be 49e8 853e 1108 983d
000000d0: be69 a53e 166f 9fbe 8735 1bbe c3e3 5d3e
000000e0: 237f f83e ddc4 243d 2df3 7d3e ffc2 c0be
000000f0: d970 7abe e55f 093f d1e5 0abf fea8 5fbe
00000100: cfe2 e93e 765b a13e 090b 823e 03a5 793e
00000110: 5fa4 953e af79 90bb da91 b0be b77f 643e
00000120: b96d a9bd 4f8e 12bf 8f82 eebd 1728 cb3e
00000130: 6a40 9b3e 0f03 b43e 953b f53e 4564 953e
00000140: 8784 ee3e b984 9fbd c331 aebe 7014 383d
00000150: 4da5 c13d ba8a ff3e d1de d03e 5a3f dfbe
00000160: 80d9 5bbc 88fd 03be 0a73 c3be 3291 b1be
00000170: 44a9 e6be 8b17 f6be 8918 1b3f c887 40bd
00000180: 8236 f6be 8dc1 bb3e dc23 a83e 5a8d 1c3e
00000190: df06 593c 289b 7fbe 735d b03e b7ff 873e
000001a0: d8a6 a33d b252 103f 956d ec3d 4c0a cf3e
000001b0: da7a 763d b8bb a93e 573c f0be b64d 59be
000001c0: b0e4 e4bd 1575 653e 4958 df3e 0025 383e
000001d0: a8c9 ea3e a5ae f13e a9ab 57be 11fe 9b3d
000001e0: b96e 533c 5e01 8b3e fd54 5fbe 91f6 943e
000001f0: 112e d5bd d78a 06bf 0bbd 2ebe a677 9ebe
00000200: 89e8 a73d d565 99be e83b ff3c 4ccb 283e
00000210: ad87 aabe 4790 9dbc fadd ad3e a4d1 013f
00000220: 8f29 5bbe a029 8cbe 84b3 83be 3194 023d
00000230: afc2 ec3e 99a7 003f d5c6 0b3f 0654 293d
00000240: bd37 a2bd 7c57 8c3e f95f 76be a39a ccbe
00000250: d71e f13c 6981 af3d 8e61 9dbe 0448 bd3e
00000260: ef28 f93b 0673 0d3f c913 efbe 1cf6 4b3d
00000270: 0fb3 ba3e 3de1 c13e 64b5 eb3e 8a37 e33e
00000280: 6ee0 9ebe 8e72 0c3f d158 09be a682 71bc
00000290: f033 ca3e 86e9 073f 767c 533b dab5 a0be
000002a0: 9707 a43e ee58 073d 3731 bf3e d5fb f53d
000002b0: 15b5 2fbe e8cb fa3e 0b56 aabd 1d62 053f
000002c0: b206 9d3e 4b20 913e 15db ad3e b79e edbe
000002d0: d18c eb3d d5c4 c63c 1385 563e fd42 8d3e
000002e0: 8f9b 7a3c 620a 623e 07f0 163f 8daf 14bc
000002f0: 550c ecbd a2f7 a33e 444c cfbd 9aff 02bf
00000300: 33f0 a33e 5fba efbc fe03 27bd 19de 4bbd
00000310: 6aae f0be 45bd 1e3d 91d5 e73d bf3c 01bf
00000320: 9e42 0ebd 93c6 a6be 62d1 373e 5d6c 663e
00000330: dd52 8ebe 0896 503e 40ff c7be dd4c 133f
00000340: 56a0 e1bd 5b2b 1c3d dc3f 8cbe 5317 6dbe
00000350: 824f 123f f28b 40bd 25b5 04be a593 1a3e
00000360: e179 edbe 1a14 01be 2793 323e d9a1 f53d
00000370: cf43 ce3e 52f3 563e 513d b5be 34e5 b93e
00000380: e354 d4be f869 863e 24d2 173f 2ffa d0bc
00000390: aa91 bd3e d5ba 8b3e 9f5a 333e 35ef 843e
000003a0: c9a8 b93d f1f7 aebe 7cbb 0ebf 0db3 eebd
000003b0: cec8 cf3d eca6 81be 1915 42be de07 9c3e
000003c0: 488f 273e 5363 153f c5a3 06bd 2e9b ec3e
000003d0: 92ab 513e de26 24be e078 47bd c817 e7be
000003e0: b806 95bd b461 b5be bf9c f83b dc58 0f3f
000003f0: a6cc 91bd dafa eebe 7806 5b3e 3987 d3be
