dqn.pth (torch, 178674 bytes, 38 tensors)

actor.preprocess.model.0.weight f4 [128, 3]
-0.39123696 0.5243967 0.23587523 -0.5090012 0.15755902 -0.47555706 -0.3029703 -0.024636008
0.082356334 -0.1698359 -0.29942548 0.5402679 0.3047266 -0.21668862 -0.21063219 0.4167639
0.097765125 0.2560607 0.2022359 -0.16246568 0.034404427 0.5238658 0.0031752712 -0.26447544
0.21788298 -0.028246472 0.5366363 0.33343104 -0.47309557 -0.07293234 0.3441863 -0.06544301
-0.33083862 0.09757611 0.43045115 -0.4529024 0.36258152 0.47558668 -0.23905887 0.5395842
-0.48148894 -0.057237357 -0.28487137 0.1953717 -0.11081619 0.29009843 0.010284506 0.53075117
0.3220563 0.47684795 0.036688752 -0.168864 -0.3986833 0.2998003 -0.2995237 0.03795709
-0.5399607 -0.01618835 0.60336405 -0.29388103 0.2648504 -0.22169305 0.11547755 -0.15133278
0.3100128 0.17049572 0.5764057 -0.5081025 0.47045588 -0.22533505 -0.44150922 0.081786074
0.53147227 0.48611298 -0.30341026 0.5062701 -0.5048028 0.40939912 0.052901138 -0.3369779
0.27758232 -0.38262954 0.31394494 0.093720235 0.15070614 -0.37180427 0.5243266 0.44700494
-0.27853677 -0.5345603 -0.4723795 0.19261946 -0.46766675 -0.29851434 -0.37589082 0.16154708
-0.17622924 -0.5754876 -0.11334267 -0.36874577 0.08407247 -0.28823856 0.27172413 -0.48735273
-0.30853456 0.5716464 0.124458395 0.25528863 -0.3457502 0.25272515 0.40725425 0.05522708
-0.4497585 -0.509411 0.30088234 -0.18700932 0.50449026 -0.15194568 0.16113994 -0.3921923
0.23175316 0.43486798 -0.5065889 -0.030521175 0.096690424 -0.35674417 -0.099660784 -0.17972922
-0.13813907 0.33977848 -0.23363161 -0.2938079 -0.27765217 0.067235276 0.43818298 -0.047334142
-0.42656893 0.12549424 0.3561449 -0.030950153 0.47960997 -0.23637092 0.048549347 -0.45025966
-0.15896592 -0.4639848 -0.51383543 0.13102986 0.089147516 -0.23097634 0.24042164 -0.4504742
0.51447916 -0.1202666 -0.29202852 0.5826328 0.5572818 -0.28334594 0.063606374 0.054799262
0.02003505 -0.342093 0.014499264 -0.024897547 0.24180229 0.23487407 -0.10409356 0.26023
-0.28846967 0.4613048 -0.56321996 -0.32568067 -0.25629684 -0.0073891142 -0.54709685 0.600986
0.049498476 -0.08583175 0.55321676 -0.5343081 -0.19191696 0.50973123 -0.50106 -0.19965637
0.4672695 0.18180402 -0.22381616 -0.037367415 0.08478447 0.5632074 0.08640186 0.05063257
0.3467748 0.010657263 0.18538475 0.0062087374 0.2673594 -0.30921233 -0.22733156 -0.21603803
-0.25610924 -0.12489483 -0.40386963 0.25507376 0.26503122 -0.49592325 -0.2827969 0.5462378
0.012690275 -0.15168518 -0.22325003 -0.046185136 0.07649846 0.4048872 -0.22970042 -0.3400147
0.23305278 0.40041193 0.17384543 0.02084309 0.43231666 0.28877443 0.51938885 -0.537057
0.04395309 -0.1221179 0.2509379 0.2899276 0.18599264 0.44139346 -0.3948816 -0.5259769
-0.1938618 0.3116791 -0.16617669 -0.3374599 -0.27359486 -0.27871135 0.55247396 0.319464
-0.45522392 -0.44626504 -0.21448913 0.45574638 0.08013028 0.2815526 -0.22347276 0.5739071
-0.22660416 0.4147861 -0.063833304 0.04491566 0.46167204 0.3464161 0.44690546 0.37104583
00000000: 3650 c8be dd3e 063f 4789 713e e74d 02bf
00000010: 2757 213e 377c f3be ec1e 9bbe 74d1 c9bc
00000020: 70aa a83d 76e9 2dbe 4c4e 99be ff4e 0a3f
00000030: 2005 9c3e 9fe3 5dbe f7af 57be 1462 d53e
00000040: 1539 c83d 631a 833e ee16 4f3e 675d 26be
00000050: a8eb 0c3d 121c 063f 3618 503b 5369 87be
00000060: b71c 5f3e 2565 e7bc ff60 093f 79b7 aa3e
00000070: 9539 f2be 8d5d 95bd 3039 b03e fc06 86bd
00000080: ae63 a9be fcd5 c73d 1864 dc3e d3e2 e7be
00000090: 49a4 b93e 1980 f33e d9cb 74be 3122 0a3f
000000a0: b885 f6be b871 6abd a9da 91be 850f 483e
000000b0: 99f3 e2bd c887 943e 5880 283c 4fdf 073f
000000c0: 90e4 a43e 6a25 f43e f246 163d afea 2cbe
000000d0: 3820 ccbe 6d7f 993e 2c5b 99be e578 1b3d
000000e0: dd3a 0abf 6e9d 84bc 1176 1a3f 9377 96be
000000f0: 799a 873e 8103 63be 7e7f ec3d fbf6 1abe
00000100: ffb9 9e3e 6e96 2e3e 538f 133f 0113 02bf
00000110: 98df f03e 3bbe 66be 7f0d e2be 757f a73d
00000120: 910e 083f cde3 f83e 9758 9bbe eb9a 013f
00000130: c23a 01bf c39c d13e ddae 583d 5e88 acbe
00000140: 451f 8e3e 05e8 c3be 64bd a03e 65f0 bf3d
00000150: b652 1a3e 215d bebe 453a 063f d5dd e43e
00000160: 5f9c 8ebe f2d8 08bf badb f1be 093e 453e
00000170: 0472 efbe dfd6 98be c374 c0be 996c 253e
00000180: 7075 34be 2853 13bf 3420 e8bd 3fcc bcbe
00000190: 302e ac3d 0194 93be 6d1f 8b3e 4c86 f9be
000001a0: 3ef8 9dbe 6b57 123f 0be4 fe3d 31b5 823e
000001b0: 2c06 b1be 3165 813e a183 d03e ca35 623d
000001c0: bf46 e6be c268 02bf 400d 9a3e 5f7f 3fbe
000001d0: 4626 013f a697 1bbe de01 253e 6ecd c8be
000001e0: b350 6d3e 04a7 de3e cfaf 01bf 8b07 fabc
000001f0: a105 c63d 2ca7 b6be f41a ccbd f00a 38be
00000200: 5474 0dbe 72f7 ad3e 203d 6fbe fd6d 96be
00000210: 6d28 8ebe a6b2 893d 8559 e03e 72e1 41bd
00000220: 3e67 dabe 9081 003e a058 b63e 2d8b fdbc
00000230: 708f f53e 380b 72be aedb 463d 6f88 e6be
00000240: f6c7 22be 6a8f edbe b88a 03bf b12c 063e
00000250: f992 b63d 1085 6cbe 1731 763e 8ea4 e6be
00000260: e8b4 033f 564e f6bd c384 95be 6c27 153f
00000270: 05aa 0e3f b812 91be 0f44 823d 3175 603d
00000280: 8c20 a43c d026 afbe 528e 6d3c f1f5 cbbc
00000290: 059b 773e d482 703e 012f d5bd de3c 853e
000002a0: 4cb2 93be 2530 ec3e 2f2f 10bf 9ebf a6be
000002b0: 5739 83be 6220 f2bb 8a0e 0cbf 38da 193f
000002c0: eabe 4a3d 8ec8 afbd 9d9f 0d3f 6ac8 08bf
000002d0: e185 44be bf7d 023f 7845 00bf b872 4cbe
000002e0: f33d ef3e d52a 3a3e 1030 65be 930e 19bd
000002f0: 7ba3 ad3d 5c2e 103f 75f3 b03d 1964 4f3d
00000300: 778c b13e cd9b 2e3c 80d5 3d3e aa72 cb3b
00000310: 55e3 883e 1451 9ebe 9bc9 68be 1339 5dbe
00000320: c020 83be dcc8 ffbd 00c8 cebe 0799 823e
00000330: 2cb2 873e a7e9 fdbe c1ca 90be 3ed6 0b3f
00000340: dfea 4f3c 5c53 1bbe a89b 64be a02c 3dbd
00000350: 39ab 9c3d 604d cf3e 9636 6bbe 6816 aebe
00000360: 63a5 6e3e cb02 cd3e 8904 323e 21bf aa3c
00000370: 9c58 dd3e 3eda 933e abf6 043f 917c 09bf
00000380: 2808 343d f318 fabd ef7a 803e 6471 943e
00000390: db74 3e3e 53fe e13e ec2d cabe 6ca6 06bf
000003a0: b583 46be 6794 9f3e 392a 2abe 8bc7 acbe
000003b0: a014 8cbe 41b3 8ebe ef6e 0d3f c990 a33e
000003c0: 1c13 e9be da7c e4be 0aa3 5bbe 9757 e93e
000003d0: 581b a43d aa27 903e 0bd6 64be 93eb 123f
000003e0: ec0a 68be d85e d43e 09bb 82bd 7cf9 373d
000003f0: 4760 ec3e 735d b13e cbd0 e43e b8f9 bd3e

actor.preprocess.model.0.bias f4 [128]
0.49584162 -0.23908284 -0.47345024 0.27410245 -0.24171804 0.0533076 0.71769696 0.8925901
0.16827072 -0.46566638 -0.106995374 0.33077157 0.28273618 -0.08336003 0.0556912 -0.46452036
-0.06817264 -0.55020744 0.28849462 -0.2969436 -0.109832406 -0.095058784 0.27854657 0.67505336
0.34925535 -0.7081671 0.4556165 -0.23719423 0.8000466 -0.04237228 0.2517784 -0.120194964
-0.28556532 0.2580663 0.56706375 -0.2197297 0.75441694 -0.24541698 0.8121942 0.40834635
0.70490825 -0.5216479 -0.3842948 -0.48066083 0.75861764 -0.20624948 0.7619214 -0.110149644
0.46480545 0.65644455 -0.12397575 -0.32964846 0.22060892 0.3978177 -0.26967525 0.6550776
-0.02403509 0.3126752 -0.7391671 0.41441867 0.7907672 0.7257523 0.77723616 0.59588426
0.12650962 0.8345226 0.6000355 -0.15161675 0.07997837 0.1873437 -0.21269384 -0.38000885
0.40578791 -0.0081785 -0.14987585 -0.18724139 -0.51847607 0.06806567 0.57343954 0.12580433
-0.38927895 0.85431665 -0.82869947 -0.25973365 0.8441857 0.8091492 -0.13141707 -0.042097364
0.19058464 0.42732123 -0.37941572 -0.07443826 0.7330275 -0.33169004 -0.30076146 0.17515534
0.6342723 0.7379972 -0.42093322 0.096668206 0.041952 0.7864314 0.66014564 0.24111205
0.021442078 0.011273417 -0.5413161 -0.38274866 0.057923995 0.26672715 0.1460256 -0.27984443
-0.08515457 0.5273441 -0.28531379 0.89002156 0.6207296 -0.42840365 0.66211236 -0.42397344
-0.08992335 -0.6506856 0.5560644 -0.13511787 0.8120859 0.8862016 -0.3443546 0.55591875
00000000: f4de fd3e 22d2 74be 1268 f2be 2857 8c3e
00000010: ef84 77be 1259 5a3d fdba 373f c980 643f
00000020: 294f 2c3e d36b eebe 6420 dbbd e45a a93e
00000030: ccc2 903e aab8 aabd 751c 643d 9dd5 edbe
00000040: 199e 8bbd 65da 0cbf 91b5 933e fe08 98be
00000050: d0ef e0bd 2eae c2bd a89d 8e3e 4cd0 2c3f
00000060: 99d1 b23e 704a 35bf 9146 e93e 0be3 72be
00000070: dbcf 4c3f 8e8e 2dbd 19e9 803e c728 f6bd
00000080: 9e35 92be 4421 843e 172b 113f d300 61be
00000090: 7821 413f 974e 7bbe f6eb 4f3f c612 d13e
000000a0: de74 343f b78a 05bf 4ac2 c4be 2d19 f6be
000000b0: c434 423f 1033 53be 480d 433f 2396 e1bd
000000c0: fbfa ed3e c00c 283f ffe6 fdbd afc7 a8be
000000d0: 4ee7 613e c3ae cb3e e012 8abe 2ab3 273f
000000e0: 3de5 c4bc f716 a03e 0e3a 3dbf af2e d43e
000000f0: b86f 4a3f e7ca 393f f3f8 463f df8b 183f
00000100: bd8b 013e 46a3 553f ed9b 193f 6c41 1bbe
00000110: b3cb a33d 07d7 3f3e 6acc 59be 8590 c2be
00000120: 6fc3 cf3e 1eff 05bc 0e79 19be 35bc 3fbe
00000130: d9ba 04bf 0466 8b3d efcc 123f dad2 003e
00000140: 924f c7be 7fb4 5a3f a625 54bf cffb 84be
00000150: 8e1c 583f 6724 4f3f 3292 06be 496e 2cbd
00000160: 9f28 433e d9c9 da3e c742 c2be 1673 98bd
00000170: b1a7 3b3f 47d3 a9be 68fd 99be ec5b 333e
00000180: ab5f 223f 62ed 3c3f 8f84 d7be fbf9 c53d
00000190: dcd5 2b3d 9153 493f 4eff 283f 14e6 763e
000001a0: 4ca7 af3c 23b4 383c b193 0abf a2f7 c3be
000001b0: b641 6d3d 7690 883e bc87 153e c547 8fbe
000001c0: 8565 aebd 0600 073f a614 92be 74d8 633f
000001d0: 23e8 1e3f b957 dbbe 3280 293f 0c13 d9be
000001e0: bc29 b8bd 5593 26bf 3d5a 0e3f 575c 0abe
000001f0: dde4 4f3f 1cde 623f 3f4f b0be b150 0e3f

actor.preprocess.model.2.weight f4 [128, 128]
0.014545321 0.028814733 0.01661899 -0.0020735264 -0.03230109 0.006844595 -0.020033717 -0.012478784
-0.086758055 0.02544479 -0.023013636 0.08651144 -0.08320691 -0.07362182 -0.06401612 -0.03327992
-0.08600703 -0.0509167 0.033313774 0.082937635 0.07287184 0.016992494 0.006706871 0.067116044
-0.04161779 0.044321768 -0.02290517 0.041022755 0.06504031 0.068856634 -0.084556215 -0.08356132
-0.07146611 -0.07300775 -0.08183219 -0.03610791 -0.029813375 -0.012082435 -0.0740421 0.0027254596
-0.006074339 -0.0800032 0.0186598 0.031284466 0.07518386 -0.060322296 -0.07959162 0.085675366
-0.069658615 0.021885544 -0.0034737885 -0.06098198 -0.020579569 -0.056429025 -0.05487214 0.009162746
0.015677318 0.07104904 -0.08564416 -0.08524822 0.061141662 -0.07587008 -0.071011044 0.05497136
0.041340478 0.06378097 -0.06823665 0.06264826 -0.016833328 -0.0720106 -0.006643109 0.043539487
0.027049161 0.007044427 0.01904852 0.007152088 0.0007013306 0.015197992 0.0654772 -0.0040729344
0.053511374 -0.04591585 0.017507076 -0.07879644 -0.0033049583 0.028671443 0.06857916 0.08056333
0.067032225 -0.050555184 -0.07975758 0.024689898 -0.027479954 -0.06156668 -0.0044582337 0.046425395
-0.07527879 0.06307434 0.0785779 -0.04364659 -0.031951293 0.026512042 0.0663422 -0.03967741
0.081976615 0.03577853 0.024501279 -0.045739613 -0.07924181 0.004285924 -0.02903235 -0.0730023
-0.03804771 0.024450585 -0.0041298047 0.0032472461 0.04250198 0.05749575 -0.074119836 0.03604857
0.05954071 -0.05228622 0.07362122 0.03400772 -0.06398833 -0.079827935 -0.041827943 -0.087380394
0.098379366 0.061106466 0.0009287407 0.08994035 0.06454043 -0.0377507 0.048929613 0.08608252
-0.04993067 0.01899612 -0.07328496 0.07160266 -0.021715734 0.0133226095 0.03176006 -0.038987394
-0.07697471 -0.02066331 0.020625297 -0.023256952 -0.04333491 0.05268741 0.084536284 0.081928544
-0.017159337 -0.046309482 0.0057793567 0.053871535 -0.01583369 0.0031682623 0.032640338 0.10687348
-0.016361088 0.025645053 -0.019252822 -0.08628513 -0.020788118 -0.061998457 -0.0406634 0.06276282
0.06061946 -0.051819403 0.050404765 -0.07378926 0.08013083 0.022311067 0.010372753 0.03023069
-0.052564144 0.13909614 0.061218277 0.037149195 0.058840804 0.0601817 0.028088279 -0.006017013
-0.03885315 0.036317203 0.043988973 0.025836155 0.07480833 0.088743284 0.11292419 0.04172249
-0.029829737 0.019168105 0.07783877 0.018867554 0.077599704 0.06442108 0.012723691 -0.051334
0.010848638 -0.06840251 -0.053527582 0.034676664 0.042663146 0.051192056 0.0069657234 0.001732054
-0.0025236234 -0.00529645 -0.01894093 -0.042554908 0.02065693 -0.020708036 0.02105484 0.068122335
-0.021637166 0.080498174 -0.019147418 0.08199261 0.04110673 0.059374593 0.065893374 0.015654607
-0.053330563 -0.03291787 0.08976651 0.055921946 -0.002705822 0.09065993 -0.02033593 0.060786072
-0.05068086 0.04072738 -0.043210268 0.001546105 0.07557881 0.02612812 0.060689773 0.02271279
0.08657356 0.10108939 0.09668285 0.09419546 -0.013405088 -0.094356 0.07077091 -0.09122136
-0.05247158 -0.061012916 -0.011994715 -0.00067788403 -0.034720104 -0.00660477 0.06045874 -0.035224695
00000000: 804f 6e3c e00c ec3c 8c24 883c 00e4 07bb
00000010: 264e 04bd a048 e03b c01d a4bc d073 4cbc
00000020: 35ae b1bd 9871 d03c 1887 bcbc e92c b13d
00000030: 6268 aabd 09c7 96bd e21a 83bd 8750 08bd
00000040: 7424 b0bd 088e 50bd 0674 083d 35db a93d
00000050: d53d 953d d833 8b3c 50c5 db3b 2374 893d
00000060: 6a77 2abd be8a 353d a0a3 bbbc 7a07 283d
00000070: db33 853d b504 8d3d cf2b adbd 3322 abbd
00000080: d35c 92bd 1685 95bd a397 a7bd e3e5 13bd
00000090: 2e3b f4bc 68f5 45bc 62a3 97bd a09d 323b
000000a0: 400b c7bb b8d8 a3bd 70dc 983c 2424 003d
000000b0: fff9 993d 8314 77bd ee00 a3bd 9176 af3d
000000c0: 2da9 8ebd 5049 b33c 80a8 63bb 3ec8 79bd
000000d0: 7c96 a8bc 1f22 67bd 9cc1 60bd 581f 163c
000000e0: b86d 803c 2982 913d 3566 afbd 9e96 aebd
000000f0: ae6f 7a3d c661 9bbd 3d6e 91bd a629 613d
00000100: a254 293d 999f 823d a8bf 8bbd bb4d 803d
00000110: 0ce6 89bc 4b7a 93bd 70ae d9bb 7656 323d
00000120: 3496 dd3c f0d4 e63b a40b 9c3c 105c ea3b
00000130: 80d9 373a 0001 793c e918 863d 4076 85bb
00000140: be2e 5b3d 4212 3cbd 006b 8f3c 0760 a1bd
00000150: 0098 58bb 60e0 ea3c 3b73 8c3d 63fe a43d
00000160: 3148 893d f412 4fbd f157 a3bd 7842 ca3c
00000170: a41d e1bc 582d 7cbd 6016 92bb 8e28 3e3d
00000180: c42b 9abd 1f2d 813d 73ed a03d c4c6 32bd
00000190: 5cdf 02bd c82f d93c 6bde 873d c884 22bd
000001a0: 5be3 a73d 828c 123d e8b6 c83c 7659 3bbd
000001b0: 8849 a2bd f070 8c3b 40d5 edbc 3b82 95bd
000001c0: ead7 1bbd 984c c83c 5053 87bb c0cf 543b
000001d0: 8e16 2e3d aa80 6b3d 24cc 97bd aaa7 133d
000001e0: f6e0 733d 132a 56bd b9c6 963d ae4b 0b3d
000001f0: 500c 83bd d47c a3bd c753 2bbd 7ef4 b2bd
00000200: 1f7b c93d c64a 7a3d bc76 733a a532 b83d
00000210: c62d 843d 7aa0 1abd 6b6a 483d 084c b03d
00000220: 1a84 4cbd c09d 9b3c 6d16 96bd 6aa4 923d
00000230: 32e5 b1bc 1347 5a3c d616 023d 3fb1 1fbd
00000240: eba4 9dbd 1a46 a9bc 62f6 a83c 5d85 bebc
00000250: f27f 31bd c1ce 573d 5c21 ad3d 27ca a73d
00000260: bd91 8cbc 03af 3dbd c260 bd3b 66a8 5c3d
00000270: a8b5 81bc 9fa2 4f3b e0b1 053d 7ce0 da3d
00000280: b007 86bc 9315 d23c 18b8 9dbc 42b6 b0bd
00000290: d84b aabc 18f2 7dbd aa8e 26bd cb89 803d
000002a0: 1c4c 783d 9540 54bd 3a75 4e3d d31e 97bd
000002b0: a21b a43d b3c5 b63c 7bf2 293c 5aa6 f73c
000002c0: 804d 57bd 386f 0e3e 04c0 7a3d c129 183d
000002d0: 0e03 713d 1681 763d 6419 e63c 5d2a c5bb
000002e0: 7b24 1fbd 59c1 143d c82d 343d 58a6 d33c
000002f0: 1c35 993d 0abf b53d cc44 e73d 34e5 2a3d
00000300: 7e5d f4bc 6e06 9d3c ef69 9f3d 2190 9a3c
00000310: 98ec 9e3d 33ef 833d 0777 503c 9a43 52bd
00000320: 7cbe 313c 9d16 8cbd bd3f 5bbd 1e09 0e3d
00000330: 8dbf 2e3d c3ae 513d b940 e43b 1706 e33a
00000340: 6063 25bb d88d adbb 022a 9bbc 0e4e 2ebd
00000350: b938 a93c e6a3 a9bc 337b ac3c b983 8b3d
00000360: 6d40 b1bc 3adc a43d 0cdb 9cbc beeb a73d
00000370: 885f 283d c632 733d 1bf3 863d 173e 803c
00000380: 2671 5abd e3d4 06bd 81d7 b73d 690e 653d
00000390: 2954 31bb eaab b93d 8997 a6bc d1fa 783d
000003a0: bc96 4fbd c1d1 263d 40fd 30bd ada6 ca3a
000003b0: 10c9 9a3d a40a d63c d795 783d 2c10 ba3c
000003c0: 7b4d b13d f407 cf3d a801 c63d 8de9 c03d
000003d0: 04a1 5bbc b83d c1bd 57f0 903d 44d2 babd
000003e0: 71ec 56bd aee8 79bd 7b85 44bc 07b4 31ba
000003f0: ab36 0ebd d46c d8bb 95a3 773d c547 10bd

actor.preprocess.model.2.bias f4 [128]
-0.0836752 0.30999553 0.019339189 0.4107314 0.24219245 0.29193908 -0.0653687 0.21322279
0.32794815 0.31685963 0.23596512 0.27781558 0.28875086 0.17814185 0.15851642 0.20768999
0.20638694 -0.36769015 0.04724201 0.27780727 0.34508348 -0.051522244 -0.3222215 0.34206122
0.2967154 0.26050872 0.3357891 0.009738058 0.26405433 0.21090192 -0.018364098 0.19181491
-0.058995776 -0.01132636 0.08014036 0.23814206 0.24671973 0.27103308 0.04594069 0.23654507
0.26598832 0.41839728 0.2904093 0.022170633 -0.08060418 0.25660992 0.10415028 0.28044447
0.10896533 0.38174817 0.3241758 -0.062467076 0.37621754 -0.010163292 0.42711782 0.21498406
0.3814946 0.38262093 -0.049110297 0.38530686 0.23109128 0.2995743 -0.13631496 0.24412964
-0.32511696 0.22101915 0.05063107 0.37449718 0.20026204 0.3421045 0.08105817 0.27505597
-0.07586328 0.15846083 -0.2561152 0.0888971 -0.0042989096 0.24733137 0.30321088 -0.18244606
0.2064653 0.30553558 0.33948067 0.25216413 0.25334817 -0.4527476 0.053809788 -0.061787985
0.16685417 0.2799468 -0.05383889 0.13439025 0.3619305 0.445976 0.23895495 0.22400679
0.17783242 0.35828343 0.38936657 0.18058322 0.27214986 0.23236276 0.30288783 0.30057693
0.34029523 -0.2830541 0.33841193 -0.026033571 0.42122123 0.24018669 0.248637 -0.0724893
-0.054956738 0.25020558 0.32212248 0.3651514 0.22954229 0.34385535 -0.022691427 0.29707
0.1974009 0.3059074 0.28469095 -0.1351815 0.36369497 0.341661 0.25883737 -0.35096398
00000000: e75d abbd bcb7 9e3e 386d 9e3c 634b d23e
00000010: 4c01 783e 0a79 953e 06e0 85bd 1357 5a3e
00000020: d2e8 a73e 6d3b a23e d7a0 713e d83d 8e3e
00000030: 27d7 933e d16a 363e 2152 223e afac 543e
00000040: 1957 533e e241 bcbe d680 413d c13c 8e3e
00000050: c8ae b03e fd08 53bd 37fa a4be a622 af3e
00000060: 15eb 973e 6661 853e 8dec ab3e 608c 1f3c
00000070: 2132 873e acf6 573e 4e70 96bc 216b 443e
00000080: 8ea5 71bd 3292 39bc a120 a43d 83db 733e
00000090: 19a4 7c3e d9c4 8a3e 4e2c 3c3d df38 723e
000000a0: 9f2f 883e 2b38 d63e 87b0 943e 309f b53c
000000b0: ce13 a5bd 6062 833e be4c d53d 6b96 8f3e
000000c0: 3729 df3d 7f74 c33e 5ffa a53e 7add 7fbd
000000d0: 969f c03e f083 26bc 30af da3e c824 5c3e
000000e0: 4353 c33e e4e6 c33e e127 49bd f146 c53e
000000f0: 31a3 6c3e cd61 993e 2696 0bbe 1ffd 793e
00000100: bb75 a6be d852 623e 8662 4f3d 18be bf3e
00000110: 7e11 4d3e 5228 af3e d301 a63d 23d4 8c3e
00000120: 355e 9bbd 8e43 223e 8821 83be af0f b63d
00000130: dedd 8cbb 6f44 7d3e 753e 9b3e 24d3 3abe
00000140: a46b 533e 296f 9c3e 69d0 ad3e a81b 813e
00000150: dab6 813e 89ce e7be a767 5c3d 6615 7dbd
00000160: d2db 2a3e 3055 8f3e 2b86 5cbd 999d 093e
00000170: f44e b93e f756 e43e 9bb0 743e 0962 653e
00000180: b419 363e ed70 b73e 0e5b c73e cfea 383e
00000190: 3a57 8b3e 81f0 6d3e 1d14 9b3e 38e5 993e
000001a0: 2d3b ae3e 78ec 90be 5444 ad3e 5b44 d5bc
000001b0: 4faa d73e 80f3 753e b39a 7e3e 4575 94bd
000001c0: 511a 61bd f21a 803e 3ded a43e 20f5 ba3e
000001d0: 220d 6b3e cf0d b03e 5fe3 b9bc 8f19 983e
000001e0: 7623 4a3e e59f 9c3e 03c3 913e 056d 0abe
000001f0: 3a36 ba3e 31ee ae3e 5586 843e 8db1 b3be

actor.preprocess.model.4.weight f4 [128, 128]
0.06340804 0.037093572 0.053084485 0.0497512 0.04997071 0.060174145 -0.03802024 0.039670147
-0.008774973 -0.061009638 -0.046005297 0.02918075 -0.044286907 0.039084353 -0.025719337 -0.028715987
0.007856689 0.0033368617 0.07098714 -0.08494974 -0.060752142 -0.0026809424 -0.012501672 -0.024225906
0.037115432 -0.07919421 0.018147632 -0.05201703 -0.010173298 -0.06779484 -0.07675672 -0.034851883
-0.052691545 -0.01857014 -0.032482576 -0.057065662 0.05206939 -0.045945764 0.039147697 -0.034085408
-0.0880058 0.07793995 0.055776052 -0.078140214 -0.04918772 0.061776735 -0.05080826 -0.033152204
0.0541384 -0.014798023 -0.064890765 0.067031346 -0.08533259 -0.053854685 -0.072048835 -0.028061371
-0.06684792 -0.024329476 0.07664933 -0.07740621 -0.016501583 -0.051310014 0.031675525 0.044471063
0.0548388 -0.027180154 0.0671112 -0.06073033 -0.028031308 0.08128827 -0.0077404454 0.06723205
0.057207115 0.040717997 -0.04149763 -0.06700756 0.024603613 -0.021555215 -0.02222456 0.009461217
-0.05260914 0.021095626 -0.061824936 -0.061430335 0.0044295266 -0.043587543 0.049437843 0.038308255
-0.046093225 -0.06694531 -0.032205313 0.06661775 -0.024689816 0.050717242 -0.004675202 0.005606219
0.0736532 -0.08129066 -0.06490274 0.02613812 -0.010407835 -0.06089209 0.04115241 -0.060933184
0.018644609 -0.065172404 -0.032027274 0.022654109 0.07705542 -0.0094508305 -0.07562828 0.055201925
0.060001694 0.02352465 0.023828901 -0.043944653 0.0028415397 -0.073942 0.05089069 0.05287277
-0.010925867 -0.07287194 0.0066524073 0.030786902 -0.043491405 -0.05191991 0.08396285 0.08668623
-0.06271139 -0.06927199 -0.022145346 -0.0381601 -0.053414173 0.06060893 0.01933495 0.09145191
0.019239314 0.051092334 0.011744758 -0.0060375803 0.042685594 0.07292432 0.03603394 0.049424835
0.0673876 -0.06288507 -0.06358446 -0.026550192 0.06826906 0.01789055 0.02863801 -0.0069444277
-0.03981012 -0.031647537 -0.029258518 -0.044323575 0.10950096 -0.016775155 0.03380085 -0.057996955
0.06049908 0.004409222 0.061515965 0.058606483 -0.042648934 0.061522905 0.05430328 -0.0055271485
-0.020017779 -0.034595016 -0.013363402 0.08293841 -0.0010540485 -0.014151782 -0.041119497 0.017086439
0.029679395 0.072362244 -0.0748183 0.04652662 0.029538454 0.08190247 0.021661194 -0.044781186
-0.051500004 0.03554204 -0.057317555 0.029887166 -0.014817341 -0.024497656 -0.08150408 -0.05367883
0.019637844 0.09596901 -0.04456808 0.0012274745 -0.047475293 -0.016580593 -0.04445288 -0.018913673
0.07300657 -0.04597852 -0.022226766 -0.06470002 0.07524825 -0.016432783 0.08725616 -0.08092797
-0.019478254 0.10109431 -0.049841516 -0.074556395 0.080416866 -0.00543428 -0.036724404 0.051086955
-0.043177817 0.05390996 0.065438665 0.022275267 0.08285946 0.19228898 0.05636542 0.121142745
0.039998915 0.016343826 0.07223543 0.06689609 0.06986849 -0.040876586 0.06883816 -0.003034968
0.072823785 -0.108587354 0.037863813 -0.043605193 0.08810547 -0.0022444 -0.00507318 -0.06862966
0.069251545 0.022439476 0.06429501 -0.045147374 0.0679261 0.0019953412 0.007935986 -0.0248406
0.074197605 -0.019389933 0.008321996 -0.070749804 -0.024504105 -0.051607024 -0.05078797 -0.018674247
00000000: 13dc 813d 6eef 173d 1e6f 593d eac7 4b3d
00000010: 16ae 4c3d 2a79 763d 1cbb 1bbd 2a7d 223d
00000020: e8c4 0fbc 3ee5 79bd 0d70 3cbd 780c ef3c
00000030: 3066 35bd ea16 203d 5cb1 d2bc ca3d ebbc
00000040: 58b9 003c 40af 5a3b b561 913d 21fa adbd
00000050: 3dd7 78bd c0b2 2fbb d0d3 4cbc 6875 c6bc
00000060: 5a06 183d 9330 a2bd 58aa 943c cf0f 55bd
00000070: e8ad 26bc 05d8 8abd a132 9dbd d9c0 0ebd
00000080: 17d3 57bd 6820 98bc 730c 05bd afbd 69bd
00000090: b646 553d a031 3cbd 5659 203d 249d 0bbd
000000a0: 633c b4bd fb9e 9f3d 6e75 643d fa07 a0bd
000000b0: 1079 49bd 9a09 7d3d 521c 50bd 9bca 07bd
000000c0: 3ac0 5d3d 6873 72bc 73e5 84bd bb47 893d
000000d0: dac2 aebd bb96 5cbd 578e 93bd f6e0 e5bc
000000e0: 90e7 88bd 9c4e c7bc 53fa 9c3d 2687 9ebd
000000f0: 542e 87bc 732a 52bd 32be 013d 4a27 363d
00000100: a69e 603d eaa8 debc 9971 893d 5ec0 78bd
00000110: eaa1 e5bc 777a a63d 90a3 fdbb f5b0 893d
00000120: 0252 6a3d eac7 263d 6bf9 29bd 423b 89bd
00000130: 848d c93c 9094 b0bc 4810 b6bc 3803 1b3c
00000140: ae7c 57bd bcd0 ac3c 253c 7dbd 609e 7bbd
00000150: 9025 913b da88 32bd 567f 4a3d 1ee9 1c3d
00000160: 40cc 3cbd 9f1a 89bd b8e9 03bd e36e 883d
00000170: 4c42 cabc e2bc 4f3d 7032 99bb 60b4 b73b
00000180: 7dd7 963d b87b a6bd baeb 84bd 9c1f d63c
00000190: a085 2abc fc69 79bd 6e8f 283d 1395 79bd
000001a0: 94bc 983c 1c79 85bd 082f 03bd 1c95 b93c
000001b0: 3bcf 9d3d a8d7 1abc 00e3 9abd 6a1b 623d
000001c0: 56c4 753d c4b6 c03c d434 c33c 4fff 33bd
000001d0: 2039 3a3b e76e 97bd c272 503d 1e91 583d
000001e0: 6802 33bc e23d 95bd 70fc d93b d034 fc3c
000001f0: 0b24 32bd f9a9 54bd b7f4 ab3d 8d88 b13d
00000200: d46e 80bd 79de 8dbd 286a b5bc c44d 1cbd
00000210: d2c8 5abd 1241 783d 5464 9e3c 244b bb3d
00000220: c49b 9d3c 3246 513d 166d 403c e5d6 c5bb
00000230: 17d7 2e3d 5959 953d 5398 133d b271 4a3d
00000240: 8302 8a3d e3c9 80bd 9238 82bd ca7f d9bc
00000250: a6d0 8b3d 348f 923c 439a ea3c 158e e3bb
00000260: f00f 23bd d9a0 01bd 8faf efbc a38c 35bd
00000270: 0a42 e03d 0d6c 89bc c372 0a3d 378e 6dbd
00000280: e2cd 773d 3c7b 903b 2af8 7b3d 5a0d 703d
00000290: a6b0 2ebd 71ff 7b3d 1e6d 5e3d 151d b5bb
000002a0: 53fc a3bc 81b3 0dbd 2cf2 5abc 9ddb a93d
000002b0: 0028 8aba e0dc 67bc eb6c 28bd dcf8 8b3c
000002c0: 3422 f33c a832 943d 563a 99bd b292 3e3d
000002d0: a1fa f13c 7bbc a73d d172 b13c 7a6c 37bd
000002e0: abf1 52bd 8894 113d d0c5 6abd eed5 f43c
000002f0: 6fc4 72bc 4faf c8bc 9ceb a6bd 55de 5bbd
00000300: 8bdf a03c 668b c43d 058d 36bd 36e3 a03a
00000310: 7475 42bd 06d4 87bc 3914 36bd d9f0 9abc
00000320: 7884 953d f953 3cbd e814 b6bc 7281 84bd
00000330: c11b 9a3d 0b9e 86bc 5cb3 b23d 90bd a5bd
00000340: dc90 9fbc 890a cf3d 9e26 4cbd 06b1 98bd
00000350: 99b1 a43d 0b12 b2bb 546c 16bd 8e40 513d
00000360: 39db 30bd b1d0 5c3d b504 863d 9f7a b63c
00000370: 38b2 a93d 67e7 443e 6ddf 663d b019 f83d
00000380: e7d5 233d 7de3 853c 2bf0 933d d100 893d
00000390: 3617 8f3d 356e 27bd 05fb 8c3d 50e6 46bb
000003a0: a324 953d 0c63 debd 1617 1b3d 5c9b 32bd
000003b0: a470 b43d c916 13bb eb3c a6bb b58d 8cbd
000003c0: c1d3 8d3d fed2 b73c 1aad 833d 74ec 38bd
000003d0: d71c 8b3d 45c4 023b f005 023c 847e cbbc
000003e0: eaf4 973d a3d7 9ebc fb58 083c 46e5 90bd
000003f0: d5bc c8bc e361 53bd 0c07 50bd bcfa 98bc

actor.preprocess.model.4.bias f4 [128]
-0.068562984 0.2686538 0.24441156 0.22957504 0.088260554 -0.048334394 0.28135848 0.2063817
0.044833865 0.08257956 0.21419093 0.2396112 -0.024315698 -0.024312131 -0.028179405 0.26835868
0.20461 0.24982521 -0.038767956 0.32129216 0.3318134 0.20375718 -0.06558013 -0.023488507
0.045303535 -0.07779044 -0.17684029 0.19541876 0.26107767 0.28539416 -0.089963175 0.029111046
0.04766911 0.32049373 -0.06896425 0.3764757 0.36453864 -0.35129908 0.3400782 -0.03217357
0.34536004 0.085870996 0.34577993 -0.13791889 0.23245116 0.34036672 0.34661183 0.019962452
0.28166732 0.3549058 0.30500007 0.31232914 0.24384566 0.034609772 0.19851044 -0.059391692
0.19613686 -0.079101965 -0.032398056 0.25619495 -0.024928795 0.07146851 0.22624624 0.05641851
-0.11478891 0.24982175 0.27912402 0.21346243 0.05193563 0.20457307 0.08887722 -0.081813835
-0.021578662 0.2906443 -0.017565414 -0.079116546 0.34080774 0.2316601 0.19979434 -0.025953434
0.06689545 0.07491775 -0.35522082 -0.031112732 0.27240354 -0.008745946 0.010324002 -0.06937756
0.058799528 0.019861858 -0.26500168 0.20261976 0.22103928 0.033458896 0.07413166 0.2156754
0.25959492 0.022629306 0.21435209 0.03468252 0.22970746 0.009372019 0.039429028 -0.00255348
0.32383245 -0.09767508 -0.05914709 0.33965006 -0.057076737 -0.09107139 -0.19101526 0.27553323
0.23680481 0.082184725 0.22382931 0.31461027 0.3863264 0.31147298 0.22874063 0.084740765
0.29081407 0.31989315 0.30819178 -0.06146059 0.27547398 0.060208574 0.24737418 0.33875626
00000000: c06a 8cbd fe8c 893e 0647 7a3e b815 6b3e
00000010: f3c1 b43d 49fa 45bd 380e 903e b955 533e
00000020: b7a3 373d 791f a93d de54 5b3e a35c 753e
00000030: b731 c7bc 3c2a c7bc 7fd8 e6bc 4f66 893e
00000040: 4985 513e 2ed2 7f3e 26cb 1ebd 6880 a43e
00000050: 72e3 a93e b9a5 503e e04e 86bd f86a c0bc
00000060: 3390 393d 9850 9fbd 9f15 35be db1b 483e
00000070: f9ab 853e 2f1f 923e 9d3e b8bd 4a7a ee3c
00000080: af40 433d c117 a43e 213d 8dbd 6cc1 c03e
00000090: cfa4 ba3e 79dd b3be bb1e ae3e 6fc8 03bd
000000a0: 08d3 b03e 22dd af3d 110a b13e 9c3a 0dbe
000000b0: ad07 6e3e 8c44 ae3e 1b77 b13e 4c88 a33c
000000c0: b336 903e 37b6 b53e f828 9c3e 9be9 9f3e
000000d0: adb2 793e fac2 0d3d 5246 4b3e b444 73bd
000000e0: 1ad8 483e 3600 a2bd d3b3 04bd fc2b 833e
000000f0: 7937 ccbc 155e 923d 18ad 673e 1817 673d
00000100: 7316 ebbd 46d1 7f3e 58e9 8e3e e595 5a3e
00000110: 75ba 543d 9a7b 513e 4305 b63d 038e a7bd
00000120: bcc5 b0bc 54cf 943e 58e5 8fbc db07 a2bd
00000130: 5a7e ae3e 4e38 6d3e e396 4c3e 4c9c d4bc
00000140: 7b00 893d 7a6e 993d 81df b5be 21e0 febc
00000150: 7a78 8b3e 284b 0fbc 0126 293c d215 8ebd
00000160: c6d7 703d 56b5 a23c 4dae 87be 8e7b 4f3e
00000170: 1f58 623e 320c 093d 57d2 973d 03da 5c3e
00000180: a0e9 843e 1861 b93c 1d7f 5b3e 420f 0e3d
00000190: 6f38 6b3e 198d 193c 5580 213d 4958 27bb
000001a0: 5ecd a53e df09 c8bd 3844 72bd 9de6 ad3e
000001b0: 4cc9 69bd a383 babd 8199 43be b112 8d3e
000001c0: f67c 723e 7750 a83d 8333 653e 9914 a13e
000001d0: 93cc c53e 6379 9f3e fc3a 6a3e 918c ad3d
000001e0: 95e5 943e 09c9 a33e 50cb 9d3e 1abe 7bbd
000001f0: ed0a 8d3e 449d 763d a84f 7d3e 7671 ad3e

actor.preprocess.model.6.weight f4 [64, 128]
-0.0047663674 0.13278978 -0.045097236 0.09152423 0.072393686 -0.011673938 0.014114045 -0.059681386
0.056740675 0.08157833 -0.0402189 0.0018125216 0.08453923 0.04858446 0.056819335 -0.030573959
0.10514317 -0.035694897 0.007439919 0.07214874 0.0046999245 0.08743625 0.07669135 0.07688923
0.023519559 0.08106236 -0.050354168 0.052343268 -0.040474657 -0.011300483 0.048588876 -0.060811553
0.06505004 0.016543088 -0.048387278 0.021866107 0.07711262 -0.06372385 0.045474578 0.090685055
-0.014513571 -0.06672808 0.06775728 -0.060866714 0.13131274 -0.01704682 0.019318385 -0.060462832
-0.0069796545 0.009167196 0.05806838 0.010661141 0.099289306 -0.049997002 0.023320096 -0.065372795
-0.022270603 0.03153543 0.01634341 0.08325866 0.039866712 0.012257233 0.04831615 -0.037009537
0.0062717893 -0.026082585 0.07765756 0.010283122 0.06206733 -0.008080893 0.028673653 0.026248004
0.08137392 0.08521301 -0.0045625833 -0.0030093894 0.03432714 -0.006065801 0.041785527 -0.023221303
-0.06529698 -0.054876138 0.001676575 -0.054718066 -0.03181619 0.07585483 -0.051142216 0.038773056
0.020310543 0.080583885 -0.06693671 -0.0691376 -0.0147143295 0.06721835 -0.0018782448 0.055036597
0.056503817 0.05957531 0.06198431 0.018381858 0.0132743735 -0.082407355 0.08816366 0.030634936
0.009185205 -0.08882861 -0.008288772 0.020871248 -0.004376325 0.04789834 -0.07497571 -0.023345968
-0.04843263 -0.026216298 0.0011551623 0.056988265 0.13552222 0.02397331 0.02742749 -0.011974186
0.054978658 0.03835287 0.0787951 0.030713 0.07409004 0.05725597 -0.0025883894 0.039658207
0.02804757 0.06306004 0.06747401 0.022479627 0.043766968 0.08935949 0.07900296 0.063024074
-0.0013848429 -0.003051634 0.0067890296 0.025968771 0.071349956 -0.045080412 -0.02402702 0.017846338
0.035244368 -0.027936617 0.0060929134 0.029317735 -0.007914292 0.07107188 0.031312197 -0.0716204
-0.006944885 0.03046752 -0.1030497 0.1023449 0.009902459 0.00033252363 0.063317634 -0.030069526
-0.01724608 0.033365026 -0.014019696 0.04895538 0.0044750115 -0.18673849 0.064416625 -0.06763128
-0.01746914 -0.057977986 0.09762378 -0.010547685 0.020274049 -0.022928663 0.025564449 0.080958314
0.019380156 0.12228613 -0.04741925 0.102005005 0.003160595 -0.028928882 5.797894e-05 0.068413176
-0.020425048 -0.083012946 0.018541912 -0.032641564 -0.07705648 -0.07297948 0.0064763515 -0.03376875
0.0008277179 0.106006384 0.10491837 -0.027357368 0.06696748 0.09410961 -0.045510713 -0.02895123
-0.03391695 -0.014031425 -0.07483508 -0.06369687 -0.024917627 -0.031463988 -0.016476892 -0.050504353
0.06896575 -0.07287781 -0.106584996 0.0062350784 0.08489633 0.04590608 0.041074436 -0.013206979
-0.04080816 0.08734814 -0.06481791 0.013732537 0.008392488 -0.035614938 0.015062931 0.10719504
0.0024614527 -0.023161702 0.014165561 -0.01611539 -0.009175055 -0.02407962 -0.02958323 0.051348545
0.06797959 -0.048566278 -0.010185984 -0.017616281 0.009194457 -0.037666462 -0.12274904 0.037250463
-0.016506847 -0.008813353 0.03884179 -0.05597107 0.06981527 0.043445505 -0.039752577 -0.06998743
-0.041013572 -0.008957424 0.026326606 -0.05762909 0.048136074 0.019761067 0.053043187 0.09618438
00000000: 302f 9cbb 0bfa 073e e1b7 38bd 0e71 bb3d
00000010: 2443 943d 0b44 3fbc 983e 673c 7874 74bd
00000020: e968 683d 8a12 a73d 93bc 24bd 2292 ed3a
00000030: e722 ad3d 8000 473d 64bb 683d 3d76 fabc
00000040: 4d55 d73d d034 12bd 90ca f33b b8c2 933d
00000050: d301 9a3b c711 b33d 5b10 9d3d 1a78 9d3d
00000060: 17ac c03c 0604 a63d 2c40 4ebd e565 563d
00000070: c1c8 25bd a925 39bc 2105 473d 8915 79bd
00000080: f538 853d 5f85 873c bd31 46bd 8d20 b33c
00000090: 39ed 9d3d a681 82bd 8d43 3a3d 16b9 b93d
000000a0: 54ca 6dbc bba8 88bd 54c4 8a3d 604f 79bd
000000b0: d976 063e c6a5 8bbc 9741 9e3c e0a7 77bd
000000c0: 96b5 e4bb 0232 163c 1cd9 6d3d 11ac 2e3c
000000d0: 3158 cb3d a8c9 4cbd c909 bf3c 2ce2 85bd
000000e0: d770 b6bc 4c2b 013d 9de2 853c 8483 aa3d
000000f0: 474b 233d 90d2 483c 28e7 453d 5097 17bd
00000100: 9583 cd3b 25ab d5bc ed0a 9f3d 8a7a 283c
00000110: 503a 7e3d b965 04bc 02e5 ea3c 0e06 d73c
00000120: 5fa7 a63d 2984 ae3d b981 95bb 2d39 45bb
00000130: 9d9a 0c3d a0c3 c6bb 4d27 2b3d 9a3a bebc
00000140: 6cba 85bd cdc5 60bd 86c0 db3a 0d20 60bd
00000150: b151 02bd c759 9b3d 807a 51bd 7fd0 1e3d
00000160: 4c62 a63c 2a09 a53d 1d16 89bd 0498 8dbd
00000170: 5f14 71bc c6a9 893d 702f f6ba 0e6e 613d
00000180: 8c70 673d 3e05 743d 43e3 7d3d 8d95 963c
00000190: c27c 593c 30c5 a8bd 268f b43d 1ef6 fa3c
000001a0: 8b7d 163c c6eb b5bd a1cd 07bc 2efa aa3c
000001b0: 4667 8fbb 0d31 443d dd8c 99bd 0b40 bfbc
000001c0: 4b61 46bd 90c3 d6bc d168 973a 876c 693d
000001d0: 56c6 0a3e ad63 c43c 9eaf e03c 602f 44bc
000001e0: 4d31 613d e617 1d3d 535f a13d d499 fb3c
000001f0: 85bc 973d 3c85 6a3d f8a1 29bb a570 223d
00000200: 04c4 e53c 9f25 813d d02f 8a3d 3227 b83c
00000210: fe44 333d 1c02 b73d 4ecc a13d c412 813d
00000220: 9e83 b5ba ecfd 47bb 8276 de3b 76bc d43c
00000230: ed1f 923d 3da6 38bd 50d4 c4bc 7c32 923c
00000240: 665c 103d 55db e4bc 10a7 c73b bf2b f03c
00000250: f2aa 01bc 228e 913d 3841 003d b7ad 92bd
00000260: eb91 e3bb 0597 f93c b90b d3bd 349a d13d
00000270: ec3d 223c 9156 ae39 adac 813d 5e54 f6bc
00000280: a747 8dbc c4a9 083d deb2 65bc 7085 483d
00000290: 1ea3 923b 6038 3fbe ddec 833d 4582 8abd
000002a0: 711b 8fbc 537a 6dbd faee c73d 33d0 2cbc
000002b0: c315 a63c e4d4 bbbc 896c d13c 79cd a53d
000002c0: 22c3 9e3c 2771 fa3d b03a 42bd 00e8 d03d
000002d0: fc21 4f3b 43fc ecbc 6a2e 7338 351c 8c3d
000002e0: 6e52 a7bc b102 aabd 35e5 973c 29b3 05bd
000002f0: cacf 9dbd 4476 95bd 9337 d43b 1a51 0abd
00000300: 35fb 583a e019 d93d 71df d63d 8f1c e0bc
00000310: 3f26 893d 8abc c03d 7169 3abd 212b edbc
00000320: 80ec 0abd 10e4 65bc 2243 99bd 8173 82bd
00000330: 0d20 ccbc 62e0 00bd 8cfa 86bc a7dd 4ebd
00000340: ea3d 8d3d f640 95bd 3c49 dabd a14f cc3b
00000350: 21de ad3d 0408 3c3d ab3d 283d 1662 58bc
00000360: 7526 27bd 95e3 b23d 41bf 84bd 6ffe 603c
00000370: a580 093c f8e0 11bd 83ca 763c 1389 db3d
00000380: 5350 213b 9cbd bdbc ab16 683c 6c04 84bc
00000390: f852 16bc a042 c5bc 8858 f2bc da52 523d
000003a0: e238 8b3d 6fed 46bd 1de3 26bc 0550 90bc
000003b0: 59a4 163c 2648 1abd d963 fbbd f193 183d
000003c0: 5e39 87bc e265 10bc 9218 1f3d ec41 65bd
000003d0: 4ffb 8e3d eaf3 313d 99d3 22bd 9255 8fbd
000003e0: d9fd 27bd 29c2 12bc e5aa d73c 7b0c 6cbd
000003f0: 552a 453d f6e1 a13c d043 593d 51fc c43d

actor.preprocess.model.6.bias f4 [64]
0.23877247 0.2783535 0.320908 0.20458964 0.35343033 0.22771996 -0.32608125 -0.34873903
-0.15934895 -0.29093623 0.31462312 0.17218347 0.24211676 0.2101463 -0.2365062 -0.19067365
0.32234532 -0.21249542 -0.16418134 -0.31116343 0.18231888 -0.27765772 0.30487934 0.28785035
0.2629679 -0.20374219 0.29692096 -0.27687353 -0.33364677 0.22110116 0.3298089 -0.31866089
0.24221362 0.18178363 0.246075 0.27746418 0.22118953 -0.24403155 -0.29888237 0.23529714
-0.2917325 -0.17036404 -0.3082317 0.22395507 0.22967145 -0.20775099 -0.22017369 -0.27787668
0.23001537 -0.34819382 -0.34370437 0.2122527 -0.26515365 -0.17901337 -0.30559954 0.1938086
-0.32335612 0.29747054 0.25374573 -0.22911592 -0.24579994 -0.2254856 -0.17792726 -0.2722253
00000000: c580 743e 5a84 8e3e 0e4e a43e f27f 513e
00000010: d2f4 b43e 6c2f 693e 1ff4 a6be ec8d b2be
00000020: 5f2c 23be 98f5 94be 4816 a13e dd50 303e
00000030: 75ed 773e 9730 573e ae2e 72be f43f 43be
00000040: 720a a53e 6698 59be 271f 28be d050 9fbe
00000050: cdb1 3a3e 2729 8ebe 2519 9c3e 1f61 933e
00000060: bba3 863e cba1 50be 0606 983e 5ec2 8dbe
00000070: c0d3 aabe 5868 623e b6dc a83e 8527 a3be
00000080: d906 783e 7d25 3a3e 16fb 7b3e c90f 8e3e
00000090: 827f 623e 68e3 79be 1c07 99be bcf1 703e
000000a0: f65d 95be e973 2ebe 8cd0 9dbe 7a54 653e
000000b0: fe2e 6b3e adbc 54be 3675 61be da45 8ebe
000000c0: 2689 6b3e 7646 b2be 05fa afbe c658 593e
000000d0: 38c2 87be 484f 37be 8b77 9cbe c375 463e
000000e0: ef8e a5be 0f4e 983e f6ea 813e 5d9d 6abe
000000f0: fbb2 7bbe b2e5 66be 9032 36be 1d61 8bbe

actor.last.model.0.weight f4 [9, 64]
-0.004126044 -0.104408965 0.035488665 -0.06412311 -0.09610958 0.0022842414 0.023399703 0.12491471
-0.0833005 -0.00982275 -0.04714982 -0.06363523 0.08576614 -0.06250151 0.11221839 -0.02250732
-0.005085431 -0.112163596 -0.07453368 -0.00038151743 -0.114466175 -0.108546585 -0.023753935 -0.06749439
0.13783157 0.02599013 0.021551814 -0.06219534 0.07497824 -0.02243777 -0.057038665 -0.077138424
0.086487666 0.0074259727 -0.09163176 -0.08736592 0.053649545 0.09972773 0.04051399 -0.08682264
-0.06824151 -0.1101796 0.057754267 0.13548213 -0.0628688 -0.028307246 -0.13876177 -0.11180936
0.07358366 0.08813408 0.025937116 -0.040577833 -0.05425291 0.13764237 -0.097376294 0.059747722
-0.08453145 -0.07127728 -0.019892663 0.11232671 0.06052494 -0.024954336 -0.08590444 0.09896229
0.12793814 0.10621759 -0.054989815 0.02121728 -0.053350408 -0.121175036 0.055518657 -0.0038311144
-0.11867062 0.06597103 0.055736683 -0.0081567215 0.0019077127 -0.06564188 0.047103774 -0.012505878
0.07652978 -0.08621914 -0.044332992 0.082451075 0.055446442 -0.054288294 -0.116939336 0.11680481
-0.018162025 -0.07426475 -0.02240342 -0.07976576 0.10359415 -0.09614163 0.10731309 0.013999769
-0.07057948 -0.10011809 -0.1181315 -0.051010385 -0.05319072 0.021932244 0.10630889 0.016970113
-0.081586204 0.120782934 -0.082911626 0.10935195 0.036936074 0.1035444 -0.113010325 -0.026347764
-0.04527346 -0.12472905 -0.09875919 0.04245285 0.08456899 0.09701694 0.07747041 0.1075907
0.080991276 0.1141374 -0.1131835 0.012339239 0.033015974 -0.07817748 -0.006937744 -0.06117265
0.057704564 -0.118364856 0.037427347 0.085130215 -0.058923185 0.06969147 -0.0134965675 -0.03323852
0.047261674 0.06687755 0.099636905 -0.122653835 0.078332245 0.046857454 0.07857951 -0.01469278
-0.03193334 0.091038145 -0.07714142 -0.01195709 -0.049564328 0.008912507 0.019130763 0.10318192
-0.10830909 0.102213964 -0.029447448 0.057824384 -0.041617826 0.06605599 0.046453316 0.12093334
-0.09838279 -0.094840705 -0.045247976 -0.10747997 -0.110903 0.10756107 0.06333839 -0.06986017
0.051372264 -0.06339644 -0.09648312 0.026027147 0.074920245 -0.04509769 -0.06998298 0.11294555
0.06285119 -0.052807834 -0.06666372 0.07043351 -0.103785984 -0.10410575 0.020936467 0.07168132
0.120903194 -0.10391049 -0.034042455 -0.05354783 0.05383785 -0.0059178066 -0.06884151 0.12023079
0.041471824 -0.04233631 -0.03798258 -0.10697447 -0.13149011 0.09722186 0.029441997 0.07613323
-0.0132331615 -0.06468563 0.009812026 -0.07616077 0.044915404 0.08567972 0.051978607 0.09913754
0.08284304 0.025394 0.0037272966 0.03109666 0.07322599 -0.09576737 -0.08670198 0.025412774
-0.0811941 0.043715198 0.06676884 0.11432294 -0.056289285 0.02244334 0.010287569 -0.06938832
-0.10362427 -0.061312072 -0.013694892 -0.009948157 0.029077496 -0.06777911 0.11856268 0.017344378
0.10367973 -0.11101788 -0.006961423 -0.11718731 -0.09468555 0.019959364 -0.0052974196 0.030231567
0.09887688 0.10261121 -0.03720534 0.0034893958 -0.058140088 -0.06782166 0.11107606 -0.019599406
0.01589618 -0.085541226 -0.033218052 -0.017606217 0.048251584 0.048650216 -0.08026668 -0.10954246
00000000: c433 87bb 5ed4 d5bd 905c 113d fa52 83bd
00000010: 19d5 c4bd 36b3 153b bcb0 bf3c 49d3 ff3d
00000020: 7499 aabd 9aef 20bc 2b20 41bd 3053 82bd
00000030: 28a6 af3d cb00 80bd c1d2 e53d 4561 b8bc
00000040: b0a3 a6bb 07b6 e5bd 1da5 98bd 6706 c8b9
00000050: 3e6d eabd ac4d debd 9d97 c2bc 803a 8abd
00000060: b823 0d3e 41e9 d43c 6e8d b03c 8ac0 7ebd
00000070: 318e 993d 6acf b7bc 60a1 69bd c0fa 9dbd
00000080: 7220 b13d 9355 f33b 6fa9 bbbd e7ec b2bd
00000090: a0bf 5b3d 0d3e cc3d fff1 253d 11d0 b1bd
000000a0: 34c2 8bbd d8a5 e1bd bd8f 6c3d d4bb 0a3e
000000b0: 5bc1 80bd 99e4 e7bc 9117 0ebe 4efc e4bd
000000c0: 08b3 963d a47f b43d 137a d43c f134 26bd
000000d0: 4d38 5ebd 1ff2 0c3e 396d c7bd 07ba 743d
000000e0: d31e adbd d3f9 91bd f0f5 a2bc 8c0b e63d
000000f0: 00e9 773d 096d ccbc abee afbd beac ca3d
00000100: 3702 033e 9c88 d93d 003d 61bd dccf ad3c
00000110: f585 5abd 9e2a f8bd 8867 633d 6f13 7bbb
00000120: 9509 f3bd d21b 873d 264c 643d c5a3 05bc
00000130: 370c fa3a 406f 86bd e3ef 403d 74e5 4cbc
00000140: a5bb 9c3d a993 b0bd 8396 35bd 1cdc a83d
00000150: cf1b 633d 675d 5ebd e47d efbd 5c37 ef3d
00000160: 87c8 94bc 1e18 98bd 6187 b7bc 3b5c a3bd
00000170: 2b29 d43d e7e5 c4bd f7c6 db3d 4a5f 653c
00000180: f98b 90bd b70a cdbd eeee f1bd 44f0 50bd
00000190: 83de 59bd 40ab b33c 7ab8 d93d e804 8b3c
000001a0: ab16 a7bd 0b5d f73d 92cd a9bd eaf3 df3d
000001b0: 484a 173d 160f d43d f571 e7bd 44d7 d7bc
000001c0: aa70 39bd f271 ffbd 4242 cabd 0ae3 2d3d
000001d0: 8232 ad3d d1b0 c63d cea8 9e3d 8358 dc3d
000001e0: c1de a53d dfc0 e93d c0cc e7bd 852a 4a3c
000001f0: c23b 073d 841b a0bd 0456 e3bb 2c90 7abd
00000200: 9f5b 6c3d 4669 f2bd 6b4d 193d c058 ae3d
00000210: 7059 71bd 67ba 8e3d b520 5dbc 1d25 08bd
00000220: 7595 413d 19f7 883d 6f0e cc3d ef31 fbbd
00000230: a86c a03d 9aed 3f3d 4bee a03d fcb9 70bc
00000240: 89cc 02bd 3572 ba3d 52fc 9dbd ace7 43bc
00000250: f703 4bbd c405 123c 1eb8 9c3c 0b51 d33d
00000260: 28d1 ddbd 8e55 d13d c63b f1bc 43d9 6c3d
00000270: 7477 2abd 5d48 873d d545 3e3d e6ab f73d
00000280: eb7c c9bd d83b c2bd f155 39bd 751e dcbd
00000290: 1d21 e3bd fa48 dc3d 8fb7 813d d912 8fbd
000002a0: b96b 523d fed5 81bd f198 c5bd e236 d53c
000002b0: c96f 993d 5bb8 38bd 3d53 8fbd ff4f e73d
000002c0: 20b8 803d 074d 58bd fd86 88bd 723f 903d
000002d0: bf8d d4bd 6535 d5bd f482 ab3c a8cd 923d
000002e0: 189c f73d 06cf d4bd 1a70 0bbd f854 5bbd
000002f0: 1485 5c3d 29ea c1bb c7fc 8cbd 8f3b f63d
00000300: 5cde 293d d768 2dbd 9f93 1bbd 6e15 dbbd
00000310: 58a5 06be 411c c73d 5830 f13c bdeb 9b3d
00000320: e7cf 58bc e679 84bd 9fc2 203c 2efa 9bbd
00000330: 37f9 373d d978 af3d 85e7 543d 9f08 cb3d
00000340: 9da9 a93d 1407 d03c a945 743b 6cbe fe3c
00000350: 82f7 953d af21 c4bd cf90 b1bd 732e d03c
00000360: 1849 a6bd b50e 333d 1abe 883d 2522 ea3d
00000370: 988f 66bd 18db b73c 318d 283c 771b 8ebd
00000380: f638 d4bd 5e22 7bbd 8a60 60bc 98fd 22bc
00000390: ee33 ee3c c6cf 8abd fed0 f23d cc15 8e3c
000003a0: 0a56 d43d 585d e3bd a61c e4bb e6ff efbd
000003b0: 7fea c1bd d281 a33c fa95 adbb 31a8 f73c
000003c0: f67f ca3d d325 d23d a064 18bd 59ae 643b
000003d0: 4d24 6ebd 15e6 8abd d87b e33d ef8e a0bc
000003e0: b538 823c 3d30 afbd a70f 08bd ea3a 90bc
000003f0: 74a3 453d 7345 473d db62 a4bd cc57 e0bd

actor.last.model.0.bias f4 [9]
0.022883382 0.052165907 -0.110139586 0.0072219325 0.011116994 -0.09751223 -0.066367455 0.058681913
0.039045405
00000000: ee75 bb3c ebab 553d dd90 e1bd f6a5 ec3b
00000010: 0d24 363c 7eb4 c7bd a9eb 87bd 725c 703d
00000020: 13ee 1f3d

critic.preprocess.model.0.weight f4 [128, 3]
-0.39123696 0.5243967 0.23587523 -0.5090012 0.15755902 -0.47555706 -0.3029703 -0.024636008
0.082356334 -0.1698359 -0.29942548 0.5402679 0.3047266 -0.21668862 -0.21063219 0.4167639
0.097765125 0.2560607 0.2022359 -0.16246568 0.034404427 0.5238658 0.0031752712 -0.26447544
0.21788298 -0.028246472 0.5366363 0.33343104 -0.47309557 -0.07293234 0.3441863 -0.06544301
-0.33083862 0.09757611 0.43045115 -0.4529024 0.36258152 0.47558668 -0.23905887 0.5395842
-0.48148894 -0.057237357 -0.28487137 0.1953717 -0.11081619 0.29009843 0.010284506 0.53075117
0.3220563 0.47684795 0.036688752 -0.168864 -0.3986833 0.2998003 -0.2995237 0.03795709
-0.5399607 -0.01618835 0.60336405 -0.29388103 0.2648504 -0.22169305 0.11547755 -0.15133278
0.3100128 0.17049572 0.5764057 -0.5081025 0.47045588 -0.22533505 -0.44150922 0.081786074
0.53147227 0.48611298 -0.30341026 0.5062701 -0.5048028 0.40939912 0.052901138 -0.3369779
0.27758232 -0.38262954 0.31394494 0.093720235 0.15070614 -0.37180427 0.5243266 0.44700494
-0.27853677 -0.5345603 -0.4723795 0.19261946 -0.46766675 -0.29851434 -0.37589082 0.16154708
-0.17622924 -0.5754876 -0.11334267 -0.36874577 0.08407247 -0.28823856 0.27172413 -0.48735273
-0.30853456 0.5716464 0.124458395 0.25528863 -0.3457502 0.25272515 0.40725425 0.05522708
-0.4497585 -0.509411 0.30088234 -0.18700932 0.50449026 -0.15194568 0.16113994 -0.3921923
0.23175316 0.43486798 -0.5065889 -0.030521175 0.096690424 -0.35674417 -0.099660784 -0.17972922
-0.13813907 0.33977848 -0.23363161 -0.2938079 -0.27765217 0.067235276 0.43818298 -0.047334142
-0.42656893 0.12549424 0.3561449 -0.030950153 0.47960997 -0.23637092 0.048549347 -0.45025966
-0.15896592 -0.4639848 -0.51383543 0.13102986 0.089147516 -0.23097634 0.24042164 -0.4504742
0.51447916 -0.1202666 -0.29202852 0.5826328 0.5572818 -0.28334594 0.063606374 0.054799262
0.02003505 -0.342093 0.014499264 -0.024897547 0.24180229 0.23487407 -0.10409356 0.26023
-0.28846967 0.4613048 -0.56321996 -0.32568067 -0.25629684 -0.0073891142 -0.54709685 0.600986
0.049498476 -0.08583175 0.55321676 -0.5343081 -0.19191696 0.50973123 -0.50106 -0.19965637
0.4672695 0.18180402 -0.22381616 -0.037367415 0.08478447 0.5632074 0.08640186 0.05063257
0.3467748 0.010657263 0.18538475 0.0062087374 0.2673594 -0.30921233 -0.22733156 -0.21603803
-0.25610924 -0.12489483 -0.40386963 0.25507376 0.26503122 -0.49592325 -0.2827969 0.5462378
0.012690275 -0.15168518 -0.22325003 -0.046185136 0.07649846 0.4048872 -0.22970042 -0.3400147
0.23305278 0.40041193 0.17384543 0.02084309 0.43231666 0.28877443 0.51938885 -0.537057
0.04395309 -0.1221179 0.2509379 0.2899276 0.18599264 0.44139346 -0.3948816 -0.5259769
-0.1938618 0.3116791 -0.16617669 -0.3374599 -0.27359486 -0.27871135 0.55247396 0.319464
-0.45522392 -0.44626504 -0.21448913 0.45574638 0.08013028 0.2815526 -0.22347276 0.5739071
-0.22660416 0.4147861 -0.063833304 0.04491566 0.46167204 0.3464161 0.44690546 0.37104583
00000000: 3650 c8be dd3e 063f 4789 713e e74d 02bf
00000010: 2757 213e 377c f3be ec1e 9bbe 74d1 c9bc
00000020: 70aa a83d 76e9 2dbe 4c4e 99be ff4e 0a3f
00000030: 2005 9c3e 9fe3 5dbe f7af 57be 1462 d53e
00000040: 1539 c83d 631a 833e ee16 4f3e 675d 26be
00000050: a8eb 0c3d 121c 063f 3618 503b 5369 87be
00000060: b71c 5f3e 2565 e7bc ff60 093f 79b7 aa3e
00000070: 9539 f2be 8d5d 95bd 3039 b03e fc06 86bd
00000080: ae63 a9be fcd5 c73d 1864 dc3e d3e2 e7be
00000090: 49a4 b93e 1980 f33e d9cb 74be 3122 0a3f
000000a0: b885 f6be b871 6abd a9da 91be 850f 483e
000000b0: 99f3 e2bd c887 943e 5880 283c 4fdf 073f
000000c0: 90e4 a43e 6a25 f43e f246 163d afea 2cbe
000000d0: 3820 ccbe 6d7f 993e 2c5b 99be e578 1b3d
000000e0: dd3a 0abf 6e9d 84bc 1176 1a3f 9377 96be
000000f0: 799a 873e 8103 63be 7e7f ec3d fbf6 1abe
00000100: ffb9 9e3e 6e96 2e3e 538f 133f 0113 02bf
00000110: 98df f03e 3bbe 66be 7f0d e2be 757f a73d
00000120: 910e 083f cde3 f83e 9758 9bbe eb9a 013f
00000130: c23a 01bf c39c d13e ddae 583d 5e88 acbe
00000140: 451f 8e3e 05e8 c3be 64bd a03e 65f0 bf3d
00000150: b652 1a3e 215d bebe 453a 063f d5dd e43e
00000160: 5f9c 8ebe f2d8 08bf badb f1be 093e 453e
00000170: 0472 efbe dfd6 98be c374 c0be 996c 253e
00000180: 7075 34be 2853 13bf 3420 e8bd 3fcc bcbe
00000190: 302e ac3d 0194 93be 6d1f 8b3e 4c86 f9be
000001a0: 3ef8 9dbe 6b57 123f 0be4 fe3d 31b5 823e
000001b0: 2c06 b1be 3165 813e a183 d03e ca35 623d
000001c0: bf46 e6be c268 02bf 400d 9a3e 5f7f 3fbe
000001d0: 4626 013f a697 1bbe de01 253e 6ecd c8be
000001e0: b350 6d3e 04a7 de3e cfaf 01bf 8b07 fabc
000001f0: a105 c63d 2ca7 b6be f41a ccbd f00a 38be
00000200: 5474 0dbe 72f7 ad3e 203d 6fbe fd6d 96be
00000210: 6d28 8ebe a6b2 893d 8559 e03e 72e1 41bd
00000220: 3e67 dabe 9081 003e a058 b63e 2d8b fdbc
00000230: 708f f53e 380b 72be aedb 463d 6f88 e6be
00000240: f6c7 22be 6a8f edbe b88a 03bf b12c 063e
00000250: f992 b63d 1085 6cbe 1731 763e 8ea4 e6be
00000260: e8b4 033f 564e f6bd c384 95be 6c27 153f
00000270: 05aa 0e3f b812 91be 0f44 823d 3175 603d
00000280: 8c20 a43c d026 afbe 528e 6d3c f1f5 cbbc
00000290: 059b 773e d482 703e 012f d5bd de3c 853e
000002a0: 4cb2 93be 2530 ec3e 2f2f 10bf 9ebf a6be
000002b0: 5739 83be 6220 f2bb 8a0e 0cbf 38da 193f
000002c0: eabe 4a3d 8ec8 afbd 9d9f 0d3f 6ac8 08bf
000002d0: e185 44be bf7d 023f 7845 00bf b872 4cbe
000002e0: f33d ef3e d52a 3a3e 1030 65be 930e 19bd
000002f0: 7ba3 ad3d 5c2e 103f 75f3 b03d 1964 4f3d
00000300: 778c b13e cd9b 2e3c 80d5 3d3e aa72 cb3b
00000310: 55e3 883e 1451 9ebe 9bc9 68be 1339 5dbe
00000320: c020 83be dcc8 ffbd 00c8 cebe 0799 823e
00000330: 2cb2 873e a7e9 fdbe c1ca 90be 3ed6 0b3f
00000340: dfea 4f3c 5c53 1bbe a89b 64be a02c 3dbd
00000350: 39ab 9c3d 604d cf3e 9636 6bbe 6816 aebe
00000360: 63a5 6e3e cb02 cd3e 8904 323e 21bf aa3c
00000370: 9c58 dd3e 3eda 933e abf6 043f 917c 09bf
00000380: 2808 343d f318 fabd ef7a 803e 6471 943e
00000390: db74 3e3e 53fe e13e ec2d cabe 6ca6 06bf
000003a0: b583 46be 6794 9f3e 392a 2abe 8bc7 acbe
000003b0: a014 8cbe 41b3 8ebe ef6e 0d3f c990 a33e
000003c0: 1c13 e9be da7c e4be 0aa3 5bbe 9757 e93e
000003d0: 581b a43d aa27 903e 0bd6 64be 93eb 123f
000003e0: ec0a 68be d85e d43e 09bb 82bd 7cf9 373d
000003f0: 4760 ec3e 735d b13e cbd0 e43e b8f9 bd3e
