dqn.pth (torch, 176626 bytes, 38 tensors)

actor.preprocess.model.0.weight f4 [128, 2]
00000000: f91a 41be 57f6 133f 906d fa3e 10b8 8a3e
00000010: ee5d c8be 258b d13e 12f8 0f3f a0bc e93e
00000020: 6d9c 113e c262 6cbe eb06 443e 10ec b53e
00000030: 7127 713e 6668 dabe c078 aa3b 2d9e 87be
00000040: 4cdf 163f 74cb 2fbe 9a62 5fbe ecd9 203f
00000050: cfc1 113f 1c18 c83d 1990 2dbf 8035 54bc
00000060: 1e80 10bf ef2e d0be ea92 d13d bda8 223f
00000070: f5eb 33bf 599c 24bf 318e bbbc 6c67 1b3e
00000080: e2a4 60be 6f1f 89be b77f 15bf 9053 de3d
00000090: 1ca8 d1be 57a8 1d3f 4191 903e 8953 62be
000000a0: 2919 38be f855 e23e 9b1b 883e e682 303f
000000b0: 8473 6b3d f439 d0be 64bc 033f 9eb2 ecbe
000000c0: 3319 6fbe aeb3 59be 8410 6f3e 1d65 b1be
000000d0: 99f2 0abf a917 223f 3d83 ddbe 2050 d6be
000000e0: 1e02 0fbf 307d 0cbd 594c 1c3f 2462 29bf
000000f0: d6a5 1a3e 8df9 35bf f2d9 01bf 0437 27bf
00000100: e53d b03e 1745 25bf e086 843d f57c 9e3e
00000110: 25bc f83e 747d 983e 7052 203f 93a6 e03c
00000120: 7315 e9be 5013 12bf 5c3a 12bf 79c1 213f
00000130: f5fb f33e 7c56 983e 5580 f73e e6eb 473d
00000140: 2ad6 1dbf 0e0a dbbe c3fa d13e 733c ba3d
00000150: a54d b43e 25aa f63e 4fe3 f4be 8d23 18bf
00000160: 1a51 0bbf 91c2 a4be 3649 913e c9cc 4ebc
00000170: 2e8c ee3e 1ef3 1b3f 5fc8 373e 8826 333f
00000180: cf45 edbe 7ef8 34bf 4569 92be 8929 e03e
00000190: a2e2 063f 3f0f a63e 38a1 7c3e 09ae 143e
000001a0: dd1a 23bf bad1 0abf 1671 073f aa62 bcbd
000001b0: a645 2a3f dc5f 9abd a04e c0bd 881f e3bd
000001c0: 658d 58be 94a6 893e 1672 c6be 188e 2c3f
000001d0: 468e 153f c34a 00be c418 f33e 21c1 a93e
000001e0: 9e86 d0be f48a e53e 5dc3 9ebe 9feb 0bbf
000001f0: ed5b 01bf 40ef 263f 6624 bdbd 2372 273f
00000200: 3aa7 fb3d ca02 043e a65d eebe fec1 9bbe
00000210: 192c c93e 5fed 1cbf 1734 81be 3e65 983e
00000220: 6958 88be 108f 00bf b69a 2bbf 511f 63bd
00000230: 3d28 f7be 18fb 143f f33c 0f3f 36d7 1abe
00000240: 19d4 3a3e 7a3a c83e 2864 673e ad07 e33e
00000250: 3830 b0be b5fb b5be b4c3 833e fcfa dabd
00000260: ec9c 8e3c bfd1 103f 20ac d23e cb14 dabd
00000270: 9047 ebbe 6c0e 2dbf f3c0 933e 79df 1ebf
00000280: 9d62 a1be c8c2 7ebd dc1d 13bf 4450 ffbe
00000290: 4bf2 303f e203 ba3d 74c9 f43e 192a 25bf
000002a0: 8176 e13e b0de 21bf 9fc0 093f 0f2f 463e
000002b0: aab0 2e3f 1781 543e 59b9 c6be 907c 3abd
000002c0: 07b7 5e3e 0464 57be e424 81bd 0d2e ad3e
000002d0: c90c 0fbf 4459 8c3e d3cc 3d3e 4cd0 033f
000002e0: 1622 353e bfe9 c13e 6708 1d3f c00f 2e3f
000002f0: 61fe ccbd 8280 f63e 0f1b bebe 607b 803d
00000300: ac16 31bf 58f8 28be 2366 eb3e f1d0 b23d
00000310: b009 3bbe eb4a 1ebf 8bec 1d3e ca4d 433d
00000320: 84d2 f3be 05ea 12be d0a5 13bf ddfa 5ebd
00000330: dc16 143f ec2e 263f d878 aa3e ba2d 903d
00000340: 8c35 efbe 6add 6dbe ed5b e3be 2654 2abf
00000350: 5ca4 883e a039 1b3e fb3c 293f b781 6e3d
00000360: ece3 2b3f e238 2a3f bb53 00be 2acc a83c
00000370: bfe5 0bbf 2d15 173f 1094 b43e dbca 11bf
00000380: 1ed6 afbe 45cb d9be e6f8 4b3d 8eab 5abc
00000390: 1291 1c3c 3e1c 113f bce1 08bf 60f6 063f
000003a0: 88a7 89be 165b a5bd 8301 23bf 6687 8b3e
000003b0: 9ea1 b33e f6ec 2a3f 885d e0bd 9367 343f
000003c0: dfe0 35bf b9d2 b43e ab1a 233f b872 dc3e
000003d0: ffdf b83e f7a3 023f f3a8 08bf 3149 823e
000003e0: d30c 1e3f 3594 21be b7a3 b43e 9b34 043f
000003f0: 1910 8fbc 143f 543d bc8f 0d3f 6174 9b3c
-0.18857946 0.5779776 0.48911715 0.27093554 -0.39134163 0.4092647 0.562379 0.45651722
0.14219828 -0.23084548 0.19143264 0.35531664 0.23550202 -0.42657775 0.005202383 -0.26487866
0.58934474 -0.17167455 -0.21814957 0.6283252 0.56936353 0.097702235 -0.67798 -0.0129522085
-0.5644549 -0.40660807 0.102331 0.63538724 -0.70281917 -0.6430107 -0.02289495 0.15176171
-0.21937898 -0.26781794 -0.58398 0.10855782 -0.4094857 0.6158499 0.2823582 -0.22102179
-0.17978348 0.44206214 0.2658356 0.68949735 0.05748321 -0.40669215 0.51459336 -0.46230024
-0.23349456 -0.21259949 0.23346144 -0.34647456 -0.54276425 0.6331735 -0.4326419 -0.41858006
-0.55862606 -0.034299076 0.61054 -0.66165376 0.15102324 -0.7108391 -0.50723183 -0.6531832
0.34422222 -0.6455855 0.06471038 0.3095471 0.48581043 0.29783213 0.6262579 0.027423179
-0.45524177 -0.5706072 -0.571203 0.6318584 0.47653165 0.29753482 0.48340097 0.048808955
-0.61654913 -0.4278111 0.41011629 0.09093561 0.35215488 0.48176685 -0.47829673 -0.59429246
-0.54420626 -0.32179692 0.28376168 -0.012622067 0.46591324 0.6091784 0.1794753 0.6998067
-0.46342322 -0.7069167 -0.2859594 0.4378169 0.52689564 0.32433507 0.24670875 0.14519514
-0.63712865 -0.5422627 0.5290693 -0.09198506 0.66512525 -0.07537815 -0.093899965 -0.110899985
-0.21147688 0.26884902 -0.38758916 0.6740432 0.5842022 -0.1252852 0.47479832 0.33155158
-0.40727705 0.44832575 -0.31008425 -0.54656404 -0.5053089 0.65208817 -0.09235458 0.65408534
0.12287755 0.12891689 -0.46555823 -0.30421442 0.39291456 -0.612997 -0.25235054 0.29764742
-0.26629952 -0.50218296 -0.67032945 -0.055449788 -0.48272887 0.5819564 0.55952376 -0.15121159
0.18244971 0.39107114 0.225968 0.44341794 -0.34411788 -0.355436 0.25735247 -0.10692403
0.01740881 0.5657005 0.41146946 -0.10648497 -0.45953035 -0.6760013 0.28858146 -0.6205974
-0.31520548 -0.062197477 -0.57467437 -0.49865925 0.6911971 0.09082772 0.47809947 -0.6451736
0.44035724 -0.6323042 0.5380954 0.19353889 0.6823832 0.20752369 -0.38813284 -0.04552895
0.21749507 -0.21034247 -0.063058645 0.33824196 -0.55878884 0.27411854 0.18535165 0.5148971
0.17688784 0.37873647 0.61340946 0.6799278 -0.100094564 0.4814492 -0.3713002 0.06273532
-0.6917522 -0.16500986 0.45976362 0.08731259 -0.18265414 -0.61833066 0.15422265 0.047681607
-0.47621548 -0.14347084 -0.57674885 -0.05443846 0.5784738 0.6491535 0.3329532 0.07039972
-0.4672054 -0.23228994 -0.4440607 -0.6653465 0.26687896 0.15158701 0.66108674 0.058229174
0.67144656 0.66493046 -0.1253194 0.020605166 -0.5464744 0.59016687 0.35269213 -0.5695016
-0.34343046 -0.42537895 0.049797915 -0.013346566 0.009556072 0.5668372 -0.53469443 0.5271969
-0.2688563 -0.08074014 -0.6367418 0.27251738 0.35084242 0.66767824 -0.1095534 0.7047054
-0.7104625 0.3531702 0.6371257 0.43056273 0.36108395 0.5103144 -0.53382796 0.25446466
0.6173832 -0.15779193 0.35281155 0.5164277 -0.01746373 0.05181797 0.55297446 0.018976392

actor.preprocess.model.0.bias f4 [128]
00000000: 9da5 8cbd a70e fe3e 002a 4cbe 8e65 773f
00000010: af92 e83e baaf b9bd 92fe 863f dc31 30bf
00000020: e087 2c3f db50 cebe 1a96 bb3e e00e 1ebe
00000030: ca8c a03e f274 18bd f111 883e 74fa 8f3e
00000040: a165 dcbe 2236 c03e 30d0 9abe 2e24 f13e
00000050: 6b3c bd3e e2dd d53d 6b34 fabe f136 d9be
00000060: 27ec 8c3e 1a40 e73e f6c9 59be 8776 153f
00000070: 5000 71bd 0621 673f a25b b2bd 40b7 afbc
00000080: 8344 0f3f 9e99 3ebe ae86 6b3f 1186 803f
00000090: 2086 f9bc c6eb abbd 4bbb f43e 97be 4a3e
000000a0: 2f04 123d 1d2c 473e 99a4 8c3d d726 0d3f
000000b0: c8c1 0fbf dae0 0f3e 3662 7bbe 49a8 bbbe
000000c0: 2985 95be bfc4 2f3f d822 4b3f 5a67 2abf
000000d0: 083a 07be 274f da3e ef1d 64be f427 a93d
000000e0: 8d5d c23e df6c 2abf aa4a cb3d db86 633e
000000f0: 266e bf3d d9eb f73e 31d4 433f bcc9 42bf
00000100: 7328 bdbe 809e cbbc 3eff 9f3e ea38 babe
00000110: 4856 be3e a731 153f 1da9 5e3f 1d25 533f
00000120: 4473 463e 17c6 63be 941d 1e3e 1d07 4abf
00000130: 4859 7c3f 1912 0a3f 8f73 7e3e 6a2a 723f
00000140: 2139 1c3f f470 0bbe 1bb5 dfbe 96d7 063f
00000150: 237d e3bd 30b3 bbbe 0830 e1bd 3c29 70be
00000160: 9fa1 8d3b 08d6 d43e f139 2bbf f1ca 41bf
00000170: 7598 0f3f 1bf8 04bf c047 5abf 6ea9 4e3f
00000180: 6006 e9bc e396 21bf f364 08bf 6bda 303f
00000190: a641 5a3e e15d 293e 485b 20bf d8ad c63e
000001a0: 738f c93e 98f1 253e d184 ae3c 1606 493f
000001b0: e02a e73e ebc0 143f c196 883e 9939 87be
000001c0: a311 ae3e f680 823e d37d 3fbf 290f 96be
000001d0: 3ecb f13e f715 133f 11da f2be 6192 473c
000001e0: b3a6 a23e b538 843e 4d40 423d f85c 88be
000001f0: cea8 0f3f 8ee3 fcbd 7cc2 873f 0f1b 903d
-0.06867526 0.49620554 -0.19937897 0.96639335 0.4542441 -0.0906672 1.0546439 -0.6882608
0.6739483 -0.40296063 0.36637956 -0.15435362 0.31357414 -0.037220903 0.26576188 0.28120768
-0.43046287 0.375413 -0.3023696 0.47097915 0.36960158 0.104427114 -0.48868117 -0.4242473
0.2752392 0.45166093 -0.21268448 0.58383983 -0.05883819 0.90284765 -0.08708884 -0.021449685
0.55963916 -0.18613288 0.9200238 1.0040914 -0.030459464 -0.083945796 0.47799143 0.19799267
0.03564852 0.19450422 0.06867332 0.5513739 -0.5615506 0.14050618 -0.24549183 -0.3665183
-0.29203156 0.68659586 0.7935004 -0.6656395 -0.13205731 0.42638513 -0.22277044 0.082595736
0.37962 -0.66572374 0.099263504 0.22219412 0.09347181 0.48422125 0.76495653 -0.7608907
-0.36944923 -0.024855852 0.31249422 -0.36371547 0.37175202 0.5827889 0.86976796 0.82478505
0.19379908 -0.22243534 0.1544097 -0.78917104 0.9857373 0.53933865 0.2484877 0.9459597
0.6102467 -0.13617307 -0.4369286 0.5267271 -0.11107852 -0.36660147 -0.10995489 -0.2345323
0.0043222453 0.41569543 -0.66885287 -0.7570029 0.56092006 -0.5194108 -0.8526573 0.8072728
-0.028445423 -0.6312086 -0.53279036 0.6908328 0.21314105 0.16539718 -0.62639284 0.38804507
0.39367256 0.16205442 0.021303566 0.7852491 0.451499 0.5810687 0.26677516 -0.2641113
0.3399783 0.25489014 -0.7480137 -0.2930844 0.47225374 0.5745539 -0.47431996 0.012180896
0.31767806 0.25824514 0.047424603 -0.2663343 0.5611695 -0.1234809 1.0606227 0.07036411

actor.preprocess.model.2.weight f4 [128, 128]
00000000: 4eb9 573d 4179 50bc 69e8 233d fd43 493d
00000010: 07da 8f3c 75c5 4f3d 4d8a de3d 7b1f 10bd
00000020: 5f93 8c3d 73e7 30bd c5b7 f03c 8cb4 fa3c
00000030: 00e3 5fbd 6420 99bd 82dc 863c 878a 0e3c
00000040: 39c3 a0bd 9d06 623b 3bc9 a23c 739b 883c
00000050: b3b1 9c3d 7b4e 8cbd 690a b1bd 6785 d3bc
00000060: 853d 0d3d 85ad bc3c fb4f b63d 07f0 3c3d
00000070: 954a 1bbd eb22 16bc 389a bbba 06d2 22bd
00000080: 4c31 eb3d 4747 a03d 477c a7bc e52a a93d
00000090: 20eb 29bb b514 a2bc dda7 3d3d 95db 24bc
000000a0: 32ed e93c d4a7 0f3d 7613 b13d 52ee af3d
000000b0: afd5 ad3d 490d a13d e54a 213d 21d0 d03c
000000c0: f258 dabc fc44 2a3d 5e2c 1bbd d401 5dbd
000000d0: 82f3 b0bd 3f49 a73d a8fc ae3d ea4d 60bd
000000e0: b77f 16bd 15bb e93c 1dc9 9cbd 5bdc 933d
000000f0: c2a1 693c 483f ac3b f57c 233d f645 87bd
00000100: 73da c7bb 17e4 21bd 22d1 6e3d 08dd 9bbd
00000110: a5aa 673b f77a 7abd 00d1 adbc 17fb 863c
00000120: a0e7 973d ce70 763c fa60 acbd 346c dabc
00000130: b861 c83d ac9b 1bbd 34e6 213d 820f 56bc
00000140: 31ee 0b3b 023f 1f3d 0f0b 89bd a088 b93d
00000150: a87f 8bbc 5749 4dbb 531e 9cbd ae71 9abd
00000160: 10bc a63d b689 95bd 2e1b 25be 6a71 babc
00000170: 7b4a 573d 1c92 28ba c6c3 34bd c72b 52bb
00000180: 6265 19bd 15f4 aebc 2ec7 323d e2ba 843d
00000190: 71b8 763d 43cb 68bd eb66 3b3c 5122 9d3d
000001a0: affd 5cbd 6024 b3bc 1771 a73d 9f7e 443d
000001b0: 3f47 b23d 6694 b23d 69a1 36bc 866b ad3b
000001c0: 6c1b a73b 5083 8b3d 9a4a 803d 45d3 dd3c
000001d0: e101 443d 73ae 37bd 92c1 6a3c 3b73 953c
000001e0: babd 163d 260e 843d eed7 903d f88b 26bd
000001f0: 599a 66bd a3a4 5bbd 687f 083e 29de da3c
00000200: 398d 24bd b46b efbc 9d12 23bd c08e a7bd
00000210: 4384 a63d d0b1 a63c a338 a7bd 6f00 54bd
00000220: 0006 a53c ad63 9c3d 57eb 64bd fd5d 59bd
00000230: a00d c13b 202b 403b 72f6 f1bc 3bce 53bd
00000240: cc54 ac3c 7a7f 7c3d 7e7e 173d a8fc 5fbc
00000250: 9c3b 80bd ce39 233d bedd 1d3d 70ed 1dbc
00000260: 7353 803d 3a79 683d d161 afbd 520e 63bd
00000270: 9a1c fbbc 5a6e a1bd 3c3e 143d 4d49 b3bd
00000280: e1b8 8bbd 748d b3bc 68d5 0e3c 2c06 b93c
00000290: 7557 aa3d 60b8 9dbc b8e5 0b3c 9057 b7bb
000002a0: 2c9f 92bd fd8d b4bd 6dfe 65bd 805e 13bc
000002b0: 8067 d03b 53e3 ae3d 3b0f 873d ca7e e0bc
000002c0: 3c2b 90bc 1346 ac3d fb82 22bd fa67 a3bd
000002d0: 5502 acbd d0aa 893b ed1c a23d cdf1 1dbd
000002e0: 114c 843d 114c 7fbd f0ab e4bb a0da 1d3b
000002f0: d4f0 9abd 21ff 873d f37d a4bd c553 3bbd
00000300: 9a30 2a3d fe51 97bd e84c c1bc fbae 873d
00000310: 75f8 97bd c86b 9fbd 6b41 813d 16f3 4d3d
00000320: f8c9 93bc 656f a43d dc1f 12bd 401f 93bc
00000330: 7c94 32bd 437e a23d 008e 863c ffa9 5ebd
00000340: 7230 433d 2e48 763d a817 893c b0bc db3c
00000350: f2ab 033d 6dad aebd 7c49 24bd d6d8 40bd
00000360: fb30 9f3d 4636 afbd 1eb3 5bbd 9b11 73bd
00000370: 0c94 dbbc 986b 493c 50e8 123c 118c 1fbd
00000380: 5354 903d e11c 2bbd 2c78 aebd 747c fcbc
00000390: 4088 d9ba baa9 453d f091 c23b 88f4 18bc
000003a0: c00a 2b3c 8dc9 82bd 244c 83bc 35ee 5dbd
000003b0: f612 efbc f0df aa3b 62d2 7f3d e842 03bc
000003c0: 6441 a3bd 37c4 8e3d b0dd 913b e42a 8a3c
000003d0: 2fe2 953d 65a5 b2bd 3f28 873d 25f9 853d
000003e0: 3857 c9bc bb5c 863d e601 dbbc 27c7 abbd
000003f0: 6b1d 12bd a870 2e3c 736f 9bbd b1d6 8b3d
0.052666955 -0.012724222 0.040016565 0.049137104 0.017560018 0.05072542 0.108662225 -0.035186272
0.06864046 -0.043189477 0.029384503 0.03060367 -0.054659843 -0.07476881 0.016462568 0.00870002
-0.07849736 0.0034488805 0.019871345 0.016675686 0.07651081 -0.068509065 -0.08644564 -0.025820447
0.034482498 0.02303196 0.08901974 0.046127345 -0.037912924 -0.0091635985 -0.0014312929 -0.039751075
0.11484012 0.07826095 -0.020445002 0.082601346 -0.00259275 -0.019785265 0.046302665 -0.010062118
0.028555486 0.035072163 0.0864629 0.08590378 0.084880225 0.07863862 0.039378066 0.025489869
-0.02665374 0.041569695 -0.03788411 -0.05395682 -0.086401954 0.081682675 0.08544284 -0.054761805
-0.036742892 0.02853159 -0.07655547 0.07219764 0.0142597575 0.005256567 0.03991409 -0.06605141
-0.006099039 -0.039524164 0.058304913 -0.07610518 0.0035349515 -0.061152425 -0.021217823 0.01647715
0.07417226 0.015041543 -0.08416934 -0.026662923 0.09784263 -0.037990257 0.03952618 -0.013065221
0.002135169 0.03887845 -0.066915624 0.09059262 -0.017028645 -0.0031324232 -0.076229714 -0.07541214
0.08141339 -0.07301657 -0.1612365 -0.022759158 0.052561264 -0.00064304634 -0.044132017 -0.003206955
-0.0374502 -0.021356622 0.043646984 0.064809576 0.06023449 -0.05683447 0.011438112 0.07672561
-0.05395287 -0.02186793 0.08175867 0.047972318 0.08704995 0.08719711 -0.011146882 0.005292359
0.0050997045 0.06812155 0.06264229 0.02707828 0.047853354 -0.044844102 0.014328377 0.018243423
0.03680203 0.06448011 0.07072435 -0.04066083 -0.05629954 -0.053623807 0.13329852 0.026717262
-0.040173743 -0.029226162 -0.039812673 -0.08181524 0.08130696 0.02034846 -0.081650995 -0.051758226
0.020144463 0.07636199 -0.0558885 -0.05306815 0.005891517 0.002932258 -0.02953646 -0.05171035
0.021036528 0.06164501 0.036985867 -0.013671078 -0.062613696 0.03985005 0.038541548 -0.009639129
0.06265917 0.056756236 -0.08563579 -0.05543358 -0.030653287 -0.07882376 0.036192164 -0.087542154
-0.06822372 -0.021918036 0.008717872 0.02258595 0.08317462 -0.019252956 0.008538656 -0.005595155
-0.07159266 -0.088161446 -0.056150842 -0.0089946985 0.0063599944 0.085394524 0.06594702 -0.027404208
-0.01759874 0.08411803 -0.039675694 -0.07978816 -0.08398882 0.0042012706 0.079156734 -0.038560677
0.06459821 -0.062328402 -0.0069785044 0.002408661 -0.075654656 0.06640459 -0.080318354 -0.045734186
0.041550256 -0.07388686 -0.023596242 0.06625172 -0.07420436 -0.077842295 0.063113056 0.050280653
-0.018040642 0.08029059 -0.035674915 -0.017959237 -0.043598637 0.07934239 0.016425133 -0.05436134
0.047653623 0.06012743 0.016734913 0.026823372 0.0321464 -0.08529172 -0.040109143 -0.04708179
0.07773014 -0.08555274 -0.053637616 -0.05934296 -0.026803993 0.012293719 0.00896652 -0.038951937
0.070473336 -0.041775588 -0.08519015 -0.030821063 -0.0016596392 0.048257567 0.0059378073 -0.009335645
0.010439575 -0.06386099 -0.016027518 -0.05418225 -0.029183846 0.0052146837 0.062456496 -0.008011557
-0.07971457 0.06971019 0.004451476 0.016866155 0.07318532 -0.08722953 0.06599473 0.06541661
-0.024577722 0.06560656 -0.026734304 -0.08387595 -0.035672586 0.0106469765 -0.075896166 0.068280585

actor.preprocess.model.2.bias f4 [128]
00000000: d303 873e 3dcc 913d 796d 3f3e 56c7 743d
00000010: 17ca 143d 4be7 5bbd 0f2e 023d cb59 9bbe
00000020: 1881 5e3c 25ac 9a3e 9473 9cbd f215 6dbd
00000030: 409a 9a3c 9a99 ba3e 46dc bd3e f44c e03c
00000040: 6631 903e 58a9 b23e 4cfa a73e 2cb7 8a3d
00000050: a062 423e 52cb e23d 82af 413e 9106 b63e
00000060: 0827 763e 8c5d 91bd 40e4 ca3e dc22 72bd
00000070: 3e51 a63e 1a8f 4a3d 7c35 c43e 7d33 21bc
00000080: e865 79be 0755 f6bd 1dff 72be 55c9 d43e
00000090: 9d1b 6a3e 3943 8f3e d23c eabc c7ee 9c3e
000000a0: d2b9 a63e 3f3d ae3e 744f 083d 6b9b 883e
000000b0: 38fb 0ebc 4286 393e a0ff e8bb 90c4 e2bc
000000c0: 4f2d 823e 320b 25bc 869a 5e3e ca5a b03e
000000d0: 7495 9a3e 7cf0 313e ca59 3b3e 36b9 87bd
000000e0: c79a 663e a9eb b13e 70fc 8b3c 851e 9e3e
000000f0: bba7 103d 11e6 ce3e 5284 84be cde3 213e
00000100: 1cf6 a93e 54a4 583e cb38 48bd b154 0e3d
00000110: aa8e 8b3e eba7 acbd 9232 4a3e 2f72 883e
00000120: abae 943d f3ce a53d 0839 823e 3306 aa3e
00000130: 9f5e a7bd e705 983e 71f9 97bd 7e82 adbd
00000140: 397c c53e 6e08 ab3e ae0e 8f3e bc1d 9c3e
00000150: 7986 ca3e 202b 32bc 7fcb 863e d153 a33e
00000160: c9bd 9c3e 527a 3b3e 824e b53e 4426 1fbd
00000170: 1d98 5ebc 8542 333e 7bdc 4a3e 8161 a8bd
00000180: d1fe 15bd 7dd7 8e3d ee52 b0bd 0066 ad3e
00000190: c202 8d3e 4f5c 823d d0ae 84bd 2e27 843e
000001a0: 5d21 9c3e 3e13 803e bc1b 913d 6cfc 863b
000001b0: c3dc ac3e 6ea8 14bd c1d6 30bd 0833 a93e
000001c0: bbde babe 2944 a63e d79b 423d 1e57 893e
000001d0: db72 cd3e 9904 793e 4195 823e 92f4 8b3d
000001e0: b0ba 803e e13b 8c3e b4db 003d 3484 a23e
000001f0: 067b a53d 8b1c 5abd fdbb b33e bd94 8c3e
0.26370105 0.071190335 0.18694104 0.059760414 0.03632554 -0.053687375 0.031782206 -0.30341944
0.013580583 0.3020946 -0.07639232 -0.057882257 0.01887238 0.36445314 0.37082118 0.027380444
0.28162688 0.34894824 0.3280815 0.067732185 0.18982935 0.110739365 0.18914607 0.35551885
0.24038327 -0.07097921 0.39627266 -0.059115276 0.32483858 0.04945288 0.38322055 -0.009838936
-0.2435528 -0.120279364 -0.2373013 0.41559854 0.22862096 0.27980974 -0.028593455 0.30650923
0.32563645 0.34031102 0.033278897 0.26681075 -0.008726887 0.18117622 -0.007110551 -0.027681619
0.25425193 -0.01007347 0.21738634 0.34444267 0.3019215 0.17376894 0.1829597 -0.06627123
0.2251998 0.34750107 0.017088145 0.3088266 0.03531621 0.40409902 -0.25882202 0.15809555
0.3319558 0.21156436 -0.048882287 0.034748737 0.27257282 -0.08430465 0.19745854 0.26649615
0.07259878 0.08096113 0.25434136 0.33207855 -0.081723444 0.29692003 -0.07420624 -0.08472155
0.38571337 0.3340487 0.27940887 0.30491436 0.3955572 -0.01087454 0.2632713 0.31899884
0.30613545 0.1830838 0.3541146 -0.038854852 -0.013586071 0.17505844 0.19810669 -0.082217224
-0.036619965 0.06974695 -0.086095676 0.33866882 0.27541167 0.06365263 -0.06478655 0.25811142
0.30494204 0.2501468 0.07085368 0.0041194465 0.33762178 -0.03629344 -0.043173555 0.33046746
-0.36498055 0.32473877 0.0475119 0.26824278 0.4012669 0.2431816 0.25504497 0.068337575
0.2514243 0.27389434 0.031459525 0.31741488 0.080801055 -0.053249877 0.3510436 0.27457228

actor.preprocess.model.4.weight f4 [128, 128]
00000000: 4a0d b8bc fcea 123d 57b2 cfbc 6026 ea3c
00000010: 00d1 953d 4bd1 b43d 916f 9abd e298 10bd
00000020: 34c5 f8bb 392e bd3d f895 063d fcd1 423d
00000030: c602 7e3d 6a22 9b3d 28b7 9e3d 5271 86bd
00000040: b8c9 0cbd dae3 d73b 4de3 fc3c 57f8 50bc
00000050: 90ef 83bc 37fa 14bd f7be 9e3d d9f9 7fbd
00000060: cad2 873d c0e8 ba3b 6032 0bbd 6a31 94bd
00000070: 13e1 44bd a497 c0bc 1879 2e3d 9dbe babc
00000080: df9b 553c 5662 1d3d d2ed 80bd aa0c f43d
00000090: b8d0 b13c 3989 933d 826b ffbc d161 5b3d
000000a0: 517e 503d 8edc 86bb f6eb 723d de25 553c
000000b0: c092 1cbb 17a8 4a3d e0c9 6b3b c8e8 0b3d
000000c0: 0f5b c63b c241 9abd e71c 72bc cb13 af3d
000000d0: 70e9 903d e6b1 2f3d e3cf 74bc 5275 763d
000000e0: 2241 be3d 9f47 813c 3bd0 29bd 1889 69bd
000000f0: 8583 62bd ba37 903d d7f3 293d 31af 9f3c
00000100: bc1f 983d 35c6 543d 2968 c838 0c70 96bd
00000110: d27c 9e3c 90f8 39bc faf6 1b3d 0b43 20bd
00000120: 825b 463d b6f8 e1bc 83db a63d 9a36 02bd
00000130: b4c0 f53c 62d5 40bd b8ae 91bd 5564 5dbd
00000140: 0579 32bd ac96 7b3d 5136 133d c2a6 493d
00000150: b3f0 00bd 509e 14bd 7f27 8ebd f901 4abd
00000160: 6390 e73c 9548 ce3b c414 b03d 44e6 88bc
00000170: 9272 353d d9d1 ba3d 1e5d 253b a727 933d
00000180: fa7b a63c 6497 82bd 99d4 a53d e22c 763d
00000190: c5ff 42bd a31c 3cbd f1f8 9cbc cf8b 453d
000001a0: 528e 75bc bf6d 053d 5215 9d3c 9896 543d
000001b0: 417f a9bc f41b a8bc 20d6 2b3b 365c 773d
000001c0: daa8 95bd 972f 62bd c520 4339 3780 603d
000001d0: 6d88 a73d 70f8 5a3c 568d b53d 9975 81bd
000001e0: 907d 633d 9d1f 5e3d 9edd 573d 70e8 ce3d
000001f0: 42e2 ee3c 00c0 6eba 1e75 053d 77c4 a7bb
00000200: a4aa c03c 6234 1a3d 5b03 6d3d 59aa 903d
00000210: afca 133d bbf5 9a3c 1c9c 893d 9f36 363c
00000220: 7c84 07bc 9eb3 ba3b 985a 4bbd 5e17 2a3c
00000230: e255 3a3d 86fb 6a3d 6e6b 07bd 2cfa 80bc
00000240: 462d 5cbb 030d c13d ca93 c7bc b71a 80bd
00000250: 0d17 a73d b902 16bd 8bb4 ee3c 1be4 0d3c
00000260: 6d05 ae3c 34bd c0bc a213 5c3d dd2a 78bd
00000270: f1d8 683d 9a03 183d b548 80bd f7e9 c3bb
00000280: 27cc 52bc ca9e 6b3d bd9d e2bc 8765 033e
00000290: fb9e 41bb 3c4d f93c 4571 9d3d bd5b c2bb
000002a0: 49fe 263c d028 753d 37d2 993d 3f5c 823c
000002b0: b46e f83c cfbe 1c3d 09bd 5ebd 1586 ae3d
000002c0: b886 3fbd 9498 b63d c782 8abc ec8e e6bc
000002d0: a071 0cbd cdcb fd3c 6aa8 c93c 5d55 a13d
000002e0: 6f74 e03b 20bb 243d 0b9f 82bc edca 9e3c
000002f0: c7b3 7c3d e105 dc3c 0bfa e1bd ad60 df3c
00000300: a7c6 053e 3fec 2b3d fa5d 1abd 0cda 9abc
00000310: d1e7 0a3d 1811 0ebc f495 973d 9288 b8bc
00000320: d210 743d 0198 b33d 8b81 9b3d be72 513d
00000330: 3a4e 74bd 6a20 71bb d8b0 b5bc e43b 9bbc
00000340: c226 a53d 3f44 96bd a6d1 07bc 60d6 83bd
00000350: 2be3 7c3d 26bd 33bd 3bfb 803d f61a 7fbd
00000360: 6b89 3d3d ceba 6c3d 26dd 06bd 1482 edbc
00000370: cad8 a9bd dcfd 893c 5b94 323c 70dc 7ebc
00000380: 51e3 a33d ec75 a63c 67a1 7f3c a01d 3d3c
00000390: 3a01 86bd 2612 e7bc f424 e73b a2cc bd3d
000003a0: 31c3 583d df79 5c3d 0646 933c 4705 a6bd
000003b0: 85cf 1ebd 8cfa 2fbd 28a2 bb3c ad92 52bc
000003c0: 581d 8cbd 8083 3b3d 6535 493d a8be 263d
000003d0: 9f2c 2fbd e44d 503d 580c 343d 98f4 ac3d
000003e0: 8ed1 0abd b85d 96bd 081d a1bc 0fb6 2f3d
000003f0: 2581 4438 fc5c 59bd 6350 24bd 92f4 5d3d
-0.022467274 0.03586863 -0.025353594 0.028582752 0.07315254 0.08828982 -0.07540811 -0.03530205
-0.007591868 0.09237332 0.032857865 0.047563538 0.062014364 0.07574923 0.07749778 -0.06564583
-0.03437206 0.0065884413 0.030870104 -0.012754521 -0.016105443 -0.036371436 0.077512674 -0.062494133
0.06632002 0.0057040155 -0.03398359 -0.072359875 -0.04806621 -0.023509808 0.042595953 -0.02279597
0.013037651 0.03842386 -0.062953606 0.11916478 0.02170597 0.072039075 -0.031179193 0.053560082
0.050901715 -0.0041156476 0.05930706 0.0130095165 -0.002389118 0.04947671 0.0035978481 0.034157544
0.0060533355 -0.075320736 -0.014777399 0.08548697 0.07075775 0.042894267 -0.014942142 0.06017048
0.09289767 0.015781222 -0.04145835 -0.05701551 -0.055301208 0.07041879 0.04149231 0.019492717
0.07427928 0.051946837 9.5561445e-05 -0.0734559 0.019346628 -0.011350766 0.038077332 -0.039126437
0.048427112 -0.027584415 0.08147337 -0.031790353 0.029999115 -0.047078498 -0.07113403 -0.054050762
-0.043572444 0.06142299 0.035940472 0.0492313 -0.03147955 -0.03628379 -0.06941127 -0.049318288
0.028267091 0.0062952735 0.08597711 -0.016711362 0.044298716 0.091220565 0.0025232504 0.071852975
0.020322789 -0.06376532 0.080971904 0.060101397 -0.047607202 -0.045925748 -0.019161673 0.048229035
-0.014987545 0.032575365 0.019175205 0.05190143 -0.020690562 -0.020521142 0.0026220158 0.060390674
-0.073075965 -0.055221166 0.00018608857 0.054809775 0.08180318 0.013364896 0.08864848 -0.06321258
0.055539668 0.054229368 0.052701585 0.10102928 0.029160623 -0.000910759 0.032582395 -0.005119856
0.023518868 0.037647612 0.05786453 0.07063741 0.036081966 0.018916002 0.067192286 0.011121421
-0.008271333 0.0056976816 -0.049646944 0.010381548 0.04549206 0.057368778 -0.033061437 -0.015744291
-0.003359632 0.0942631 -0.024362464 -0.062550955 0.081586935 -0.03662369 0.029138824 0.008660342
0.021242822 -0.02352772 0.05372966 -0.060587753 0.056847516 0.03711281 -0.06263868 -0.0059788185
-0.0128660565 0.05752448 -0.027663106 0.12831698 -0.0029544223 0.030432336 0.0768762 -0.005931346
0.010192462 0.059853375 0.075107984 0.015913127 0.030326225 0.038267907 -0.054379497 0.08521668
-0.046759337 0.08915821 -0.016908063 -0.028144322 -0.03428805 0.030980969 0.024616439 0.0787761
0.0068498175 0.04021752 -0.015944978 0.019383872 0.061694887 0.026858272 -0.1103402 0.027267778
0.13064061 0.04197335 -0.03768728 -0.018902801 0.033912484 -0.008671068 0.07401648 -0.02252606
0.059586354 0.08769227 0.07593068 0.051134817 -0.059644915 -0.0036793002 -0.022179052 -0.018949457
0.08064033 -0.07337236 -0.00828973 -0.06437373 0.06174008 -0.043881558 0.062979184 -0.06228157
0.04627363 0.05779534 -0.032925747 -0.02899269 -0.08293302 0.016844682 0.0108996285 -0.015555486
0.080023415 0.020319901 0.015602446 0.011542708 -0.06543203 -0.028206896 0.0070539657 0.09267546
0.052920524 0.053827163 0.017977726 -0.08106475 -0.038772125 -0.04296355 0.02290447 -0.012852353
-0.068415344 0.045779705 0.049123187 0.040709168 -0.042767163 0.050855532 0.043957084 0.0844509
-0.033891253 -0.07342094 -0.019667163 0.042898234 4.6850317e-05 -0.053067192 -0.040115725 0.05418832

actor.preprocess.model.4.bias f4 [128]
00000000: 52ca ad3e 73fd 363e 05da a2be b033 0abc
00000010: 114a 8f3d e5cd 283d fd08 773e e547 573e
00000020: f9cc a13e 6180 873e 9089 b2bd 73a4 5c3e
00000030: a1db a63e 5b6d 303d 288e b23e 28e7 a13e
00000040: 9b52 6d3e c28d ad3e 809b 853a e078 83bc
00000050: ced6 9f3e dbb2 823d f32a a33d 4d40 143d
00000060: 4c3d 003d 99c1 903d 606e 46bd 354a f73c
00000070: d98e 683e dee7 903e 5947 a2bd 1166 98bd
00000080: 76ea a83e 0e2f 32bc e067 46bc e219 98bc
00000090: 297e 143c 5522 aebd 8769 583e 34b3 6b3d
000000a0: 7b6e b1bd b0e0 41bd d209 a93e f6d4 933e
000000b0: 32c0 29bd f7f9 98bd 77b0 303e d73a 11bd
000000c0: 1f6b 493e 2b98 563e d4d5 ac3d 9c05 cabc
000000d0: 9fd7 853e 83f9 a63e cffd 573e 3392 783e
000000e0: f81a 803c e1ec 7c3e e072 903c e090 33bc
000000f0: 3bd4 ac3e 2ee7 4f3e 2c97 923e 49c3 8bbe
00000100: d0a4 1cbd 37e2 0d3d bd64 68bc 9047 6dbd
00000110: bb66 fbbb 304b 633e aac0 7f3d 2cd1 b33b
00000120: 70cc 3f3e 5216 573d f78b 393e 01a6 953e
00000130: c70c 913e 520b 16bd ef28 593e e251 583e
00000140: 5c2a ae3e 3ba7 843d 57ae 1f3e 6d21 a0bd
00000150: feee 633d 95d4 5c3e 503f 8c3e 02da 51bd
00000160: 5055 9f3e a7e2 753e 54fa 463e 7112 963e
00000170: d505 21bd 13a5 4f3d bbd2 9b3e ea7b 863b
00000180: af4a 703e 4960 80bd 23e6 09bc 2588 2abd
00000190: 8402 973e 6cda 9c3e 8e01 b23e 75cb 383e
000001a0: 851e 163d 88e1 423e 7472 7f3e 5818 903e
000001b0: 54a6 5c3e 6d72 6b3e dbb5 6ebc 18bf 803e
000001c0: 6981 783e 9a9e 9d3e aed9 383d 015e 533e
000001d0: 63dd 95bc 4404 9e3e 65f2 4fbd 016d 813d
000001e0: 414d b23e 18ba 893e 5a4e 393e 7f8c ae3e
000001f0: 6ce1 453e 05c6 6d3e 8a8c 643d e9c2 e6ba
0.3394342 0.1787012 -0.3180696 -0.008435175 0.06996549 0.04121198 0.24124523 0.2102352
0.31601694 0.26465133 -0.08717644 0.21547107 0.3258944 0.04307304 0.34874082 0.3162167
0.23176043 0.33897215 0.0010193437 -0.016048849 0.3121857 0.0638177 0.07967176 0.036194135
0.031308457 0.07068176 -0.048445106 0.030186752 0.22710742 0.283019 -0.07923765 -0.074413426
0.3299138 -0.0108754765 -0.012109727 -0.01856703 0.009063282 -0.08502642 0.21134005 0.05754395
-0.086636506 -0.04733342 0.33015305 0.28873414 -0.041443057 -0.07469552 0.17254816 -0.035456505
0.1966977 0.20956485 0.08439222 -0.024660878 0.26141068 0.32612237 0.21092914 0.2427452
0.01563786 0.24699737 0.017632902 -0.010959834 0.3375567 0.20303032 0.2863096 -0.27297428
-0.038243115 0.034639563 -0.014184174 -0.057929575 -0.0076721585 0.2219665 0.0624396 0.0054875817
0.1873033 0.05251152 0.18119799 0.29228213 0.2833006 -0.03663189 0.21207021 0.21124986
0.34016693 0.06477209 0.15593849 -0.078188755 0.055647843 0.21565469 0.27392054 -0.0512333
0.31119776 0.24012242 0.1943143 0.29310945 -0.039312202 0.050694536 0.30434212 0.004104127
0.2346599 -0.06268365 -0.008416685 -0.041633744 0.29494107 0.30635393 0.3476681 0.18046363
0.0366502 0.19031346 0.24946004 0.28143573 0.21547824 0.22992869 -0.014569725 0.25145793
0.24268116 0.30785066 0.04512947 0.20641328 -0.018294042 0.3086263 -0.050768275 0.06319619
0.34824565 0.2689979 0.18096295 0.34091565 0.19324273 0.2322007 0.05579809 -0.0017605695

actor.preprocess.model.6.weight f4 [64, 128]
00000000: abc8 57bd 3521 1f3d d78d e1bc bccf 70bd
00000010: 77e3 2abd 5f4c 4d3b 96ea 1e3d 52c3 56bd
00000020: 67a0 3cbd 05f2 46bd d3e1 a53d 385c a13d
00000030: 58d9 0b3c 9bc7 a1bd 9d25 b0bb 17c0 5cbc
00000040: 3eae d0bc 31a5 243d 5ac7 423d 4082 8a3b
00000050: f8fa 243d 7108 0a3d 62e1 9bbd 7859 3cbd
00000060: e54f 90bd 908d 53bd ef78 ac3d 75da 0c3b
00000070: bdf3 603d 5319 803d 42c0 123b b230 b13c
00000080: fac0 013d 3a0f 8b3d 9049 883d b936 57bd
00000090: a5d0 4f3b 4866 6fbc d8ca 033d 9d6a d33c
000000a0: 723e 84bd b27c 493d 4985 66bd e535 863d
000000b0: c0ad 97bc 6c26 77bd f7b6 413c 7be9 033d
000000c0: 7142 b93d 45da 7d3d 12bd 63bc b683 753d
000000d0: d19f cebb 9b42 9d3d ece9 f83c 4d52 ad3d
000000e0: 6b83 3cbd 5058 82bd 07a1 953d 60c9 683b
000000f0: a5cc ca3d 7fd6 c83b 5aa0 c83d bc1c 883d
00000100: e88a 213d bc6a 1bbd 8fc9 45bd 28fc 533d
00000110: 143d fe3c 0b68 10ba 4e9d 9e3d 30e5 18bd
00000120: 9fc4 cfbc da13 933d db64 963c c63f 44bd
00000130: da70 b5bc 3813 633c 1df5 d23c 9416 a93d
00000140: bcfb 7cbd 9076 39bd 2594 063d e5a9 aebc
00000150: 5b38 1c3d 2f35 2c3d 0998 b3bc fac1 01bd
00000160: b97a ae3d 6d2b 87bd 8d81 8dbd 432c 21bb
00000170: e86d a83d ea09 883c 9d0f 863b ecb4 29bc
00000180: 78e0 313d 5f40 83bd b0f6 8abd 31e3 723d
00000190: 8bf2 58bc 4936 8a3d fe0a 8e3d d09b 2b3d
000001a0: 4ff0 92bd cdd2 7ebd b3fb fc3b a38c 3bbc
000001b0: fb75 5cbd d09b 8b3d 100c 5dbc dca2 4a3d
000001c0: 866d 86bd d5fb 523d 9841 9fbd b212 6c3d
000001d0: 2201 5bbd bc2a 593d 56f2 9fbd 432b b0bc
000001e0: 32a6 183d 82f3 c1b9 6cbb 1ebd 761f 47bd
000001f0: 1ff2 263c fb78 36bc 108f 36bc 37d0 e8bc
00000200: 4db2 01bc 8074 f3bc 87ce 34bd 83c6 a13d
00000210: ab5d 7f3c 1769 51bc 63a8 6f3d b5f1 113d
00000220: 314d 6d3d 9cec 6ebc 406e abba 773b 22bb
00000230: ed65 313d c53e b1bd 35f7 1d3d 0d86 2bbd
00000240: 2721 4c3d fc11 2f3d da31 7d3d b568 a03d
00000250: c55f dd3c 5e46 94bb 9a05 233d 94bc 023c
00000260: 19a5 a4bc 5846 673c 260e 633d 6c47 793d
00000270: e520 41bc cb03 223d cb56 593c 0570 6bbc
00000280: 70e8 393c e82c 59bd 691f 4b3d 1ae5 e5bc
00000290: b892 f73c a8de 81bd c845 d6bc 64f7 7d3d
000002a0: 830c 29bd 1019 d93c 799f babd 0842 31bd
000002b0: 97c9 a53d c87e 8dbd 1ba6 aebc 3ccd 8abd
000002c0: 99ce 21bd e080 8fbd 7984 673a 98c8 2bbd
000002d0: fb25 cebd 620c 36bd 7234 0d3d 4156 8c3d
000002e0: e37a 843d eea0 8ebc dd03 81bd 1362 40bd
000002f0: 2245 213d 7c40 f8bc 8e97 b4bd db42 ca3d
00000300: f523 dcbc 2dc4 84bd aa43 88bb 8a46 e93c
00000310: 15eb e3bc 0f83 f6bc cc21 923d 933d 42bc
00000320: 170a 02bd 0790 153d 4aea afbd ac2c e63c
00000330: f1cf 053d e93e 843d d409 093d 9f4e b23b
00000340: e3fe 513d 0f01 b43d fc9c 223c 38b9 ccbc
00000350: 41f4 393d 5aa9 b1bd 6d38 193c 584c e7bc
00000360: 64dd a8bd c591 8c3d 25fc 40bd e1ff 093b
00000370: efd3 5b3b 725a ef3c f53c 1bbd 0633 893d
00000380: 45b0 8ebd ae4c 23bd 3699 6a3d a36c 733d
00000390: ad44 20bc 5363 75bd 32db 8dbd 27c3 123d
000003a0: 86bc 2cbd e218 9dbc 5996 5abd 7f7a 63bd
000003b0: 5abd 003d 97bd 5ebd c5e4 573b a666 cabd
000003c0: 0c11 843d 07f6 d4bc 467b 5d3d a052 543d
000003d0: 2298 e2bc 9f72 cebd 8200 a93d 9bd8 773d
000003e0: ee17 45bd d38f 8dbd 8505 893d 67ac 813d
000003f0: e592 9ebd 66d9 f3bc 6020 b33c 32b6 6b3c
-0.052681606 0.038850028 -0.027533455 -0.05879186 -0.041720834 0.0031326038 0.038797937 -0.052432366
-0.04605141 -0.04857065 0.08099713 0.078789175 0.0085357055 -0.078994 -0.0053755776 -0.013473532
-0.02547371 0.0401966 0.047553398 0.004226953 0.040278405 0.033699457 -0.07611348 -0.04598376
-0.07046489 -0.051648676 0.08421504 0.0021492515 0.054919947 0.0625483 0.0022392427 0.021629665
0.031678177 0.067900136 0.06654656 -0.052542422 0.0031710055 -0.014611788 0.03217587 0.025807673
-0.06457223 0.049191184 -0.056279454 0.06553248 -0.018515468 -0.060339376 0.011823407 0.032205086
0.09045876 0.061975736 -0.013900058 0.059940062 -0.0063056727 0.076787196 0.03038498 0.08462963
-0.046023767 -0.063645005 0.07306104 0.003552042 0.09902314 0.0061290856 0.0979621 0.06646106
0.039439112 -0.037943587 -0.048287924 0.051754147 0.031034984 -0.00055086677 0.07744847 -0.037327945
-0.02536231 0.07181521 0.018358639 -0.04791238 -0.022148538 0.013859563 0.025751645 0.082562596
-0.06176351 -0.045279086 0.032856125 -0.021321246 0.038139682 0.042042907 -0.021923082 -0.03167913
0.08519501 -0.0660008 -0.069094755 -0.0024593032 0.08224088 0.01660629 0.0040912167 -0.010358077
0.04342696 -0.06408762 -0.06785333 0.059298698 -0.0132414205 0.06748635 0.0693569 0.04189664
-0.071747415 -0.062212754 0.0077204346 -0.011447105 -0.053823452 0.06816828 -0.013491645 0.04947172
-0.06563859 0.051509697 -0.07776183 0.057635017 -0.053467877 0.05301927 -0.07809894 -0.021505004
0.03726787 -0.00036993256 -0.03875296 -0.048613988 0.010189562 -0.011137242 -0.011142507 -0.028419597
-0.007916045 -0.029718637 -0.044142272 0.07899191 0.015586297 -0.012781403 0.058510195 0.0356309
0.057934944 -0.014582779 -0.0013079122 -0.0024754682 0.043310095 -0.086545505 0.038565833 -0.041875888
0.049836304 0.04274176 0.06181512 0.07832471 0.027023206 -0.00452499 0.039800264 0.007979531
-0.020098256 0.014115892 0.055433415 0.06085913 -0.011787628 0.0395544 0.013265322 -0.014369969
0.011346921 -0.05302134 0.049590502 -0.028063346 0.030221328 -0.063412964 -0.026156321 0.06200351
-0.041271698 0.026501209 -0.09112448 -0.043275863 0.08095091 -0.06908947 -0.02131944 -0.067774266
-0.039503668 -0.07007003 0.00088316906 -0.041939348 -0.10065838 -0.044445403 0.034473844 0.06852389
0.06468751 -0.017410722 -0.06299565 -0.04696853 0.03937257 -0.030304186 -0.08817969 0.09876033
-0.026872614 -0.0648273 -0.004158457 0.028476018 -0.027822057 -0.03009179 0.071353525 -0.011855501
-0.031747904 0.03651431 -0.08589609 0.028097473 0.03266901 0.06457312 0.03345664 0.0054415013
0.05126847 0.087892644 0.009925123 -0.024990663 0.045398954 -0.08674879 0.009351832 -0.028234646
-0.08245352 0.06863741 -0.047115464 0.0021057057 0.003354307 0.029217932 -0.03789993 0.06699185
-0.069672145 -0.03986805 0.05727502 0.059429776 -0.009781999 -0.059909176 -0.06926574 0.035830643
-0.042171977 -0.019176904 -0.05336604 -0.055536743 0.03143058 -0.054380026 0.0032942754 -0.0988286
0.06448564 -0.025996221 0.05407264 0.05183661 -0.027660433 -0.10080456 0.0825205 0.060509305
-0.048118524 -0.06912198 0.06690506 0.06331711 -0.07742862 -0.02976675 0.021866024 0.0143867005

actor.preprocess.model.6.bias f4 [64]
00000000: 7115 533e 957a 53be c708 6dbe f244 a1be
00000010: 969d 523e fb6b 4cbe 4c76 813e 1067 933e
00000020: 5bc1 67be dd29 9ebe c05f 943e e9ce 91be
00000030: 8b9d 8cbe a509 83be 731f 803e 30d4 993e
00000040: bba8 81be ac17 a23e efc3 a4be 2ea5 9ebe
00000050: 860e 713e 7bbf 22be f345 80be b7a4 81be
00000060: 94b7 9cbe 80f8 7ebe 73f4 8e3e 3b04 323e
00000070: 654e a53e cf9e ab3e 4783 7a3e b631 9fbe
00000080: 8320 573e 46f0 a83e b108 813e 7a2b 4dbe
00000090: e8fe 9b3e fa2b 443e aabd 273e 388f 563e
000000a0: 39f6 71be 59a5 87be 1fd8 693e be37 8cbe
000000b0: e3ba 423e ec68 5c3e eedf 6a3e d044 6b3e
000000c0: bd5a 383e 6bfa 91be 5d3b 293e ecb7 633e
000000d0: f78f 99be 3cac 2d3e 26e8 813e ae6e 1b3e
000000e0: c13a 683e 0f3a 533e e468 493e d355 a1be
000000f0: 15f5 83be 578c 97be 847d 6ebe d6ac 913e
0.20613648 -0.2065223 -0.2314788 -0.31497914 0.20567927 -0.19963066 0.25285566 0.28789568
-0.22632353 -0.30891314 0.289793 -0.28478172 -0.27463946 -0.25593296 0.25023994 0.300447
-0.25324044 0.31658685 -0.32180735 -0.30985397 0.23540697 -0.15893357 -0.25053367 -0.2532098
-0.3060881 -0.24899483 0.27920875 0.17384426 0.32286373 0.335196 0.24464141 -0.31092614
0.21008496 0.32995814 0.25201944 -0.20036116 0.30467916 0.191574 0.16380945 0.20953071
-0.23629083 -0.26493338 0.2283635 -0.27386278 0.19016604 0.215244 0.22936985 0.22975469
0.18003364 -0.28511366 0.16526552 0.2223813 -0.2999265 0.16960233 0.25372428 0.1517894
0.22678663 0.20627616 0.19668919 -0.3151079 -0.2577292 -0.29599258 -0.23290068 0.28452176

actor.last.model.0.weight f4 [3, 64]
00000000: 309b 883d c27f b8bd f964 113d 66dd 53bd
00000010: 6777 1f3d c209 6e3d e8de 08be 6e2e ae3d
00000020: 76ae b13d efa9 d93d 56ed d23d b8c3 a83c
00000030: 1b06 10bd b3f0 a63d 1c08 ac3d 9853 b43d
00000040: 7d6b 083d 86bd 4f3c 29cc c5bc 9130 333c
00000050: 2fe3 d4bd ce03 db3d b9ec 973c cf1e 963d
00000060: c4dc 9b3d f794 ec3d 8a42 ccbd 03b6 11be
00000070: 4f1e a63d f44d a93d 659a b3bd 9c27 0b3e
00000080: e733 473d 2320 0fbe bd74 f4bd 45ca 98bd
00000090: c7e5 d8bd dfd8 803d 9c2f cb3c eea1 083d
000000a0: 14fb 053e 59ee 9cbd cd6b 933c 0f1f 873c
000000b0: 9856 f9bc 57ce 9fbb 3b80 71bd 2f39 f53c
000000c0: 175a 9ebc 2bbf 833d 0567 4b3d cc3d 703d
000000d0: 3531 073e ae81 933d 1dc4 1d3c 6746 8dbd
000000e0: 1cb1 c0bd cca9 debd caa4 95bd 5a85 6ebc
000000f0: 98b0 113e df89 d4bd 7e02 afbd afa1 efbd
00000100: d966 1abc ab1c b23d 092c b63c 95f1 923d
00000110: 914e de3d 04dc 6abd 5843 74bd bb4d 273d
00000120: c550 8f3d e30c cbbd 4cf1 87bd a240 f03d
00000130: 88da b7bd 44b1 bc3d 3ba2 043d 61b7 0d3d
00000140: cdc8 063d cdb4 debc 0801 243c c513 cfbd
00000150: 8237 7f3c 12a5 b2bd e2e2 a63d bc21 7cbc
00000160: 4319 51bd 5bcd a83d 3118 4a3d e12f 9f3d
00000170: 9798 ebbd cbff dabc 83c3 7d3c 2aee 17bb
00000180: e3d4 bb3b ed7b 963a 4cfe ff3d 58fc 80bc
00000190: 1dd7 efbd d6cf 66bd fd72 c2bb b7ee 90bd
000001a0: f722 9abc 1f65 edbd 687d 26bd eccb b83d
000001b0: 41d2 fa3d df81 0e3d cd70 ac3d c7cd 86bd
000001c0: 3af9 fd3c f283 8d3d 1477 0ebd bf54 17bd
000001d0: a9d8 d7bd efa1 ebbc 94f7 523d a7be a3bd
000001e0: 52da 83bd 3ee7 723d dcfa 19bd d738 b93b
000001f0: ac34 79bd be10 4a3c 0252 edbd 47b6 97bd
00000200: 5f56 a83d f208 febd a9e6 c93d 5076 d4bd
00000210: ea9b c43d 9aba 203d 9c4c c33c 5127 933d
00000220: b823 2bbd 81f7 d13d af88 0c3e a40a a8bd
00000230: fdd1 e63d 86a9 0cbe 3feb 483d ceb1 a0bd
00000240: 1999 d5bd a3f1 b93c 97b8 e9bd 51ce 3dbd
00000250: b6c9 b4bd 9186 01be c6dd c03d 2bd9 273d
00000260: b9bc 4c3a be1a afbc 5354 98bd 531f 5dbd
00000270: 7298 a1bc ff19 833d 4d08 ca3c 61fe e33c
00000280: 4bd2 3cbd 13fd fd3c 2847 e73d 7bcf eabd
00000290: a82e d53c b218 c2bc 013c e0bd f154 e5bd
000002a0: a791 afbd cbe5 323d 89cc b9bc 4099 c93d
000002b0: 7e1b 003e d963 ddbc 922c 523d 9ac0 debc
000002c0: 2cbd 91bc 185c 123d 7058 acbd 863a febc
000002d0: 57f1 0cbe 7136 253d aec5 873c 567d bb3d
000002e0: 1974 b43d f14a 96bd 5500 eebd 8b92 c23c
000002f0: 93e2 ecbd d1f4 a93d 5f34 ab3d 37d5 803d
0.06670225 -0.09008743 0.035496686 -0.051724814 0.03893223 0.058114775 -0.13366282 0.085049495
0.08675854 0.106281154 0.102991745 0.020601138 -0.035162073 0.081513785 0.08399984 0.08805007
0.033305634 0.012679463 -0.024145203 0.010936872 -0.10394894 0.10694085 0.018545495 0.07330095
0.07610467 0.1155185 -0.09973629 -0.14229588 0.0811125 0.082668215 -0.08769683 0.13589329
0.048633482 -0.13977103 -0.119363286 -0.07460455 -0.105907016 0.06291365 0.024802975 0.033357553
0.1308406 -0.07662649 0.01799574 0.016494302 -0.030436799 -0.0048768925 -0.05896018 0.029934494
-0.019330068 0.06432947 0.049658794 0.058652684 0.13202365 0.07202469 0.009629277 -0.06898194
-0.09408781 -0.1087223 -0.07306822 -0.014558161 0.14227521 -0.10377859 -0.08545397 -0.117007606
-0.009423935 0.08696874 0.022237794 0.07174984 0.10854829 -0.05733873 -0.059634537 0.040845614
0.069978274 -0.09914567 -0.066378206 0.11731078 -0.089772284 0.09213498 0.032381278 0.034598712
0.032906342 -0.027185822 0.0100100115 -0.101111926 0.015577199 -0.08722891 0.08148743 -0.015388902
-0.051049482 0.082422934 0.049339477 0.07772804 -0.115037136 -0.0267333 0.015488508 -0.0023182728
0.005732165 0.0011481025 0.12499675 -0.015745327 -0.117109515 -0.05635055 -0.005934118 -0.07076781
-0.0188155 -0.11591553 -0.04064694 0.0902327 0.12247134 0.034791823 0.084199525 -0.06582218
0.03100263 0.06909932 -0.03478153 -0.036946055 -0.105393715 -0.02876374 0.05150564 -0.079953484
-0.06438126 0.05930256 -0.037592754 0.005652528 -0.060841247 0.012333093 -0.115879074 -0.074078135
0.08219599 -0.1240405 0.09858448 -0.10374129 0.09600051 0.039240457 0.023840241 0.071852334
-0.04178211 0.10252286 0.13724016 -0.082051545 0.11270521 -0.13736543 0.049052473 -0.078464136
-0.10429592 0.02269823 -0.11412161 -0.046339337 -0.08827536 -0.1264899 0.094173 0.040978592
0.0007810104 -0.021375056 -0.074379586 -0.05398495 -0.019726012 0.06401443 0.024662161 0.027831258
-0.04609899 0.031004464 0.11292869 -0.11465355 0.026023224 -0.023693416 -0.10948945 -0.11197842
-0.08572703 0.04367618 -0.022680538 0.09843683 0.12510487 -0.02702515 0.051312037 -0.027191449
-0.0177904 0.03573236 -0.084153056 -0.031033766 -0.13763939 0.040335122 0.016573753 0.09154765
0.08811206 -0.07338513 -0.11621157 0.023751518 -0.11566653 0.08298648 0.08359598 0.062906675

actor.last.model.0.bias f4 [3]
00000000: 413c 363d 8e90 113d 2621 a73d
0.044491056 0.03553825 0.081606194

critic.preprocess.model.0.weight f4 [128, 2]
00000000: f91a 41be 57f6 133f 906d fa3e 10b8 8a3e
00000010: ee5d c8be 258b d13e 12f8 0f3f a0bc e93e
00000020: 6d9c 113e c262 6cbe eb06 443e 10ec b53e
00000030: 7127 713e 6668 dabe c078 aa3b 2d9e 87be
00000040: 4cdf 163f 74cb 2fbe 9a62 5fbe ecd9 203f
00000050: cfc1 113f 1c18 c83d 1990 2dbf 8035 54bc
00000060: 1e80 10bf ef2e d0be ea92 d13d bda8 223f
00000070: f5eb 33bf 599c 24bf 318e bbbc 6c67 1b3e
00000080: e2a4 60be 6f1f 89be b77f 15bf 9053 de3d
00000090: 1ca8 d1be 57a8 1d3f 4191 903e 8953 62be
000000a0: 2919 38be f855 e23e 9b1b 883e e682 303f
000000b0: 8473 6b3d f439 d0be 64bc 033f 9eb2 ecbe
000000c0: 3319 6fbe aeb3 59be 8410 6f3e 1d65 b1be
000000d0: 99f2 0abf a917 223f 3d83 ddbe 2050 d6be
000000e0: 1e02 0fbf 307d 0cbd 594c 1c3f 2462 29bf
000000f0: d6a5 1a3e 8df9 35bf f2d9 01bf 0437 27bf
00000100: e53d b03e 1745 25bf e086 843d f57c 9e3e
00000110: 25bc f83e 747d 983e 7052 203f 93a6 e03c
00000120: 7315 e9be 5013 12bf 5c3a 12bf 79c1 213f
00000130: f5fb f33e 7c56 983e 5580 f73e e6eb 473d
00000140: 2ad6 1dbf 0e0a dbbe c3fa d13e 733c ba3d
00000150: a54d b43e 25aa f63e 4fe3 f4be 8d23 18bf
00000160: 1a51 0bbf 91c2 a4be 3649 913e c9cc 4ebc
00000170: 2e8c ee3e 1ef3 1b3f 5fc8 373e 8826 333f
00000180: cf45 edbe 7ef8 34bf 4569 92be 8929 e03e
00000190: a2e2 063f 3f0f a63e 38a1 7c3e 09ae 143e
000001a0: dd1a 23bf bad1 0abf 1671 073f aa62 bcbd
000001b0: a645 2a3f dc5f 9abd a04e c0bd 881f e3bd
000001c0: 658d 58be 94a6 893e 1672 c6be 188e 2c3f
000001d0: 468e 153f c34a 00be c418 f33e 21c1 a93e
000001e0: 9e86 d0be f48a e53e 5dc3 9ebe 9feb 0bbf
000001f0: ed5b 01bf 40ef 263f 6624 bdbd 2372 273f
00000200: 3aa7 fb3d ca02 043e a65d eebe fec1 9bbe
00000210: 192c c93e 5fed 1cbf 1734 81be 3e65 983e
00000220: 6958 88be 108f 00bf b69a 2bbf 511f 63bd
00000230: 3d28 f7be 18fb 143f f33c 0f3f 36d7 1abe
00000240: 19d4 3a3e 7a3a c83e 2864 673e ad07 e33e
00000250: 3830 b0be b5fb b5be b4c3 833e fcfa dabd
00000260: ec9c 8e3c bfd1 103f 20ac d23e cb14 dabd
00000270: 9047 ebbe 6c0e 2dbf f3c0 933e 79df 1ebf
00000280: 9d62 a1be c8c2 7ebd dc1d 13bf 4450 ffbe
00000290: 4bf2 303f e203 ba3d 74c9 f43e 192a 25bf
000002a0: 8176 e13e b0de 21bf 9fc0 093f 0f2f 463e
000002b0: aab0 2e3f 1781 543e 59b9 c6be 907c 3abd
000002c0: 07b7 5e3e 0464 57be e424 81bd 0d2e ad3e
000002d0: c90c 0fbf 4459 8c3e d3cc 3d3e 4cd0 033f
000002e0: 1622 353e bfe9 c13e 6708 1d3f c00f 2e3f
000002f0: 61fe ccbd 8280 f63e 0f1b bebe 607b 803d
00000300: ac16 31bf 58f8 28be 2366 eb3e f1d0 b23d
00000310: b009 3bbe eb4a 1ebf 8bec 1d3e ca4d 433d
00000320: 84d2 f3be 05ea 12be d0a5 13bf ddfa 5ebd
00000330: dc16 143f ec2e 263f d878 aa3e ba2d 903d
00000340: 8c35 efbe 6add 6dbe ed5b e3be 2654 2abf
00000350: 5ca4 883e a039 1b3e fb3c 293f b781 6e3d
00000360: ece3 2b3f e238 2a3f bb53 00be 2acc a83c
00000370: bfe5 0bbf 2d15 173f 1094 b43e dbca 11bf
00000380: 1ed6 afbe 45cb d9be e6f8 4b3d 8eab 5abc
00000390: 1291 1c3c 3e1c 113f bce1 08bf 60f6 063f
000003a0: 88a7 89be 165b a5bd 8301 23bf 6687 8b3e
000003b0: 9ea1 b33e f6ec 2a3f 885d e0bd 9367 343f
000003c0: dfe0 35bf b9d2 b43e ab1a 233f b872 dc3e
000003d0: ffdf b83e f7a3 023f f3a8 08bf 3149 823e
000003e0: d30c 1e3f 3594 21be b7a3 b43e 9b34 043f
000003f0: 1910 8fbc 143f 543d bc8f 0d3f 6174 9b3c
-0.18857946 0.5779776 0.48911715 0.27093554 -0.39134163 0.4092647 0.562379 0.45651722
0.14219828 -0.23084548 0.19143264 0.35531664 0.23550202 -0.42657775 0.005202383 -0.26487866
0.58934474 -0.17167455 -0.21814957 0.6283252 0.56936353 0.097702235 -0.67798 -0.0129522085
-0.5644549 -0.40660807 0.102331 0.63538724 -0.70281917 -0.6430107 -0.02289495 0.15176171
-0.21937898 -0.26781794 -0.58398 0.10855782 -0.4094857 0.6158499 0.2823582 -0.22102179
-0.17978348 0.44206214 0.2658356 0.68949735 0.05748321 -0.40669215 0.51459336 -0.46230024
-0.23349456 -0.21259949 0.23346144 -0.34647456 -0.54276425 0.6331735 -0.4326419 -0.41858006
-0.55862606 -0.034299076 0.61054 -0.66165376 0.15102324 -0.7108391 -0.50723183 -0.6531832
0.34422222 -0.6455855 0.06471038 0.3095471 0.48581043 0.29783213 0.6262579 0.027423179
-0.45524177 -0.5706072 -0.571203 0.6318584 0.47653165 0.29753482 0.48340097 0.048808955
-0.61654913 -0.4278111 0.41011629 0.09093561 0.35215488 0.48176685 -0.47829673 -0.59429246
-0.54420626 -0.32179692 0.28376168 -0.012622067 0.46591324 0.6091784 0.1794753 0.6998067
-0.46342322 -0.7069167 -0.2859594 0.4378169 0.52689564 0.32433507 0.24670875 0.14519514
-0.63712865 -0.5422627 0.5290693 -0.09198506 0.66512525 -0.07537815 -0.093899965 -0.110899985
-0.21147688 0.26884902 -0.38758916 0.6740432 0.5842022 -0.1252852 0.47479832 0.33155158
-0.40727705 0.44832575 -0.31008425 -0.54656404 -0.5053089 0.65208817 -0.09235458 0.65408534
0.12287755 0.12891689 -0.46555823 -0.30421442 0.39291456 -0.612997 -0.25235054 0.29764742
-0.26629952 -0.50218296 -0.67032945 -0.055449788 -0.48272887 0.5819564 0.55952376 -0.15121159
0.18244971 0.39107114 0.225968 0.44341794 -0.34411788 -0.355436 0.25735247 -0.10692403
0.01740881 0.5657005 0.41146946 -0.10648497 -0.45953035 -0.6760013 0.28858146 -0.6205974
-0.31520548 -0.062197477 -0.57467437 -0.49865925 0.6911971 0.09082772 0.47809947 -0.6451736
0.44035724 -0.6323042 0.5380954 0.19353889 0.6823832 0.20752369 -0.38813284 -0.04552895
0.21749507 -0.21034247 -0.063058645 0.33824196 -0.55878884 0.27411854 0.18535165 0.5148971
0.17688784 0.37873647 0.61340946 0.6799278 -0.100094564 0.4814492 -0.3713002 0.06273532
-0.6917522 -0.16500986 0.45976362 0.08731259 -0.18265414 -0.61833066 0.15422265 0.047681607
-0.47621548 -0.14347084 -0.57674885 -0.05443846 0.5784738 0.6491535 0.3329532 0.07039972
-0.4672054 -0.23228994 -0.4440607 -0.6653465 0.26687896 0.15158701 0.66108674 0.058229174
0.67144656 0.66493046 -0.1253194 0.020605166 -0.5464744 0.59016687 0.35269213 -0.5695016
-0.34343046 -0.42537895 0.049797915 -0.013346566 0.009556072 0.5668372 -0.53469443 0.5271969
-0.2688563 -0.08074014 -0.6367418 0.27251738 0.35084242 0.66767824 -0.1095534 0.7047054
-0.7104625 0.3531702 0.6371257 0.43056273 0.36108395 0.5103144 -0.53382796 0.25446466
0.6173832 -0.15779193 0.35281155 0.5164277 -0.01746373 0.05181797 0.55297446 0.018976392

critic.preprocess.model.0.bias f4 [128]
00000000: 9da5 8cbd a70e fe3e 002a 4cbe 8e65 773f
00000010: af92 e83e baaf b9bd 92fe 863f dc31 30bf
00000020: e087 2c3f db50 cebe 1a96 bb3e e00e 1ebe
00000030: ca8c a03e f274 18bd f111 883e 74fa 8f3e
00000040: a165 dcbe 2236 c03e 30d0 9abe 2e24 f13e
00000050: 6b3c bd3e e2dd d53d 6b34 fabe f136 d9be
00000060: 27ec 8c3e 1a40 e73e f6c9 59be 8776 153f
00000070: 5000 71bd 0621 673f a25b b2bd 40b7 afbc
00000080: 8344 0f3f 9e99 3ebe ae86 6b3f 1186 803f
00000090: 2086 f9bc c6eb abbd 4bbb f43e 97be 4a3e
000000a0: 2f04 123d 1d2c 473e 99a4 8c3d d726 0d3f
000000b0: c8c1 0fbf dae0 0f3e 3662 7bbe 49a8 bbbe
000000c0: 2985 95be bfc4 2f3f d822 4b3f 5a67 2abf
000000d0: 083a 07be 274f da3e ef1d 64be f427 a93d
000000e0: 8d5d c23e df6c 2abf aa4a cb3d db86 633e
000000f0: 266e bf3d d9eb f73e 31d4 433f bcc9 42bf
00000100: 7328 bdbe 809e cbbc 3eff 9f3e ea38 babe
00000110: 4856 be3e a731 153f 1da9 5e3f 1d25 533f
00000120: 4473 463e 17c6 63be 941d 1e3e 1d07 4abf
00000130: 4859 7c3f 1912 0a3f 8f73 7e3e 6a2a 723f
00000140: 2139 1c3f f470 0bbe 1bb5 dfbe 96d7 063f
00000150: 237d e3bd 30b3 bbbe 0830 e1bd 3c29 70be
00000160: 9fa1 8d3b 08d6 d43e f139 2bbf f1ca 41bf
00000170: 7598 0f3f 1bf8 04bf c047 5abf 6ea9 4e3f
00000180: 6006 e9bc e396 21bf f364 08bf 6bda 303f
00000190: a641 5a3e e15d 293e 485b 20bf d8ad c63e
000001a0: 738f c93e 98f1 253e d184 ae3c 1606 493f
000001b0: e02a e73e ebc0 143f c196 883e 9939 87be
000001c0: a311 ae3e f680 823e d37d 3fbf 290f 96be
000001d0: 3ecb f13e f715 133f 11da f2be 6192 473c
000001e0: b3a6 a23e b538 843e 4d40 423d f85c 88be
000001f0: cea8 0f3f 8ee3 fcbd 7cc2 873f 0f1b 903d
-0.06867526 0.49620554 -0.19937897 0.96639335 0.4542441 -0.0906672 1.0546439 -0.6882608
0.6739483 -0.40296063 0.36637956 -0.15435362 0.31357414 -0.037220903 0.26576188 0.28120768
-0.43046287 0.375413 -0.3023696 0.47097915 0.36960158 0.104427114 -0.48868117 -0.4242473
0.2752392 0.45166093 -0.21268448 0.58383983 -0.05883819 0.90284765 -0.08708884 -0.021449685
0.55963916 -0.18613288 0.9200238 1.0040914 -0.030459464 -0.083945796 0.47799143 0.19799267
0.03564852 0.19450422 0.06867332 0.5513739 -0.5615506 0.14050618 -0.24549183 -0.3665183
-0.29203156 0.68659586 0.7935004 -0.6656395 -0.13205731 0.42638513 -0.22277044 0.082595736
0.37962 -0.66572374 0.099263504 0.22219412 0.09347181 0.48422125 0.76495653 -0.7608907
-0.36944923 -0.024855852 0.31249422 -0.36371547 0.37175202 0.5827889 0.86976796 0.82478505
0.19379908 -0.22243534 0.1544097 -0.78917104 0.9857373 0.53933865 0.2484877 0.9459597
0.6102467 -0.13617307 -0.4369286 0.5267271 -0.11107852 -0.36660147 -0.10995489 -0.2345323
0.0043222453 0.41569543 -0.66885287 -0.7570029 0.56092006 -0.5194108 -0.8526573 0.8072728
-0.028445423 -0.6312086 -0.53279036 0.6908328 0.21314105 0.16539718 -0.62639284 0.38804507
0.39367256 0.16205442 0.021303566 0.7852491 0.451499 0.5810687 0.26677516 -0.2641113
0.3399783 0.25489014 -0.7480137 -0.2930844 0.47225374 0.5745539 -0.47431996 0.012180896
0.31767806 0.25824514 0.047424603 -0.2663343 0.5611695 -0.1234809 1.0606227 0.07036411
