dqn.pth (torch, 178674 bytes, 38 tensors)

actor.preprocess.model.0.weight f4 [128, 3]
0.41154137 0.22076371 0.46176213 0.53442454 -0.050997294 -0.57248616 -0.49634826 0.3337776
0.023254981 0.44391495 0.075889 -0.4104893 -0.07479428 0.39428622 0.20083663 -0.13396654
-0.10506868 -0.17750624 -0.051438488 -0.38772002 0.46357659 0.37716976 -0.33841345 0.16565587
-0.07639707 0.4207019 0.30104026 -0.25384504 0.5783775 0.50595534 -0.07312191 0.44421723
-0.18984286 -0.2722119 -0.43341374 0.351291 0.1502086 -0.4888423 0.31990024 0.18684813
-0.3569085 -0.11990989 0.17403807 -0.45568997 0.15654266 -0.054907 0.38718948 0.35708487
-0.48507196 0.07670678 0.06509696 0.40982518 0.3019442 0.38432965 -0.39595664 -0.2570108
-0.3018934 0.11957704 -0.31645405 -0.31173256 0.20829894 0.56535363 0.244361 -0.53884184
-0.21976852 -0.46266156 0.318064 0.37843797 0.14185321 -0.43836358 0.58568674 0.48415014
0.09476704 -0.24922675 0.3167806 -0.28689304 -0.34918645 -0.22138691 0.2502699 0.1945093
-0.5020276 -0.2660963 -0.43060023 0.17357327 0.3093499 -0.46732333 0.43224427 0.14473608
-0.41839325 -0.15082985 -0.5098611 -0.49858564 -0.14384808 -0.09587794 0.21861371 0.3372161
0.09290202 -0.47561392 -0.3319473 0.3816308 -0.3644057 0.483719 -0.3888338 0.5039453
0.4950626 -0.5548386 -0.46809202 -0.10600409 -0.30521664 0.39352217 -0.06904025 0.029617535
0.22642326 0.48803335 0.3628762 -0.3276245 0.13712962 -0.09730316 0.31153855 -0.29301122
-0.21329789 -0.37613696 -0.10834951 -0.28024876 0.34356937 0.4820043 0.2799271 0.3250488
-0.54658294 0.312785 0.5747307 0.46247908 0.08769256 0.16286062 0.55563927 0.32027733
-0.014525447 0.36076444 -0.41934362 0.0071213553 -0.112213515 -0.08519842 0.44985646 0.20294973
-0.42521143 -0.35307372 0.061239973 -0.01772262 0.21907097 -0.41828716 -0.23769732 0.4527843
0.49110168 0.21327026 -0.053950537 -0.4048761 -0.4224034 0.1639011 -0.13367704 0.46105638
-0.43198586 0.4712633 -0.47384351 0.22598097 0.4186917 -0.20143862 -0.36377752 -0.49709773
-0.23152828 -0.39765105 -0.42898706 0.5236643 -0.20201285 0.36349785 -0.109705366 -0.46030515
0.5411241 0.47246507 -0.36225542 -0.0664669 0.35026458 -0.1306211 -0.3694267 0.41427687
0.5544461 0.3638317 0.18517624 0.21796937 0.07259556 0.43711177 -0.33205035 0.17366022
0.22795705 -0.41562873 0.33080575 0.15293528 -0.2858949 0.085496195 0.47521043 0.37318185
-0.2470207 0.24514934 0.21565801 0.121127784 0.05583001 0.49271137 0.08378459 0.28166768
-0.35941753 0.07979632 -0.32394347 -0.14929976 0.35695884 0.3212073 -0.081696466 0.113941714
-0.16669665 0.26952597 0.4330087 0.56870663 -0.3283456 0.1847066 0.012750669 0.024062267
-0.018856563 0.011841307 -0.1128512 -0.3847551 -0.29021972 0.06833899 -0.11768641 0.48337477
0.24416973 -0.10232363 -0.5526387 -0.08572644 -0.44245824 -0.3141754 -0.05751127 -0.4413672
0.19631 -0.20299464 0.54930055 -0.014310539 -0.032822967 -0.4597463 -0.48693445 -0.49034113
-0.30908307 -0.13678828 0.5379716 0.093003824 -0.37451884 0.391104 -0.33748987 0.5077339
00000000: 8db5 d23e e20f 623e 166c ec3e 0cd0 083f
00000010: 8ae2 50bd 748e 12bf 5c21 febe e6e4 aa3e
00000020: 3b81 be3c d248 e33e b16b 9b3d a72b d2be
00000030: be2d 99bd e2df c93e 1ea8 4d3e 862e 09be
00000040: 402e d7bd 32c4 35be 2ab1 52bd 3d83 c6be
00000050: e959 ed3e 651c c13e 8744 adbe b1a1 293e
00000060: 1176 9cbd 3d66 d73e f321 9a3e faf7 81be
00000070: 8c10 143f 4a86 013f f1c0 95bd 7170 e33e
00000080: 2b66 42be 5c5f 8bbe 68e8 ddbe 6adc b33e
00000090: 49d0 193e 8a49 fabe f7c9 a33e 1e55 3f3e
000000a0: b6bc b6be 5193 f5bd 0937 323e 3250 e9be
000000b0: b84c 203e 2ae6 60bd b33d c63e d4d3 b63e
000000c0: 5a5b f8be 7218 9d3d 8e51 853d 9bd4 d13e
000000d0: 6e98 9a3e dbc6 c43e d4ba cabe eb96 83be
000000e0: c691 9abe cfe4 f43d 4406 a2be 699b 9fbe
000000f0: 514c 553e 04bb 103f c539 7a3e 8af1 09bf
00000100: 000b 61be fae1 ecbe 49d9 a23e 9fc2 c13e
00000110: f841 113e 3171 e0be 91ef 153f 87e2 f73e
00000120: 3915 c23d 4c35 7fbe 1131 a23e a5e3 92be
00000130: 91c8 b2be 40b3 62be 6023 803e 722d 473e
00000140: e184 00bf c63d 88be a277 dcbe 31bd 313e
00000150: 1c63 9e3e 0145 efbe 1f4f dd3e b235 143e
00000160: a437 d6be 2473 1abe 4286 02bf 9e46 ffbe
00000170: e94c 13be a75b c4bd 46dc 5f3e 97a7 ac3e
00000180: 6a43 be3d ab83 f3be fff4 a9be 1d65 c33e
00000190: 6293 babe 04aa f73e 3915 c7be 8f02 013f
000001a0: d878 fd3e e709 0ebf c2a9 efbe ac18 d9bd
000001b0: 5b45 9cbe bd7b c93e f964 8dbd 79a0 f23c
000001c0: 80db 673e 82df f93e e9ca b93e 66be a7be
000001d0: b56b 0c3e e146 c7bd fb81 9f3e 9105 96be
000001e0: c36a 5abe 0695 c0be 59e6 ddbd c47c 8fbe
000001f0: 53e8 af3e 45c9 f63e 9b52 8f3e cc6c a63e
00000200: dcec 0bbf 5b25 a03e 8d21 133f 0fca ec3e
00000210: 2898 b33d efc4 263e 603e 0e3f 64fb a33e
00000220: 24fc 6dbc 1eb6 b83e 35b4 d6be 425a e93b
00000230: 33d0 e5bd 827c aebd 9653 e63e 0ed2 4f3e
00000240: 50b5 d9be 14c6 b4be c4d6 7a3d 072f 91bc
00000250: 2454 603e bc29 d6be ed66 73be 58d3 e73e
00000260: ae71 fb3e 8563 5a3e 3dfb 5cbd ec4b cfbe
00000270: 4245 d8be b1d5 273e a2e2 08be 950f ec3e
00000280: 402d ddbe 6c49 f13e 9e9b f2be 8e67 673e
00000290: c25e d63e ed45 4ebe 0c41 babe 9883 febe
000002a0: c015 6dbe eb98 cbbe 31a4 dbbe dd0e 063f
000002b0: 75dc 4ebe 641c ba3e 35ad e0bd 1ead ebbe
000002c0: 1c87 0a3f f1e6 f13e 8b79 b9be cc1f 88bd
000002d0: e155 b33e 8ac1 05be 7f25 bdbe 191c d43e
000002e0: 2ef0 0d3f 2648 ba3e d79e 3d3e 5d33 5f3e
000002f0: fbac 943d 1dcd df3e 8102 aabe fcd3 313e
00000300: 936d 693e 4acd d4be 5f5f a93e 119b 1c3e
00000310: d160 92be a118 af3d c84e f33e b111 bf3e
00000320: fff2 7cbe 6e08 7b3e 74d5 5c3e d811 f83d
00000330: 02ae 643d aa44 fc3e 4197 ab3d bf36 903e
00000340: 9305 b8be 416c a33d ebdb a5be 09e2 18be
00000350: 4fc3 b63e 4975 a43e 7a50 a7bd 465a e93d
00000360: 87b2 2abe 4fff 893e 51b3 dd3e c296 113f
00000370: ea1c a8be ba23 3d3e 2fe8 503c 3b1e c53c
00000380: 1479 9abc 0b02 423c 881e e7bd 9ffe c4be
00000390: ae97 94be 50f5 8b3d 9305 f1bd e67c f73e
000003a0: a107 7a3e 0d8f d1bd bb79 0dbf 5891 afbd
000003b0: e389 e2be 99db a0be f090 6bbd e2fa e1be
000003c0: 7d05 493e d4dd 4fbe f69e 0c3f c076 6abc
000003d0: 6071 06bd de63 ebbe 794f f9be fe0d fbbe
000003e0: 2340 9ebe 3a12 0cbe 82b8 093f ca78 be3d
000003f0: efc0 bfbe c93e c83e 79cb acbe d9fa 013f

actor.preprocess.model.0.bias f4 [128]
0.20268947 0.24746804 -0.109347075 -0.3185774 0.32430834 -0.17683676 0.6634503 0.65512645
0.04290513 0.8460348 -0.48492488 0.099745885 0.02186657 -0.25248182 0.055584636 -0.1419414
0.054079395 0.28732252 -0.22424391 0.20482892 0.5916806 0.43605387 0.09292918 0.6087505
0.70355064 0.11151844 0.35170937 0.44208878 -0.086721465 -0.12822846 0.33194587 -0.28821874
-0.52455336 0.610349 0.2840137 -0.4767422 -0.23325175 0.5746625 -0.4768692 0.47855765
0.4148116 0.40804544 0.92965204 0.68069637 -0.2694391 -0.26383367 0.25261486 0.89929736
0.012550076 0.48569545 0.7741021 0.90086865 -0.11707587 0.7576229 0.14975357 0.40357777
0.52939516 0.69194686 -0.24327742 -0.20381543 0.50775754 0.28237256 -0.570777 0.5155385
0.06753125 -0.3456234 0.2442158 -0.11313265 0.66001004 -0.41859218 0.78428775 -0.18479033
0.022661299 -0.25742495 0.8650703 -0.52141404 0.061621506 0.03668608 -0.014956474 -0.19422388
0.41244915 -0.5296967 -0.5057199 0.84837824 -0.3854894 -0.25292426 -0.4359482 -0.026421772
0.04697918 0.42726207 0.104740575 0.09910573 0.5139163 -0.30180913 0.30581534 -0.118605815
-0.12666823 -0.10763544 0.77817625 0.5418228 0.3788245 0.1476094 0.59721005 -0.06832282
-0.51768696 -0.2567198 -0.006861328 -0.100406885 -0.31466165 0.757766 0.022505274 0.32600382
-0.15297954 -0.39683965 0.3172629 -0.44003642 0.13671656 0.48804787 -0.24070083 0.70719063
0.9509902 -0.12725748 0.5524068 -0.0774481 -0.13137758 0.26712534 0.022898579 -0.5607378
00000000: d48d 4f3e 4368 7d3e 5cf1 dfbd 941c a3be
00000010: be0b a63e b214 35be e1d7 293f 5eb6 273f
00000020: 4abd 2f3d bd95 583f 1348 f8be 9247 cc3d
00000030: 8521 b33c 4c45 81be b7ac 633d 1659 11be
00000040: 5b82 5d3d f01b 933e 32a0 65be acbe 513e
00000050: 6178 173f 7442 df3e a751 be3d 13d7 1b3f
00000060: e51b 343f c863 e43d 4013 b43e 7659 e23e
00000070: 069b b1bd 524e 03be cff4 a93e 6891 93be
00000080: 2149 06bf d53f 1c3f 3e6a 913e 8e17 f4be
00000090: 8cd9 6ebe 151d 133f 3328 f4be 8205 f53e
000000a0: 3062 d43e 55eb d03e adfd 6d3f 1e42 2e3f
000000b0: ecf3 89be 3515 87be bc56 813e 5a38 663f
000000c0: d59e 4d3c 13ad f83e 8e2b 463f 549f 663f
000000d0: 79c5 efbd 93f3 413f 0059 193e bfa1 ce3e
000000e0: 7186 073f 6e23 313f b71d 79be feb4 50be
000000f0: 66fc 013f 2393 903e 711e 12bf 55fa 033f
00000100: d34d 8a3d 8df5 b0be b513 7a3e 17b2 e7bd
00000110: 6bf6 283f b751 d6be 15c7 483f ad39 3dbe
00000120: 30a4 b93c 34cd 83be 3f75 5d3f 647b 05bf
00000130: d566 7c3d 2544 163d 000c 75bc a0e2 46be
00000140: 892c d33e 349a 07bf dc76 01bf 512f 593f
00000150: de5e c5be 4a7f 81be 9a34 dfbe 7972 d8bc
00000160: 3e6d 403d 18c2 da3e 3a82 d63d f2f7 ca3d
00000170: 0590 033f ba86 9abe d493 9c3e 9be7 f2bd
00000180: 51b5 01be f86f dcbd 8f36 473f e6b4 0a3f
00000190: 49f5 c13e eb26 173e c2e2 183f d6ec 8bbd
000001a0: 2287 04bf c770 83be fed4 e0bb 20a2 cdbd
000001b0: 551b a1be f4fc 413f fb5c b83c f9e9 a63e
000001c0: aba6 1cbe 912e cbbe 4870 a23e 744c e1be
000001d0: 6dff 0b3e 69e1 f93e 477a 76be 720a 353f
000001e0: 1874 733f c94f 02be 886a 0d3f 1c9d 9ebd
000001f0: d887 06be a7c4 883e cd95 bb3c 838c 0fbf

actor.preprocess.model.2.weight f4 [128, 128]
-0.06923217 -0.073617764 0.008541301 -0.013264477 -0.06402934 -0.052319527 -0.06300758 -0.016281508
0.015003547 -0.048680685 0.07564414 0.056976147 -0.007529594 0.03441132 -0.03569168 -0.075864576
-0.01675333 0.03977535 0.06292062 -0.026383273 -0.052824803 0.011497922 0.053872325 -0.083211236
0.05114708 0.030148834 -0.013587736 0.06900469 0.037963085 -0.052028745 0.008407444 -0.07441186
0.061405487 -0.053837698 -0.028285425 -0.027970891 0.04589214 -0.025042884 -0.050541416 0.03840678
-0.007666394 0.068856366 0.017738953 -0.085301034 -0.036781892 0.020004503 0.07053078 -0.028872002
-0.00713934 -0.07997929 0.085807435 -0.038335275 -0.03912122 -0.050560094 0.07132257 0.05703648
-0.03688473 -0.0692125 0.069565035 -0.0122535825 -0.06009344 0.007650815 -0.06282699 0.08688962
-0.0112981275 0.016509436 0.007108286 -0.022989586 0.045694478 -0.043302305 -0.07615728 -0.030651662
-0.07016104 -0.04509993 0.046954744 -0.04924559 -0.010075338 -0.028381359 0.024794228 0.031998277
-0.07305762 -0.020992547 -0.034937724 0.05037131 0.06886024 0.07689784 -0.03217306 -0.0061947927
-0.009483144 -0.05237297 -0.026650082 -0.07037336 -0.01135923 0.0011575967 -0.08104792 -0.07191691
0.053650998 -0.022888795 0.016348332 -0.01124908 -0.02090662 -0.060079403 0.018328086 -0.08639176
-0.04996507 -0.041968923 -0.080914766 0.028951228 -0.047287002 -0.07399952 0.026133396 -0.030385002
0.0332909 -0.08488959 -0.057771444 0.032704152 0.03293979 -0.07906572 -0.05757054 0.01555872
-0.014022648 0.047121547 -0.015808143 0.033517912 -0.005986646 0.07008352 -0.04267757 -0.044138476
-0.090215616 -0.087678395 0.0029900372 -0.007220594 0.024482291 -0.08339383 0.033976458 0.08178045
-0.0072229723 -0.018085461 0.04086562 -0.06427474 0.04982523 0.063790396 0.08101578 -0.009442661
-0.033855416 -0.025033794 0.0053139552 -0.023688026 -0.021840917 0.06872282 -0.015390498 0.03702915
-0.01540967 0.059372015 0.04439546 -0.052585937 -0.073716916 -0.057495106 0.022837698 -0.037337624
-0.08652471 0.0052285288 -0.07761605 -0.010525279 -0.05690127 0.06361044 -0.03865233 -0.060821027
-0.06640862 -0.08433498 -0.034706876 -0.072703645 -0.005099768 -0.015588537 -0.036661077 -0.074061126
-0.06767545 -0.05919464 0.057690285 0.056985453 0.07576502 0.02709904 0.087456204 0.052703418
0.046280704 -0.06179053 0.026559973 0.082009286 -0.0868333 -0.07577665 0.048055205 -0.038072325
-0.037540358 -0.009604382 -0.022707988 0.049334954 -0.028043922 -0.016595181 -0.06684537 0.051968075
0.045271084 0.0007914552 -0.019769914 0.061892197 -0.025819264 0.07990809 0.055620708 -0.07329954
0.034250103 0.01574073 -0.01267457 -0.03611554 -0.053892225 0.07214843 0.061744593 -0.011981595
-0.01741999 0.028487258 0.077547155 0.038710825 -0.069870465 0.026919909 0.0018622087 0.049377207
-0.08574275 -0.03364325 -0.025666116 -0.07380744 0.07545084 -0.06883812 0.004375593 0.056248564
0.055320747 -0.02408962 -0.04177942 0.07027371 0.045942027 -0.06307796 0.07132743 -0.0010121089
-0.03899143 -0.08873537 0.07525837 -0.011365771 0.01814431 0.041103553 0.051354945 0.025233472
0.07265985 -0.0058055962 0.008087287 0.08709099 -0.07349287 0.059252113 -0.056039866 -0.017355911
00000000: 99c9 8dbd e9c4 96bd d0f0 0b3c 4053 59bc
00000010: d121 83bd 004d 56bd 1e0a 81bd cc60 85bc
00000020: 70d1 753c 6665 47bd 51eb 9a3d d25f 693d
00000030: d0ba f6bb e2f2 0c3d 7031 12bd e35e 9bbd
00000040: 483e 89bc 7aeb 223d 87dc 803d bc21 d8bc
00000050: d25e 58bd c861 3c3c 3aa9 5c3d a76a aabd
00000060: 9a7f 513d b0fa f63c 189f 5ebc 5552 8d3d
00000070: 2e7f 1b3d 181c 55bd 60bf 093c 3f65 98bd
00000080: 5284 7b3d eb84 5cbd d6b6 e7bc 3623 e5bc
00000090: 66f9 3b3d bc26 cdbc 8404 4fbd 6e50 1d3d
000000a0: 6036 fbbb 9104 8d3d 4851 913c 4fb2 aebd
000000b0: 9ca8 16bd 7ce0 a33c 7172 903d fa84 ecbc
000000c0: 20f1 e9bb 2fcc a3bd cfbb af3d 7305 1dbd
000000d0: 933d 20bd 1a18 4fbd 9111 923d 169f 693d
000000e0: 7114 17bd 48bf 8dbd 1d78 8e3d 40c3 48bc
000000f0: 8a24 76bd b0b3 fa3b 70ab 80bd 2ff3 b13d
00000100: c81b 39bc cc3e 873c a0ec e83b a854 bcbc
00000110: 222a 3b3d c25d 31bd 59f8 9bbd 3219 fbbc
00000120: 97b0 8fbd b4ba 38bd 9e53 403d beb5 49bd
00000130: 0813 25bc 0680 e8bc 441d cb3c a010 033d
00000140: 3c9f 95bd 90f8 abbc dc1a 0fbd 2652 4e3d
00000150: 9906 8d3d 9d7c 9d3d e6c7 03bd b0fd cabb
00000160: 305f 1bbc 0a85 56bd 4651 dabc e81f 90bd
00000170: 101c 3abc 80ba 973a 74fc a5bd 2c49 93bd
00000180: 26c1 5b3d 4881 bbbc f0ec 853c 104e 38bc
00000190: 5c44 abbc d215 76bd c824 963c 2aee b0bd
000001a0: 2ca8 4cbd 9be7 2bbd a4b6 a5bd 202b ed3c
000001b0: 04b0 41bd 0f8d 97bd b415 d63c f8e9 f8bc
000001c0: 0a5c 083d 98da adbd c0a1 6cbd caf4 053d
000001d0: e0eb 063d 35ed a1bd 16cf 6bbd 00ea 7e3c
000001e0: 40bf 65bc 8602 413d 1480 81bc 144a 093d
000001f0: a02b c4bb f387 8f3d adce 2ebd 8cca 34bd
00000200: f7c2 b8bd bb90 b3bd 80f4 433b bc9a ecbb
00000210: 168f c83c 62ca aabd e62a 0b3d 827c a73d
00000220: afae ecbb f627 94bc b562 273d 7aa2 83bd
00000230: 8a15 4c3d 8aa4 823d 9aeb a53d 64b5 1abc
00000240: faab 0abd ac13 cdbc b020 ae3b 640d c2bc
00000250: b9eb b2bc 8dbe 8c3d 6d28 7cbc e1ab 173d
00000260: d778 7cbc 1230 733d 04d8 353d 5a64 57bd
00000270: e5f8 96bd fd7f 6bbd 2016 bb3c 56ef 18bd
00000280: de33 b1bd 1454 ab3b 2af5 9ebd 3872 2cbc
00000290: 4e11 69bd 3146 823d e851 1ebd 781f 79bd
000002a0: 3e01 88bd d1b7 acbd cc28 0ebd a6e5 94bd
000002b0: f41b a7bb 1067 7fbc ed29 16bd 5cad 97bd
000002c0: 6d99 8abd 1476 72bd a64c 6c3d 9469 693d
000002d0: b12a 9b3d cefe dd3c 3d1c b33d 8adf 573d
000002e0: d690 3d3d 1118 7dbd 4d94 d93c 7cf4 a73d
000002f0: a8d5 b1bd ca30 9bbd 89d5 443d baf1 1bbd
00000300: ebc3 19bd b35b 1dbc 1a06 babc 7313 4a3d
00000310: 5ebc e5bc 9ef2 87bc 3ae6 88bd 7adc 543d
00000320: 2c6e 393d a979 4f3a 84f4 a1bc ac82 7d3d
00000330: ec82 d3bc daa6 a33d 8ad2 633d 121e 96bd
00000340: d649 0c3d b4f2 803c 00a9 4fbc e3ed 13bd
00000350: 18be 5cbd 8ec2 933d e6e7 7c3d 744e 44bc
00000360: 5eb4 8ebc 1c5e e93c 0bd1 9e3d 3e8f 1e3d
00000370: 3f18 8fbd 2487 dc3c 5b15 f43a c13f 4a3d
00000380: e599 afbd 81cd 09bd bf41 d2bc 5b28 97bd
00000390: f885 9a3d 00fb 8cbd 2261 8f3b e564 663d
000003a0: 0298 623d 9857 c5bc e620 2bbd aaeb 8f3d
000003b0: b52d 3c3d 042f 81bd 1e14 923d bda8 84ba
000003c0: 7ab5 1fbd e4ba b5bd 0f21 9a3d 8037 3abc
000003d0: 60a3 943c 335c 283d 9059 523d 6db6 ce3c
000003e0: b0ce 943d df3c bebb 8a80 043c c35c b23d
000003f0: 6e83 96bd 58b2 723d 0f8a 65bd fc2d 8ebc

actor.preprocess.model.2.bias f4 [128]
-0.055603758 0.027831743 -0.0874868 0.29044864 0.0166259 0.30382112 0.3146725 0.33074233
0.30455536 0.27812332 0.3085969 0.29973972 0.31120554 0.27543902 0.334748 0.21091245
-0.2816155 0.27746052 0.35956275 0.2845584 0.3502732 0.34469035 0.28374743 0.3404709
0.0730063 0.3420822 0.029169371 -0.23115486 0.36528373 0.4015971 0.2782383 -0.20170721
0.2102282 -0.054584287 -0.07950698 0.003027685 -0.070635796 0.0112852305 0.3383961 0.2652631
0.028364975 0.25291294 0.18640399 0.21645482 0.37814415 0.26730105 0.32827437 -0.058777742
-0.06276101 0.21121657 -0.025105521 0.35385025 0.32629266 0.31179002 0.25379986 0.25728604
0.36617017 -0.05875597 0.3072762 -0.0075979903 0.016439918 0.2566302 0.2804269 0.3190225
0.25438115 0.23969273 0.3920542 -0.088786654 0.3013199 -0.032113787 0.3764629 0.054027155
0.07549221 0.3561576 0.27957714 -0.08198046 0.30514094 0.37231147 -0.09458442 0.33470598
0.014017491 0.24886093 -0.10331537 0.065399475 0.06749131 -0.007847943 0.35095564 0.3045359
-0.009384818 0.29617307 0.38711166 0.20770732 0.2697525 0.34813178 0.37265745 0.25197914
0.03500979 -0.059981134 0.28135926 0.29456025 0.36910728 -0.20158584 0.25003466 0.2829662
0.22419266 0.2201224 0.36415544 0.36562443 0.28291857 0.37377805 0.2974505 0.35607368
0.31990588 0.18234646 0.3077595 0.40615422 0.08018843 0.32109466 -0.14855559 0.028375037
0.26645604 -0.055037744 0.25368086 0.29279009 0.31507543 0.05296012 0.21639284 0.23923084
00000000: c4c0 63bd 65ff e33c 482c b3bd afb5 943e
00000010: 0a33 883c 718e 9b3e c11c a13e 0f57 a93e
00000020: aeee 9b3e 2e66 8e3e 6a00 9e3e 7c77 993e
00000030: 5556 9f3e 5806 8d3e 1764 ab3e 6ff9 573e
00000040: e82f 90be 4e0f 8e3e 9c18 b83e a3b1 913e
00000050: 0257 b33e 417b b03e 5847 913e 3452 ae3e
00000060: 5484 953d 6625 af3e 9bf4 ee3c dcb3 6cbe
00000070: 7806 bb3e 239e cd3e 4075 8e3e 568c 4ebe
00000080: 1046 573e c693 5fbd 8ed4 a2bd 206c 463b
00000090: 80a9 90bd b0e5 383c 4142 ad3e 91d0 873e
000000a0: aa5d e83c ce7d 813e b0e0 3e3e 55a6 5d3e
000000b0: 1c9c c13e afdb 883e 9413 a83e eec0 70bd
000000c0: d888 80bd 2849 583e 18aa cdbc dc2b b53e
000000d0: d50f a73e f1a2 9f3e 0ef2 813e ffba 833e
000000e0: a87a bb3e 1aaa 70bd 4e53 9d3e 90f8 f8bb
000000f0: 02ad 863c 0965 833e 1d94 8f3e eb56 a33e
00000100: 3f3e 823e 0372 753e 54bb c83e c7d5 b5bd
00000110: 9a46 9a3e bf89 03bd bfbf c03e 944b 5d3d
00000120: a99b 9a3d 4a5a b63e bc24 8f3e 5fe5 a7bd
00000130: 6f3b 9c3e 9c9f be3e 7ab5 c1bd 955e ab3e
00000140: 9ea9 653c 66d5 7e3e 0297 d3bd 29f0 853d
00000150: e238 8a3d a994 00bc 75b0 b33e 21ec 9b3e
00000160: c8c2 19bc ffa3 973e 8033 c63e 3ab1 543e
00000170: 001d 8a3e 543e b23e f5cc be3e 6903 813e
00000180: 6d66 0f3d c7ae 75bd 520e 903e 9ad0 963e
00000190: a1fb bc3e 856c 4ebe 8b04 803e f2e0 903e
000001a0: c392 653e c467 613e 9572 ba3e 2033 bb3e
000001b0: b4da 903e d65f bf3e 6f4b 983e 4a4f b63e
000001c0: b4ca a33e 08b9 3a3e a792 9d3e 72f3 cf3e
000001d0: d539 a43d 8566 a43e f51e 18be c472 e83c
000001e0: ed6c 883e 426f 61bd 75e2 813e 95e8 953e
000001f0: 9151 a13e b6ec 583d 1696 5d3e eef8 743e

actor.preprocess.model.4.weight f4 [128, 128]
-0.020872973 -0.08424882 0.059827864 0.0102010695 -0.0004051025 0.07433696 0.037578817 0.054713845
0.092828184 0.071129814 0.033227604 0.08956661 0.07888926 -0.05446652 0.07613612 0.078109615
-0.08349112 0.061754692 -0.010907947 -0.0043029482 0.08321055 0.055037666 0.06848684 0.0048678927
-0.019507745 -0.06200386 -0.05112263 -0.012677067 0.117627546 0.06376284 -0.0094378255 -0.0067866575
0.08744565 -0.08601893 -0.017275829 -0.046558518 0.07177659 -0.009498194 0.051960092 -0.01334511
0.000817476 -0.027518129 -0.013267221 0.02248265 -0.046213083 0.0871616 0.054512527 -0.0880367
0.04153139 0.019944113 0.070609756 0.08676852 -0.023292104 0.08837069 -0.019292856 -0.017144954
0.035914294 0.058673896 -0.023866884 -0.0344563 0.052859776 -0.0209393 0.06483983 -0.016133664
0.09730896 -0.06686016 0.021755336 -0.07239524 -0.03597322 0.027053842 0.07711307 0.020317549
-0.031851184 0.095863864 0.0035741962 -0.08638193 -0.049796473 0.10044393 -0.018414164 -0.04221539
0.013590968 -0.020714436 0.06415461 0.050574653 0.043991778 0.08433339 0.0051455437 0.0017741439
0.029223055 0.019496314 -0.03370649 -0.008974138 -0.023833083 -0.01091816 -0.04563926 -0.016334428
-0.04126744 -0.02415563 0.06977674 -0.008673125 0.101582564 -0.09221082 0.08348052 0.0028568916
0.0019829867 0.020532684 0.007253531 -0.05369724 -0.048811078 0.0801076 -0.02233744 0.12635686
-0.067560434 0.020374775 0.070214614 0.08534313 0.072980635 0.071393095 0.030049581 0.0007756427
-0.037770066 0.012867287 0.06951865 -0.047789115 -0.023552252 -0.030998185 0.05610711 0.07567502
0.015209451 0.006128616 -0.019470919 0.099297345 0.032330878 -0.023412637 0.095880456 0.013400535
0.01960428 0.07368012 -0.045767415 0.05897715 0.029067276 0.055904407 0.048609413 0.048614282
-0.06513337 0.085456625 0.035789557 -0.0010263124 0.052160125 0.025837027 -0.009658991 -0.069442175
0.06460014 0.02018693 0.05844215 0.02855408 0.00046875887 0.05882225 0.043877427 0.011977087
-0.06666167 -0.046027 -0.007901046 0.02891668 0.006612554 -0.06071323 0.023138821 -0.020707572
0.07323183 0.078961775 0.058732014 0.030064596 -0.014375485 0.09129628 0.03597314 0.06931957
-0.007409215 0.047084462 -0.033855785 0.074113175 0.007619277 0.086833924 0.025608966 -0.0026318186
-0.013371759 0.0251244 -0.036799435 -0.08087545 -0.073363595 0.03149239 -0.049422927 0.031797543
-0.06989431 -0.045964126 -0.046662517 -0.078254975 0.061634872 -0.01927774 -0.011565868 0.03466914
0.07273928 0.020941684 -0.06988843 0.07159066 0.056764416 0.035346724 0.019625263 0.052061323
-0.042736653 0.098048285 -0.021262633 0.030918442 -0.0007888844 0.038499583 0.039245535 0.07002564
0.05926176 -0.0454951 0.004368542 0.08378413 0.0104229245 -0.019198682 0.02022622 0.09753893
-0.057054326 -0.023099108 -0.04363613 0.093299724 -0.05295615 0.040112156 0.086863965 -0.05969444
-0.018036006 0.04117218 0.10773283 0.024243396 -0.038164414 0.053273045 0.07700465 0.0037927802
0.0091074165 0.032932326 0.06737768 0.03487563 -0.03850536 0.015111635 -0.055906136 0.007361509
-0.00030200265 0.04338459 -1.0559957e-05 0.097875156 0.094552055 0.036298648 0.058248684 0.04593773
00000000: ccfd aabc a58a acbd 100e 753d 6322 273c
00000010: f063 d4b9 fa3d 983d 3fec 193d a01b 603d
00000020: b41c be3d 82ac 913d ab19 083d b36e b73d
00000030: b190 a13d 4918 5fbd 41ed 9b3d eff7 9f3d
00000040: 64fd aabd 7df2 7c3d 3fb7 32bc bfff 8cbb
00000050: 4b6a aa3d 2d6f 613d d442 8c3d d882 9f3b
00000060: b5ce 9fbc c2f7 7dbd f665 51bd 79b3 4fbc
00000070: b6e6 f03d 1896 823d 1ca1 1abc 9c62 debb
00000080: b416 b33d b12a b0bd 0a86 8dbc 25b4 3ebd
00000090: 9bff 923d 509e 1bbc 1bd4 543d 73a5 5abc
000000a0: e34b 563a b36d e1bc c25e 59bc 892d b83c
000000b0: ee49 3dbd c881 b23d 8748 5f3d 964c b4bd
000000c0: d21c 2a3d d661 a33c d99b 903d b2b3 b13d
000000d0: 15cf bebc b1fb b43d 0d0c 9ebc 9373 8cbc
000000e0: de1a 133d 0a54 703d 7c84 c3bc 0d22 0dbd
000000f0: 7e83 583d e588 abbc bfca 843d bf2a 84bc
00000100: ec49 c73d fbed 88bd 3f38 b23c f543 94bd
00000110: a858 13bd 05a0 dd3c 75ed 9d3d fd70 a63c
00000120: 6376 02bd 4654 c43d 103d 6a3b 02e9 b0bd
00000130: 63f7 4bbd 8cb5 cd3d 4dd9 96bc 0bea 2cbd
00000140: a7ac 5e3c 52b1 a9bc 7e63 833d 5e27 4f3d
00000150: b930 343d fcb6 ac3d f39b a83b 648a e83a
00000160: 3065 ef3c bcb6 9f3c d10f 0abd 4308 13bc
00000170: 993d c3bc 15e2 32bc 3cf0 3abd c7cf 85bc
00000180: 0c08 29bd 07e2 c5bc 1ce7 8e3d b919 0ebc
00000190: 850a d03d 07d9 bcbd d6f7 aa3d b03a 3b3b
000001a0: fff4 013b 2934 a83c 07af ed3b a3f1 5bbd
000001b0: 20ee 47bd 740f a43d 02fd b6bc b163 013e
000001c0: 205d 8abd 00e9 a63c aecc 8f3d 61c8 ae3d
000001d0: df76 953d 8b36 923d 8a2a f63c 8054 4b3a
000001e0: c9b4 1abd 50d1 523c cb5f 8e3d 85be 43bd
000001f0: a7f0 c0bc e8ef fdbc 92d0 653d 81fb 9a3d
00000200: 1031 793c 8fd2 c83b 7a81 9fbc 685c cb3d
00000210: 626d 043d dccb bfbc f95c c43d eb8d 5b3c
00000220: 2899 a03c 9ae5 963d 9d76 3bbd 0692 713d
00000230: 7f1e ee3c 05fc 643d aa1a 473d c51f 473d
00000240: a564 85bd e203 af3d 1298 123d 5485 86ba
00000250: dba5 553d 2ca8 d33c bf40 1ebc b337 8ebd
00000260: 144d 843d 105f a53c 0961 6f3d 3fea e93c
00000270: c0c3 f539 9aef 703d d1b8 333d 8b3b 443c
00000280: ea85 88bd cf86 3cbd 6473 01bc ace2 ec3c
00000290: 20ae d83b 70ae 78bd a08d bd3c eda2 a9bc
000002a0: 92fa 953d b6b6 a13d fb90 703d 074a f63c
000002b0: 2787 6bbc 8bf9 ba3d 9258 133d 6bf7 8d3d
000002c0: 00c9 f2bb a3db 403d 5dac 0abd a6c8 973d
000002d0: 21ab f93b fcd5 b13d e5c9 d13c 977a 2cbb
000002e0: 3915 5bbc b0d1 cd3c 01bb 16bd 07a2 a5bd
000002f0: a73f 96bd 2afe 003d b26f 4abd 243e 023d
00000300: bf24 8fbd e144 3cbd 3221 3fbd 2544 a0bd
00000310: d974 7c3d 5aec 9dbc c47e 3dbc 3a01 0e3d
00000320: 55f8 943d e58d ab3c aa21 8fbd 209e 923d
00000330: ce81 683d bac7 103d 29c5 a03c 413e 553d
00000340: a10c 2fbd 8acd c83d f92e aebc ac48 fd3c
00000350: 23cd 4eba bdb1 1d3d edbf 203d 9a69 8f3d
00000360: 76bc 723d 1259 3abd fd25 8f3b 0497 ab3d
00000370: eac4 2a3c 8e46 9dbc 75b1 a53c 7ec2 c73d
00000380: ccb1 69bd 573a bdbc ccbb 32bd ed13 bf3d
00000390: 8ce8 58bd a54c 243d bce5 b13d 2882 74bd
000003a0: 3fc0 93bc 29a4 283d 08a3 dc3d 169a c63c
000003b0: 4a52 1cbd d634 5a3d 9db4 9d3d 4b90 783b
000003c0: 4637 153c 0ce4 063d 4ffd 893d c0d9 0e3d
000003d0: ccb7 1dbd cb96 773c d5fd 64bd d038 f13b
000003e0: 1c56 9eb9 0ab4 313d ac2a 31b7 c572 c83d
000003f0: 82a4 c13d e4ad 143d 2c96 6e3d 3429 3c3d

actor.preprocess.model.4.bias f4 [128]
0.22843808 0.22672966 -0.0012149737 -0.24430878 -0.077324554 0.20479766 0.06193625 -0.002979517
0.24121766 0.20454864 0.018006854 0.35410953 0.34496385 -0.020205429 0.23916274 0.06546618
0.3522372 0.31235218 -0.0043712105 0.06355835 0.24075496 0.368551 -0.008726539 0.34756282
0.3021513 0.25746018 0.20503452 -0.06152227 0.36888015 0.012664375 0.3723031 -0.037443526
-0.004135073 -0.028400283 0.06342279 -0.08708582 -0.004708551 -0.06442353 0.34106076 0.35030723
0.31849706 0.37379077 0.053378798 0.21403173 0.20575817 0.3685133 0.207866 0.039197735
0.027479425 0.36025995 -0.057879083 -0.023296507 0.25215483 0.19789994 0.07932393 0.2275839
0.055845674 -0.065808415 0.36728963 0.36086544 0.07312919 -0.05232412 0.0007062547 0.02353999
0.27479574 0.2516771 -0.06618337 0.23024945 -0.012667112 -0.24165037 0.018073149 0.23640771
-0.02174946 -0.061296016 0.2735056 -0.07846612 0.28211153 0.33851746 -0.029637393 -0.00205716
0.014321573 0.07101437 0.3030492 -0.06400854 0.36134902 -0.07927501 0.2623981 0.059203897
0.20676519 0.30907437 0.032056686 0.27197695 0.066329315 -0.0036118145 0.36805958 -0.0052140625
0.020825997 0.20337476 0.2960788 -0.09641143 0.009274937 -0.048517585 -0.011384558 -0.082014486
0.08146664 -0.07499801 0.013216552 0.074057035 -0.023214445 -0.013783536 0.31747884 -0.2158607
0.34946758 0.19127612 -0.05951036 -0.0018782616 0.3687741 0.3284143 0.025357915 0.23046131
-0.08364037 0.3667434 0.3524166 0.26856247 0.28521875 0.06428356 0.23303337 0.031050514
00000000: aceb 693e d22b 683e c13f 9fba 152c 7abe
00000010: 565c 9ebd 7ab6 513e deb0 7d3d 0044 43bb
00000020: c301 773e 3375 513e 1c83 933c d84d b53e
00000030: 1a9f b03e db85 a5bc 14e7 743e 2213 863d
00000040: 6f58 b43e a0ec 9f3e 5f3c 8fbb e12a 823d
00000050: 7888 763e b7b2 bc3e c2f9 0ebc c1f3 b13e
00000060: 93b3 9a3e d2d1 833e 92f4 513e c7fe 7bbd
00000070: dcdd bc3e 3d7e 4f3c 839e be3e 625e 19bd
00000080: 827f 87bb b6a7 e8bc cfe3 813d 0d5a b2bd
00000090: 304a 9abb 7cf0 83bd 849f ae3e 785b b33e
000000a0: 0c12 a33e 8161 bf3e baa3 5a3d 222b 5b3e
000000b0: 45b2 523e c6ad bc3e d3da 543e ce8d 203d
000000c0: 881c e13c fe73 b83e 9e12 6dbd 51d8 bebc
000000d0: 701a 813e 48a6 4a3e 9674 a23d c10b 693e
000000e0: 6fbe 643d 90c6 86bd 630d bc3e 5bc3 b83e
000000f0: c2c4 953d d151 56bd f323 393a f0d6 c03c
00000100: 07b2 8c3e d2db 803e 268b 87bd 83c6 6b3e
00000110: b889 4fbc 3273 77be 240e 943c dd14 723e
00000120: ec2b b2bc 8811 7bbd ed08 8c3e d8b2 a0bd
00000130: ec70 903e 2952 ad3e 1eca f2bc 6bd1 06bb
00000140: 08a5 6a3c fb6f 913d 4429 9b3e e916 83bd
00000150: bd02 b93e f05a a2bd 0b59 863e c97f 723d
00000160: 41ba 533e ff3e 9e3e df4d 033d 9040 8b3e
00000170: aad7 873d 31b4 6cbb 4e72 bc3e bada aabb
00000180: 489b aa3c 7941 503e a497 973e 5b73 c5bd
00000190: e8f5 173c 60ba 46bd 4c86 3abc 36f7 a7bd
000001a0: fbd7 a63d 8f98 99bd 3d8a 583c 37ab 973d
000001b0: 382c bebc 57d4 61bc 968c a23e 960a 5dbe
000001c0: 6aed b23e e3dd 433e 23c1 73bd 0030 f6ba
000001d0: f5cf bc3e eb25 a83e 67bb cf3c 0dfe 6b3e
000001e0: a44b abbd cac5 bb3e f36f b43e 0581 893e
000001f0: 3108 923e 19a7 833d 4da0 6e3e a65d fe3c

actor.preprocess.model.6.weight f4 [64, 128]
0.022304684 -0.024067406 0.070256725 0.017966505 0.052813448 -0.0366655 0.034768704 -0.026723556
-0.06616558 -0.051743533 0.080122724 -0.048491906 -0.0021631704 0.07480864 -0.07496174 -0.0030450344
0.06445088 -0.012411487 0.034024917 0.022804514 -0.076706305 0.010048877 0.0377414 0.004137557
-0.06705912 0.011964072 0.04386478 -0.035214 0.0214705 0.07518084 0.026029618 -0.08266751
-0.07773709 -0.023667626 0.06364603 -0.083841674 -0.073429495 0.07153591 0.014032031 0.015265221
-0.06279186 -0.09924729 0.010810606 -0.08272892 0.0784879 -0.0151064405 -0.084207594 0.040651567
0.028128318 0.0011966252 0.03815404 0.02528321 -0.011788275 -0.10249174 0.06474935 -0.034333788
0.08073328 0.027756177 0.05928545 -0.08663319 0.035149522 0.060121633 -0.024388395 -0.012227062
0.022151986 -0.013074712 -0.052748077 0.06306416 -0.015402295 0.09443935 0.001468204 -0.031142145
0.010075264 0.010675028 0.005331912 -0.048136737 -0.04680707 0.054667093 0.010456981 0.012695978
-0.009748526 0.032486316 0.010244117 -0.058561467 0.068447135 -0.01340418 -0.037180435 -0.007209011
-0.061399892 0.03011037 0.06925027 -0.03263303 -0.087449566 -0.021526325 -0.06206676 0.0139131695
0.015530222 -0.07969022 0.012794425 -0.024188153 0.028386615 0.057320777 0.035056844 0.05990961
0.011586547 -0.017702699 -0.044038285 -0.031313296 -0.0133744255 0.054915026 0.06310977 0.05492792
0.013675585 -4.4429147e-05 0.06888738 0.015210532 0.010433557 -0.0058642384 0.070282504 -0.008670387
-0.018329725 -0.026435532 -0.0028065161 0.059345026 -0.093186505 0.048302077 -0.041485287 -0.073852025
0.0401688 -0.07310189 -0.012261231 -0.004395251 -0.01207377 0.0062087392 -0.056561165 0.03419081
0.0059676925 0.09718436 0.04749963 0.05829285 0.091637455 0.0345667 0.07851979 -0.08510286
0.04371657 -0.06407639 0.007649767 0.004849553 0.05997924 0.050344888 -0.041833557 -0.0052850377
-0.0060320874 0.019753827 -0.06172647 -0.055247623 -0.009486208 -0.061968967 0.008374798 -0.0529096
-0.0073191235 -0.08836507 -0.04958122 -0.02123487 -0.008160733 0.028196357 0.035363603 -0.046693355
0.068942375 -0.039478894 -0.035870824 0.100664146 0.022063395 0.035246108 -0.031836525 0.007311031
-0.06898415 -0.017529298 0.08229511 -0.030646365 0.059070054 -0.06142495 -0.001165359 0.103661366
-0.042708002 -0.053781126 0.072883375 -0.0062525044 0.03400409 0.00990098 0.08358362 -0.07973374
-0.008863967 0.069309056 0.065423764 0.088085406 -0.033736728 0.0617862 0.047359996 0.052058388
0.019645974 -0.010065109 -0.007496995 -0.015218183 -0.036806725 -0.004148908 0.062134326 -0.03831324
0.025934681 -0.06934514 0.009479034 -0.039610386 -0.05666463 0.017319018 0.023677237 0.008703953
-0.0125761265 -0.01761736 -0.01571915 0.037406772 -0.056038443 0.0051140347 -0.01219138 0.040445853
0.07134159 0.013181953 0.0066188853 0.040643085 -0.060681432 -0.04787224 0.054157462 -0.07597628
0.05349963 -0.067037076 -0.0580242 -0.0327997 -0.023342855 -0.042959888 0.03402576 -0.02550204
0.037296984 -5.941938e-06 -0.07240463 -0.02879836 -0.017050626 0.012689448 0.026972739 0.024975065
0.05874645 0.08771714 -0.06592962 -0.02211381 -0.012126069 0.014674783 0.008005967 -0.048720807
00000000: 50b8 b63c 0229 c5bc c2e2 8f3d 7e2e 933c
00000010: ea52 583d 902e 16bd a169 0e3d 5ceb dabc
00000020: d281 87bd 07f1 53bd 6217 a43d 739f 46bd
00000030: fac3 0dbb 4635 993d 8a85 99bd 338f 47bb
00000040: d3fe 833d 8d59 4bbc b65d 0b3d 88d0 ba3c
00000050: 3218 9dbd 0ca4 243c ba96 1a3d 5894 873b
00000060: 4b56 89bd f404 443c 8eab 333d 8e3c 10bd
00000070: e7e2 af3c 6af8 993d 113c d53c 954d a9bd
00000080: a034 9fbd 9ce2 c1bc da58 823d 2fb5 abbd
00000090: 3462 96bd 6b81 923d 9be6 653c fa1a 7a3c
000000a0: 0599 80bd 2a42 cbbd f81e 313c c86d a9bd
000000b0: 44be a03d 0181 77bc 0875 acbd 4282 263d
000000c0: 5c6d e63c 14d8 9c3a 6947 1c3d bc1e cf3c
000000d0: 9c23 41bc 30e7 d1bd 4f9b 843d 96a1 0cbd
000000e0: 7d57 a53d ec60 e33c 4dd5 723d be6c b1bd
000000f0: f2f8 0f3d 1a42 763d 2cca c7bc 0454 48bc
00000100: 1578 b53c 5137 56bc 5e0e 58bd c827 813d
00000110: e859 7cbc 6b69 c13d c070 c03a d01d ffbc
00000120: b812 253c 50e6 2e3c 52b7 ae3b 072b 45bd
00000130: c5b8 3fbd 9aea 5f3d c253 2b3c cb02 503c
00000140: 48b8 1fbc 5f10 053d f1d6 273c 26de 6fbd
00000150: 032e 8c3d 359d 5bbc 834a 18bd 9139 ecbb
00000160: 747e 7bbd 06aa f63c 16d3 8d3d 36aa 05bd
00000170: c218 b3bd fa57 b0bc b739 7ebd 10f4 633c
00000180: 7972 7e3c a034 a3bd b59f 513c 3c26 c6bc
00000190: 0c8b e83c 31c9 6a3d c497 0f3d c763 753d
000001a0: 80d5 3d3c 4005 91bc 7d61 34bd 5f42 00bd
000001b0: 6820 5bbc 94ee 603d b23f 813d 19fc 603d
000001c0: 900f 603c 6f59 3ab8 d414 8d3d 9835 793c
000001d0: 83f1 2a3c cc28 c0bb 46f0 8f3d 3d0e 0ebc
000001e0: 3828 96bc 548f d8bc 87ed 37bb c513 733d
000001f0: 91d8 bebd 66d8 453d 7aec 29bd bb3f 97bd
00000200: 0a88 243d 72b6 95bd 55e3 48bc 0a06 90bb
00000210: 10d1 45bc ae72 cb3b aeac 67bd aa0b 0c3d
00000220: a28c c33b 9808 c73d f98e 423d 7cc4 6e3d
00000230: 6bac bb3d d095 0d3d fcce a03d 694a aebd
00000240: 2510 333d 7b3a 83bd e6aa fa3b 00e9 9e3b
00000250: cbac 753d 7136 4e3d aa59 2bbd 1c2e adbb
00000260: d1a8 c5bb c7d2 a13c e5d4 7cbd 554b 62bd
00000270: 0a6c 1bbc 2cd3 7dbd 7336 093c bdb7 58bd
00000280: 42d5 efbb bff8 b4bd ad15 4bbd c0f4 adbc
00000290: 98b4 05bc 0cfc e63c 6dd9 103d 8841 3fbd
000002a0: a931 8d3d 9fb4 21bd 49ed 12bd 0129 ce3d
000002b0: 4bbe b43c 395e 103d 0467 02bd 6091 ef3b
000002c0: 9047 8dbd 9a99 8fbc 578a a83d 160e fbbc
000002d0: 71f3 713d ba98 7bbd f6be 98ba 694c d43d
000002e0: 96ee 2ebd 9949 5cbd e143 953d cfe1 ccbb
000002f0: df47 0b3d b837 223c e42d ab3d 714b a3bd
00000300: 2c3a 11bc e8f1 8d3d e5fc 853d 1f66 b43d
00000310: 862f 0abd 8713 7d3d 8efc 413d 2d3b 553d
00000320: 98f0 a03c 20e8 24bc 5aa9 f5bb b055 79bc
00000330: a6c2 16bd 90f3 87bb 9080 7e3d 58ee 1cbd
00000340: f874 d43c d304 8ebd f34d 1b3c 803e 22bd
00000350: 2c19 68bd 9de0 8d3c c4f6 c13c 069b 0e3c
00000360: 190c 4ebc 4852 90bc 72c5 80bc d837 193d
00000370: 9188 65bd a293 a73b 5bbe 47bc 8daa 253d
00000380: 8a1b 923d 1ef9 573c 3ce3 d83b 5d79 263d
00000390: 188d 78bd af15 44bd 37d4 5d3d 7499 9bbd
000003a0: 6e22 5b3d bc4a 89bd c9aa 6dbd fa58 06bd
000003b0: 8439 bfbc b5f6 2fbd 985e 0b3d a7e9 d0bc
000003c0: b9c4 183d dc60 c7b6 e148 94bd 8aea ebbc
000003d0: c1ad 8bbc 67e7 4f3c eff5 dc3c 8298 cc3c
000003e0: 1ea0 703d 0ba5 b33d 1c06 87bd 0528 b5bc
000003f0: 6bac 46bc 806e 703c 762b 033c 788f 47bd

actor.preprocess.model.6.bias f4 [64]
-0.213166 0.26185918 -0.2906239 0.23247872 -0.21114862 -0.24137315 -0.23782343 0.18902147
0.34574255 0.20643005 0.1909486 -0.34933138 -0.33861238 -0.18910751 0.34637278 0.25558376
-0.28469664 0.18869835 -0.33686408 -0.10084669 -0.29822448 -0.18861115 0.2352102 -0.20236535
-0.11130026 -0.27102917 -0.21425526 -0.18676884 -0.36790887 -0.30489406 -0.34715503 -0.3291441
-0.28604648 0.1903025 -0.23390973 0.24625064 -0.19785707 -0.19801746 -0.21470062 -0.2955801
-0.30912495 -0.024941465 -0.24183385 -0.30337358 0.1969062 0.23998816 0.22022264 0.26566178
0.17997836 0.20791578 0.28348073 -0.1903107 -0.24671398 -0.20643717 0.19022302 -0.20778342
0.24576153 -0.19755888 -0.24500218 0.26611835 -0.23083504 -0.2746253 0.3400039 0.25949502
00000000: 3048 5abe 6812 863e a8cc 94be e70e 6e3e
00000010: 5837 58be 862a 77be fc87 73be d88e 413e
00000020: 2b05 b13e 6662 533e 0888 433e 90db b2be
00000030: 9a5e adbe 66a5 41be c657 b13e e0db 823e
00000040: c2c3 91be 243a 413e 7379 acbe b688 cebd
00000050: e1b0 98be 4823 41be f1da 703e dd38 4fbe
00000060: 64f1 e3bd 56c4 8abe bb65 5bbe 5540 3fbe
00000070: 8d5e bcbe 131b 9cbe 4ebe b1be 9385 a8be
00000080: af74 92be a9de 423e 0886 6fbe 2129 7c3e
00000090: 0b9b 4abe 17c5 4abe 7bda 5bbe 4656 97be
000000a0: a045 9ebe 0b52 ccbc 4ba3 77be c853 9bbe
000000b0: c7a1 493e 75bf 753e 0b82 613e d204 883e
000000c0: 3f4c 383e e0e7 543e 6324 913e cfe0 42be
000000d0: 97a2 7cbe 4464 53be d3c9 423e 2dc5 54be
000000e0: e9a8 7b3e e04c 4abe dae1 7abe aa40 883e
000000f0: 0560 6cbe b09b 8cbe fe14 ae3e 88dc 843e

actor.last.model.0.weight f4 [9, 64]
0.11051481 -0.11653709 -0.091919065 -0.028765319 -0.0069815284 -0.024042858 0.111379966 -0.005160975
0.1029699 -0.058306716 -0.07577325 0.061204705 0.06590702 -0.10173424 0.09187781 -0.048067037
-0.043290064 0.10325781 0.11388806 0.052545313 0.11273004 -0.08172733 -0.06358289 0.07831703
0.08029987 -0.08337018 0.033248514 -0.09810292 -0.012448367 -0.010285582 0.03825267 0.11360704
-0.099771395 -0.117188066 -0.05204375 -0.055812012 0.064815186 -0.10892493 0.053376537 -0.047874022
-0.026992409 -0.030338667 0.064921126 0.045942634 -0.02320735 -0.043525063 -0.0883943 0.018212948
0.043969303 0.00032613488 0.06799318 0.12668155 0.12030739 0.011547713 0.014592648 0.016515328
-0.056413118 0.03210901 -0.001105995 0.023754265 -0.10847203 0.037918676 -0.050168876 0.020461619
0.0009757242 0.06744208 -0.018576037 -0.054759987 0.049771767 -0.08532693 -0.0022303367 0.0010801599
-0.030429838 -0.07265556 0.06222207 0.025521787 -0.06655212 -0.023553038 -0.056883782 -0.052440695
0.048744764 0.021539643 -0.11091153 -0.07880128 -0.10926988 -0.005407513 -0.120707475 -0.007951996
0.078895286 -0.048354752 -0.044992965 0.06410439 0.10538286 -0.024010774 0.025884021 0.095177874
-0.074264 -0.07287651 0.07392049 -0.10004417 0.06604103 0.12048787 0.10718062 0.0727485
-0.09457742 0.005264902 0.09292855 0.041119773 -0.10198728 -0.07826003 0.07285111 0.12168025
-0.09030398 0.053428043 0.07604886 -0.09448454 0.06571463 0.0346933 -0.003201299 0.109817445
-0.031061135 -0.05536519 0.03911026 -0.1046336 0.037005786 -0.07482632 -0.08987702 -0.11835065
-0.063643984 -0.0039301505 0.08668607 0.09460531 0.0707803 0.120175 0.030806767 0.025561273
-0.06847923 -0.08396944 -0.08152508 -0.085666955 0.053279784 0.122260734 -0.0073696044 -0.00370648
-0.1169112 0.10242606 -0.07140787 0.0006199704 0.01313507 0.0074078212 -0.06807359 0.060744893
0.01943727 0.07867762 -0.111119375 -0.0658547 -0.051939536 -0.0011308547 0.10145974 -0.101075634
0.078674346 -0.05419306 -0.026919447 0.05963863 0.050694805 0.0535939 -0.061238572 0.0055346047
0.12165249 0.08101315 0.09412468 -0.058427874 -0.058551893 0.08744896 0.015313312 0.101323836
-0.10317687 -0.09752918 0.04985606 -0.0049370527 0.1139216 -0.03708933 0.03817827 0.10331178
-0.068698086 0.0068222354 0.036339827 0.072783865 0.046553314 -0.08139134 -0.11983101 -0.020228678
-0.042607512 -0.04157137 0.059627324 -0.05441518 -0.008246125 0.039845902 0.002820054 -0.07155226
0.086301155 0.12118071 0.0786973 -0.01366863 0.007339163 -0.04980684 0.06995174 0.0015663096
-0.08203132 -0.050664376 0.02668883 -0.03705899 -0.063775726 0.100551434 -0.084941655 0.102702014
-0.082093775 -0.053142417 0.0278896 -0.056934115 -0.058554627 -0.08679513 0.07310417 0.012756363
0.07005743 -0.08167651 0.11306821 0.09413246 -0.0132841505 -0.09777544 0.1056492 0.10101698
-0.023540523 0.02348128 0.024006208 0.10563963 0.088155895 -0.093743384 0.020409863 0.091916345
-0.034185715 -0.020481182 -0.009873815 0.06885098 0.075114384 -0.06789685 -0.045935858 0.021879213
0.006725404 -0.075644866 0.10200013 -0.0582745 -0.020357661 0.019157382 0.10360744 0.052262057
00000000: 9755 e23d ffaa eebd 1040 bcbd 3fa5 ebbc
00000010: 4ec5 e4bb 87f5 c4bc 2e1b e43d 651d a9bb
00000020: e2e1 d23d 06d3 6ebd 012f 9bbd c9b1 7a3d
00000030: 42fa 863d 0b5a d0bd 6f2a bc3d f1e1 44bd
00000040: ec50 31bd d578 d33d 253e e93d c139 573d
00000050: 02df e63d a960 a7bd bf37 82bd ae64 a03d
00000060: 4274 a43d fcbd aabd 982f 083d 2fea c8bd
00000070: 3cf4 4bbc dc84 28bc d5ae 1c3d cfaa e83d
00000080: f254 ccbd 4c00 f0bd d42b 55bd 239b 64bd
00000090: d3bd 843d 0914 dfbd 5ba1 5a3d 8d17 44bd
000000a0: 2f1f ddbc cc88 f8bc 5ef5 843d 582e 3c3d
000000b0: 571d bebc 5647 32bd 1208 b5bd 5233 953c
000000c0: 2819 343d 15fd aa39 0240 8b3d cfb8 013e
000000d0: b963 f63d 9e32 3d3c 0016 6f3c 274b 873c
000000e0: 7111 67bd bd84 033d 09f7 90ba 4e98 c23c
000000f0: 9526 debd 9d50 1b3d e17d 4dbd 209f a73c
00000100: bec7 7f3a 131f 8a3d c62c 98bc 024c 60bd
00000110: 7bdd 4b3d e3bf aebd d72a 12bb 2794 8d3a
00000120: ff47 f9bc 70cc 94bd 92dc 7e3d 1113 d13c
00000130: 7a4c 88bd 4df2 c0bc f8fe 68bd 0ecc 56bd
00000140: 97a8 473d e873 b03c 9625 e3bd 9162 a1bd
00000150: e3c8 dfbd 8231 b1bb 7b35 f7bd 1749 02bc
00000160: da93 a13d a20f 46bd 8b4a 38bd 2a49 833d
00000170: f8d2 d73d 3eb2 c4bc ba0a d43c 9eec c23d
00000180: b917 98bd 4840 95bd a063 973d f5e3 ccbd
00000190: 8540 873d 58c2 f63d 8381 db3d 2afd 943d
000001a0: ceb1 c1bd 3385 ac3b 5351 be3d 356d 283d
000001b0: b5de d0bd cb46 a0bd f632 953d 7f33 f93d
000001c0: 4bf1 b8bd 5dd7 5a3d 81bf 9b3d 1c81 c1bd
000001d0: 6495 863d 901a 0e3d e3cc 51bb f8e7 e03d
000001e0: ec73 febc 9cc6 62bd 1432 203d 244a d6bd
000001f0: 6193 173d 8b3e 99bd 7111 b8bd d361 f2bd
00000200: c757 82bd 7ec8 80bb 7788 b13d 6ec0 c13d
00000210: 43f5 903d 4f1e f63d 795e fc3c e065 d13c
00000220: d73e 8cbd 2bf8 abbd 9ff6 a6bd 2872 afbd
00000230: e73b 5a3d d663 fa3d b97c f1bb 6ae8 72bb
00000240: 246f efbd c1c4 d13d 4a3e 92bd 8285 223a
00000250: 7a34 573c 4fbd f23b 2b6a 8bbd a3cf 783d
00000260: e93a 9f3c bb21 a13d 8e92 e3bd d4de 86bd
00000270: 8dbe 54bd 3039 94ba 20ca cf3d be00 cfbd
00000280: 0420 a13d 8bf9 5dbd 2c86 dcbc a347 743d
00000290: 5ba5 4f3d 4785 5b3d 4cd5 7abd a15b b53b
000002a0: f124 f93d 39ea a53d 71c4 c03d 1152 6fbd
000002b0: 1cd4 6fbd 7118 b33d b0e4 7a3c df82 cf3d
000002c0: 654e d3bd 61bd c7bd de35 4c3d 00c7 a1bb
000002d0: ba4f e93d fbea 17bd d160 1c3d 2095 d33d
000002e0: 95b1 8cbd 0f8d df3b 12d9 143d b50f 953d
000002f0: b0ae 3e3d 81b0 a6bd f669 f5bd 9db6 a5bc
00000300: 3785 2ebd be46 2abd c83b 743d 74e2 5ebd
00000310: c11a 07bc 7535 233d a8d0 383b fe89 92bd
00000320: a9be b03d 982d f83d 0d2c a13d 64f2 5fbc
00000330: 5d7d f03b 4202 4cbd dc42 8f3d a14c cd3a
00000340: 0900 a8bd 7385 4fbd 89a2 da3c 2bcb 17bd
00000350: d99c 82bd e9ed cd3d e4f5 adbd 6f55 d23d
00000360: c820 a8bd ddab 59bd bb78 e43c bf33 69bd
00000370: fad6 6fbd a5c1 b1bd a4b7 953d 1000 513c
00000380: 457a 8f3d 0446 a7bd 4e90 e73d 85c8 c03d
00000390: c4a5 59bc 7d3e c8bd 9c5e d83d fee1 ce3d
000003a0: 0ed8 c0bc d05b c03c aba8 c43c 9759 d83d
000003b0: 148b b43d 88fc bfbd 9632 a73c a33e bc3d
000003c0: 5206 0cbd 27c8 a7bc c8c5 21bc be01 8d3d
000003d0: 92d5 993d 810d 8bbd 3d27 3cbd 093c b33c
000003e0: c760 dc3b b2eb 9abd 72e5 d03d 3eb1 6ebd
000003f0: 1cc5 a6bc f1ef 9c3c 2330 d43d bd10 563d

actor.last.model.0.bias f4 [9]
-0.082225814 -0.122924894 0.0012973911 0.08580257 0.043601003 -0.028918443 0.036379434 -0.050905533
0.0021540506
00000000: 0266 a8bd 0cc0 fbbd 390d aa3a 42b9 af3d
00000010: f796 323d 5fe6 ecbc 9a02 153d 5282 50bd
00000020: f92a 0d3b

critic.preprocess.model.0.weight f4 [128, 3]
0.41154137 0.22076371 0.46176213 0.53442454 -0.050997294 -0.57248616 -0.49634826 0.3337776
0.023254981 0.44391495 0.075889 -0.4104893 -0.07479428 0.39428622 0.20083663 -0.13396654
-0.10506868 -0.17750624 -0.051438488 -0.38772002 0.46357659 0.37716976 -0.33841345 0.16565587
-0.07639707 0.4207019 0.30104026 -0.25384504 0.5783775 0.50595534 -0.07312191 0.44421723
-0.18984286 -0.2722119 -0.43341374 0.351291 0.1502086 -0.4888423 0.31990024 0.18684813
-0.3569085 -0.11990989 0.17403807 -0.45568997 0.15654266 -0.054907 0.38718948 0.35708487
-0.48507196 0.07670678 0.06509696 0.40982518 0.3019442 0.38432965 -0.39595664 -0.2570108
-0.3018934 0.11957704 -0.31645405 -0.31173256 0.20829894 0.56535363 0.244361 -0.53884184
-0.21976852 -0.46266156 0.318064 0.37843797 0.14185321 -0.43836358 0.58568674 0.48415014
0.09476704 -0.24922675 0.3167806 -0.28689304 -0.34918645 -0.22138691 0.2502699 0.1945093
-0.5020276 -0.2660963 -0.43060023 0.17357327 0.3093499 -0.46732333 0.43224427 0.14473608
-0.41839325 -0.15082985 -0.5098611 -0.49858564 -0.14384808 -0.09587794 0.21861371 0.3372161
0.09290202 -0.47561392 -0.3319473 0.3816308 -0.3644057 0.483719 -0.3888338 0.5039453
0.4950626 -0.5548386 -0.46809202 -0.10600409 -0.30521664 0.39352217 -0.06904025 0.029617535
0.22642326 0.48803335 0.3628762 -0.3276245 0.13712962 -0.09730316 0.31153855 -0.29301122
-0.21329789 -0.37613696 -0.10834951 -0.28024876 0.34356937 0.4820043 0.2799271 0.3250488
-0.54658294 0.312785 0.5747307 0.46247908 0.08769256 0.16286062 0.55563927 0.32027733
-0.014525447 0.36076444 -0.41934362 0.0071213553 -0.112213515 -0.08519842 0.44985646 0.20294973
-0.42521143 -0.35307372 0.061239973 -0.01772262 0.21907097 -0.41828716 -0.23769732 0.4527843
0.49110168 0.21327026 -0.053950537 -0.4048761 -0.4224034 0.1639011 -0.13367704 0.46105638
-0.43198586 0.4712633 -0.47384351 0.22598097 0.4186917 -0.20143862 -0.36377752 -0.49709773
-0.23152828 -0.39765105 -0.42898706 0.5236643 -0.20201285 0.36349785 -0.109705366 -0.46030515
0.5411241 0.47246507 -0.36225542 -0.0664669 0.35026458 -0.1306211 -0.3694267 0.41427687
0.5544461 0.3638317 0.18517624 0.21796937 0.07259556 0.43711177 -0.33205035 0.17366022
0.22795705 -0.41562873 0.33080575 0.15293528 -0.2858949 0.085496195 0.47521043 0.37318185
-0.2470207 0.24514934 0.21565801 0.121127784 0.05583001 0.49271137 0.08378459 0.28166768
-0.35941753 0.07979632 -0.32394347 -0.14929976 0.35695884 0.3212073 -0.081696466 0.113941714
-0.16669665 0.26952597 0.4330087 0.56870663 -0.3283456 0.1847066 0.012750669 0.024062267
-0.018856563 0.011841307 -0.1128512 -0.3847551 -0.29021972 0.06833899 -0.11768641 0.48337477
0.24416973 -0.10232363 -0.5526387 -0.08572644 -0.44245824 -0.3141754 -0.05751127 -0.4413672
0.19631 -0.20299464 0.54930055 -0.014310539 -0.032822967 -0.4597463 -0.48693445 -0.49034113
-0.30908307 -0.13678828 0.5379716 0.093003824 -0.37451884 0.391104 -0.33748987 0.5077339
00000000: 8db5 d23e e20f 623e 166c ec3e 0cd0 083f
00000010: 8ae2 50bd 748e 12bf 5c21 febe e6e4 aa3e
00000020: 3b81 be3c d248 e33e b16b 9b3d a72b d2be
00000030: be2d 99bd e2df c93e 1ea8 4d3e 862e 09be
00000040: 402e d7bd 32c4 35be 2ab1 52bd 3d83 c6be
00000050: e959 ed3e 651c c13e 8744 adbe b1a1 293e
00000060: 1176 9cbd 3d66 d73e f321 9a3e faf7 81be
00000070: 8c10 143f 4a86 013f f1c0 95bd 7170 e33e
00000080: 2b66 42be 5c5f 8bbe 68e8 ddbe 6adc b33e
00000090: 49d0 193e 8a49 fabe f7c9 a33e 1e55 3f3e
000000a0: b6bc b6be 5193 f5bd 0937 323e 3250 e9be
000000b0: b84c 203e 2ae6 60bd b33d c63e d4d3 b63e
000000c0: 5a5b f8be 7218 9d3d 8e51 853d 9bd4 d13e
000000d0: 6e98 9a3e dbc6 c43e d4ba cabe eb96 83be
000000e0: c691 9abe cfe4 f43d 4406 a2be 699b 9fbe
000000f0: 514c 553e 04bb 103f c539 7a3e 8af1 09bf
00000100: 000b 61be fae1 ecbe 49d9 a23e 9fc2 c13e
00000110: f841 113e 3171 e0be 91ef 153f 87e2 f73e
00000120: 3915 c23d 4c35 7fbe 1131 a23e a5e3 92be
00000130: 91c8 b2be 40b3 62be 6023 803e 722d 473e
00000140: e184 00bf c63d 88be a277 dcbe 31bd 313e
00000150: 1c63 9e3e 0145 efbe 1f4f dd3e b235 143e
00000160: a437 d6be 2473 1abe 4286 02bf 9e46 ffbe
00000170: e94c 13be a75b c4bd 46dc 5f3e 97a7 ac3e
00000180: 6a43 be3d ab83 f3be fff4 a9be 1d65 c33e
00000190: 6293 babe 04aa f73e 3915 c7be 8f02 013f
000001a0: d878 fd3e e709 0ebf c2a9 efbe ac18 d9bd
000001b0: 5b45 9cbe bd7b c93e f964 8dbd 79a0 f23c
000001c0: 80db 673e 82df f93e e9ca b93e 66be a7be
000001d0: b56b 0c3e e146 c7bd fb81 9f3e 9105 96be
000001e0: c36a 5abe 0695 c0be 59e6 ddbd c47c 8fbe
000001f0: 53e8 af3e 45c9 f63e 9b52 8f3e cc6c a63e
00000200: dcec 0bbf 5b25 a03e 8d21 133f 0fca ec3e
00000210: 2898 b33d efc4 263e 603e 0e3f 64fb a33e
00000220: 24fc 6dbc 1eb6 b83e 35b4 d6be 425a e93b
00000230: 33d0 e5bd 827c aebd 9653 e63e 0ed2 4f3e
00000240: 50b5 d9be 14c6 b4be c4d6 7a3d 072f 91bc
00000250: 2454 603e bc29 d6be ed66 73be 58d3 e73e
00000260: ae71 fb3e 8563 5a3e 3dfb 5cbd ec4b cfbe
00000270: 4245 d8be b1d5 273e a2e2 08be 950f ec3e
00000280: 402d ddbe 6c49 f13e 9e9b f2be 8e67 673e
00000290: c25e d63e ed45 4ebe 0c41 babe 9883 febe
000002a0: c015 6dbe eb98 cbbe 31a4 dbbe dd0e 063f
000002b0: 75dc 4ebe 641c ba3e 35ad e0bd 1ead ebbe
000002c0: 1c87 0a3f f1e6 f13e 8b79 b9be cc1f 88bd
000002d0: e155 b33e 8ac1 05be 7f25 bdbe 191c d43e
000002e0: 2ef0 0d3f 2648 ba3e d79e 3d3e 5d33 5f3e
000002f0: fbac 943d 1dcd df3e 8102 aabe fcd3 313e
00000300: 936d 693e 4acd d4be 5f5f a93e 119b 1c3e
00000310: d160 92be a118 af3d c84e f33e b111 bf3e
00000320: fff2 7cbe 6e08 7b3e 74d5 5c3e d811 f83d
00000330: 02ae 643d aa44 fc3e 4197 ab3d bf36 903e
00000340: 9305 b8be 416c a33d ebdb a5be 09e2 18be
00000350: 4fc3 b63e 4975 a43e 7a50 a7bd 465a e93d
00000360: 87b2 2abe 4fff 893e 51b3 dd3e c296 113f
00000370: ea1c a8be ba23 3d3e 2fe8 503c 3b1e c53c
00000380: 1479 9abc 0b02 423c 881e e7bd 9ffe c4be
00000390: ae97 94be 50f5 8b3d 9305 f1bd e67c f73e
000003a0: a107 7a3e 0d8f d1bd bb79 0dbf 5891 afbd
000003b0: e389 e2be 99db a0be f090 6bbd e2fa e1be
000003c0: 7d05 493e d4dd 4fbe f69e 0c3f c076 6abc
000003d0: 6071 06bd de63 ebbe 794f f9be fe0d fbbe
000003e0: 2340 9ebe 3a12 0cbe 82b8 093f ca78 be3d
000003f0: efc0 bfbe c93e c83e 79cb acbe d9fa 013f
